indian-sign-language-learning-app-win32-x64/resources/app/Models/Numbers/5.tflite (tflite, 15504 bytes, 11 tensors)

predAlpha/Mod_B3_Lo/MatMul f4 [1, 32]
000000 e6 ee 18 3e d7 48 d7 3e 72 e9 56 3e 71 35 8d be
       0.14934883 0.4204776 0.2098749 -0.27579835
000010 7a e8 02 bf 5c fe 84 be 9f f4 ff 3e 3c 88 dd bc
       -0.5113598 -0.2597531 0.4999132 -0.0270425
000020 f3 57 d0 be fa 32 59 3d 2d d7 98 3e 8c 07 12 bf
       -0.406921 0.05302713 0.29851666 -0.57042766
000030 b4 4a a4 be c7 e1 07 be e9 ba dd 3e 45 8b 8d 3e
       -0.32088244 -0.13269721 0.43306664 0.27645317
000040 01 00 d6 be 26 ec 93 3e fd e7 29 3f d6 13 12 bf
       -0.41796878 0.28891104 0.6636961 -0.5706152
000050 0f 5e b7 be fb 32 8a be 4b 0f 49 be 6f a1 00 3e
       -0.3581395 -0.2699202 -0.1963474 0.12561582
000060 2e 23 30 bf 1a 02 f1 3e f4 eb c3 3e c5 bd e8 3d
       -0.6880368 0.47071916 0.38265955 0.11364321
000070 4a 81 e5 be 46 81 2a be c5 9e d3 3e d6 2b 12 bf
       -0.44825202 -0.16650876 0.4133207 -0.5709814

predAlpha/Mod_B1_L0/MatMul f4 [32, 28]
000000 ac 0a b3 3d f6 2d 6a 3e a9 7b 06 be 8f 20 ab bd
       0.0874227 0.22869095 -0.1313311 -0.083558194
000010 63 36 20 bd 58 81 84 be f2 f7 2a 3e 9b f8 92 bd
       -0.039114367 -0.2587993 0.16696146 -0.07176324
000020 dd 3f c2 bd 11 63 3c 3d cd 38 43 3e 42 ef 52 3d
       -0.09484837 0.045992915 0.19064637 0.051497705
000030 4e a9 1c 3d 60 7e 4f be 26 c7 88 bd be 5a 38 be
       0.0382474 -0.20263052 -0.066786095 -0.18003365
000040 80 b6 8e be f1 aa 13 3e 80 90 b5 bc 55 ec 82 be
       -0.2787361 0.14420678 -0.02216363 -0.25570932
000050 fc 66 28 3e fd d5 8b 3c ce 02 ec bd 20 d7 c6 bd
       0.16445535 0.017069811 -0.115239725 -0.097090006
000060 ea e5 81 be 3b 06 ce 3e 52 98 79 be a8 79 90 3e
       -0.25370723 0.40239128 -0.24374512 0.28217816
000070 af 18 a0 bd f0 4d e3 3d 16 3b 64 be c4 64 62 be
       -0.07817208 0.1109885 -0.22288164 -0.22108752
000080 7e e4 49 be 87 6a 62 be 07 b0 41 3e 1c 32 5c bd
       -0.19716069 -0.2211095 0.18914805 -0.053758726
000090 c4 2a 82 be 11 d9 c5 bd 37 68 9c 3e cc 4f 92 3e
       -0.25423253 -0.09660543 0.3054826 0.28576505
0000a0 5b 5c bf 3d 52 f7 3a 3c 1c 87 30 bd df a9 31 be
       0.09343787 0.011411505 -0.0430976 -0.17349957
0000b0 e7 f9 e9 be f4 0d c5 3d ab f0 a7 bd 60 b9 43 39
       -0.45698473 0.09621802 -0.08200201 0.00018665707
0000c0 0a 63 12 3e 0d 9d a7 3e 7c 52 e4 3c e5 76 9a 3d
       0.14295593 0.32737008 0.027871363 0.075422086
0000d0 26 d8 91 be 80 41 8b 3e a7 9b 1b bb 01 97 63 bd
       -0.2848522 0.2719841 -0.00237439 -0.05556393
0000e0 ab 17 07 3e 01 d5 6d 3c d7 ad cc bd a3 1d ff bd
       0.13192622 0.014516116 -0.09994095 -0.12456825
0000f0 8b 30 9b bd e4 92 cc bd b2 ec a6 bd b3 2b 59 3e
       -0.07577618 -0.09988955 -0.08150615 0.21208076
000100 35 a5 de bd da 51 11 be 08 f4 b0 3c 4f e2 84 bc
       -0.108713545 -0.1419138 0.021600738 -0.016221194
000110 c3 0f 48 3d 0b 48 4f 3c 93 14 64 3e c4 06 b4 bd
       0.048843157 0.012651454 0.22273473 -0.08790353
000120 48 0c 27 be a1 ba 8a 3d 03 52 fc 3c 66 5d 0e be
       -0.16313279 0.06773878 0.030800825 -0.13902816
000130 43 42 f6 3d 77 a2 d1 3b 2c 01 05 be 71 ae 70 3d
       0.12024357 0.006397541 -0.12988728 0.05876011
000140 1e 1a 9d be b3 32 cc 3e ad 32 83 be f1 3c 7e 3e
       -0.30683988 0.3988243 -0.256246 0.24827935
000150 7d d3 06 bd ec fb 9d 3c 81 a6 a2 bb ec c6 e5 3d
       -0.032916535 0.019285165 -0.0049636965 0.11219582
000160 ec 28 a9 bc 8f b9 e8 3b 6d 0f 21 3e b5 a2 39 3d
       -0.020649396 0.0071021984 0.1572854 0.045321185
000170 f4 84 8f bd 59 19 13 be 1f bd 39 be f7 ac b5 3d
       -0.07007781 -0.14365138 -0.1813855 0.08870881
000180 53 42 b6 bd 5b f3 9e 3d 85 10 5d 3d b1 f0 bc 3e
       -0.08899369 0.0776126 0.053970832 0.36902383
000190 99 d5 35 3e 0f f9 5a bc cf 80 ac be 97 26 92 bd
       0.17757262 -0.013365044 -0.33692023 -0.07136267
0001a0 5a 7a 88 be f8 67 52 3e 38 6e d5 bd 58 9b 22 be
       -0.26655847 0.20547473 -0.10421413 -0.15879571
0001b0 d7 97 be 3e b4 8d 1c 3e bb cf d5 3e d9 26 8f bd
       0.3722522 0.1528843 0.41760048 -0.069898315
0001c0 cc 9a a4 be f4 b6 0d 3d 1a 86 47 3e 8a e0 a8 3e
       -0.3214935 0.034598306 0.1948475 0.3298381
0001d0 ac ee fa bd 93 be 92 3d 82 39 4a 3e be 5b 2d 3e
       -0.12252554 0.071652554 0.197485 0.16929528
0001e0 76 f3 28 3e a8 d2 69 be 47 2f 10 be 0c 04 b7 3e
       0.16499123 -0.22834265 -0.14080535 0.35745275
0001f0 df 20 4d bd a4 ea 08 bd 70 4a bd 3e 4e e0 a6 3e
       -0.050080176 -0.033426896 0.36970854 0.32593006
000200 10 61 0b 3f d5 b6 bf be e0 a1 9d bd 56 a6 f6 bd
       0.5444498 -0.37444177 -0.07696891 -0.12043445
000210 c6 29 6e 3e 17 b0 5e be 96 35 1d 3e f0 64 d7 bd
       0.23258123 -0.2174686 0.15352473 -0.10517299
000220 9e 65 99 bb c7 d7 aa 3d bd a5 7f 3e 3f 19 86 be
       -0.004681303 0.083419375 0.24965568 -0.26191136
000230 fe 42 a6 bc 7d e9 5b bd 3d d2 0f 3e fd 6e de 3e
       -0.020295616 -0.05368947 0.14045043 0.43444052
000240 73 7f 57 bd 73 d4 8a be 7b 40 2b be 7e a0 dd bc
       -0.05261178 -0.2711521 -0.16723816 -0.027054068
000250 ed 5d 9a 3e 20 4f bd 3c f8 72 47 be 5a 96 2d be
       0.30149785 0.023109019 -0.19477451 -0.16951886
000260 53 e2 0f bd 8f 05 cc bc 40 c1 a5 3c 18 39 df 3d
       -0.03512795 -0.024904994 0.02023375 0.10899562
000270 7b 78 9d bd eb 1d 0d be 1b e2 94 3e 72 c5 00 3e
       -0.076889955 -0.13780944 0.29078755 0.1257532
000280 fd e4 bf be 76 29 dc 3d 71 a4 8a be b0 f3 29 3e
       -0.37479392 0.107500955 -0.27078584 0.16596866
000290 a4 03 66 3c a4 8b 04 be 8f 62 77 be 79 db 9c bd
       0.014038954 -0.12943894 -0.24158691 -0.076590486
0002a0 a6 63 9a 3e b4 7a 2a 3e d0 d1 6c be 4e 37 6d bd
       0.3015415 0.1664837 -0.23126912 -0.05791407
0002b0 e2 f7 8e be 4e 96 12 be 87 d6 a6 3e 19 68 5e 3d
       -0.27923495 -0.14315149 0.32585546 0.054298494
0002c0 bb 34 1d be b3 22 20 be b1 b9 0a 3e df ad 17 3e
       -0.15352146 -0.15638237 0.13547398 0.1481242
0002d0 f5 f2 35 bd 78 0d a0 be 73 de 0e 3e ec d6 86 be
       -0.044421155 -0.31260276 0.13952045 -0.26335847
0002e0 9f 10 d7 be 93 21 e1 be 45 98 9b 3d 35 e0 74 bb
       -0.42004868 -0.43970928 0.075974025 -0.0037365083
0002f0 e7 b3 27 3e f1 45 d7 3d 65 8e a5 3b 03 48 dc 3d
       0.16377221 0.10511387 0.005052375 0.10755923
000300 16 a6 42 3c 2a cb 4a 3e fc 51 3f be a8 de 27 3d
       0.011880418 0.19804063 -0.18683618 0.040983826
000310 50 74 16 3b 95 8e b6 bd 7b ef 81 3d 57 36 4f 3e
       0.0022957511 -0.08913914 0.063445054 0.20235573
000320 7f 1e 7d 3d b9 b3 27 3e 77 d9 82 3d 89 e6 69 3e
       0.06179666 0.16377153 0.063891344 0.22841848
000330 bf bc 87 b9 1e af 1f bc af 8f d7 bd 0d fa 18 3d
       -0.00025889833 -0.009746341 -0.10525452 0.037347842
000340 6a cc fc bd 60 30 d7 bd ed 12 06 3d 25 a6 c9 3d
       -0.123436764 -0.10507274 0.032732893 0.09846143
000350 af 1a 27 3d f8 6c 34 3e ef 03 61 be 97 ff 6b bc
       0.04079693 0.17619693 -0.21974157 -0.014404199
000360 e7 ff ec bd c2 9b 39 bd 36 b4 89 bd 53 84 27 3b
       -0.11572247 -0.045314558 -0.06723826 0.002556105
000370 89 07 3d 3e 60 a2 4d bd 33 62 d6 bd f1 b8 1b 3e
       0.18459906 -0.05020368 -0.10467949 0.15207268
000380 cd a5 fc bd 85 94 f1 bb 42 2b de 3e d2 d1 8e be
       -0.123363115 -0.0073724412 0.43392378 -0.27894455
000390 53 28 0f 3e a8 08 fd bc 4f db ad bd cd b5 64 be
       0.13980226 -0.030887917 -0.084890954 -0.22334976
0003a0 cc c6 d2 3e 87 f7 5d 3c 6d 01 91 be 5b b1 6e be
       0.41167295 0.013547785 -0.283214 -0.23309843
0003b0 f9 1d 64 be bc 83 55 3b 85 60 41 3e b0 d0 00 3f
       -0.22277059 0.003257974 0.18884476 0.5031843
0003c0 2a 1d de 3d c7 0c 06 bc 91 a5 e3 bd bb 48 e1 3d
       0.10845406 -0.008181757 -0.11115564 0.110002
0003d0 1f 61 a9 bc 0e 8f ac 3d ba 6d ca bd 3c a2 7b 3d
       -0.020676194 0.08425723 -0.0988421 0.061434016
0003e0 e2 8d ba 3d c6 e6 bd 3d 87 85 2e 3d 72 24 8a 3e
       0.09109093 0.09272532 0.04260781 0.2698093
0003f0 8b 01 7c be f2 aa 6f 3e 9a c2 36 bd 6d 88 8d be
       -0.24609964 0.23405054 -0.04461918 -0.27643147

predAlpha/Mod_B0_L5/Tensordot/MatMul f4 [14, 28]
000000 00 58 01 be fa 3e 65 be 8c d0 02 be bb 66 cd be
       -0.12631226 -0.22387305 -0.12774867 -0.4011744
000010 ef 45 1c 3d c0 7c c7 3d 91 1b 9a 3d 7e 57 ad 3e
       0.03815263 0.09740591 0.07524789 0.33855814
000020 c4 d8 17 be c3 20 d5 3d 2a 78 31 be a2 be be be
       -0.14828783 0.104066394 -0.17330995 -0.37254816
000030 68 79 ec bd f9 1a 30 bc 7d 68 67 bd 1b 2d 4b be
       -0.11546594 -0.010748618 -0.056496132 -0.19841425
000040 61 f9 c3 bd 3a 6a 6f 3d ce 6e 8b be b3 76 15 3d
       -0.095690496 0.058450915 -0.27232975 0.036490154
000050 e1 b7 39 be 10 95 9e bd e2 68 c7 3d 94 80 e6 bd
       -0.1813655 -0.07743275 0.09736802 -0.11254993
000060 df 0e 83 3d 1e cc 12 be f3 47 e1 3d 75 c5 80 bc
       0.06399321 -0.14335677 0.11000051 -0.015719155
000070 e8 ef 37 3d 24 2f e7 be 1e f5 06 3e 4a d9 cf be
       0.044906527 -0.45153153 0.13179442 -0.40595466
000080 33 f8 a6 bd b0 b5 95 be 62 84 a5 be 34 c9 4b be
       -0.08152809 -0.2924018 -0.32327563 -0.19900972
000090 ce a5 7f bd c8 c8 0a 3d 8f 90 b7 3c b4 52 82 be
       -0.062413983 0.033882886 0.022407798 -0.25453722
0000a0 e9 a7 1a 3d d9 65 8e 3d 0b 06 83 3e 49 79 85 3e
       0.037757788 0.0695302 0.25590548 0.26069096
0000b0 02 d0 8d be 40 fd c8 be c2 06 b5 bd d0 36 a0 be
       -0.2769776 -0.39255714 -0.088391796 -0.3129182
0000c0 e3 53 f2 bd 30 1c 99 3e 66 ca 2e be c4 4e 8e 3e
       -0.11832406 0.29904318 -0.17069396 0.27794468
0000d0 d9 92 70 3e 72 48 00 3f de 03 8d be 8e 8a 75 bb
       0.23493518 0.5011054 -0.27542013 -0.0037466618
0000e0 36 bb cb be f2 9a 4a be 88 81 b6 be f3 9e 81 be
       -0.39791268 -0.1978567 -0.356457 -0.2531658
0000f0 e8 96 36 be a5 9f 36 3d 7b 25 91 be 08 85 93 bd
       -0.17831004 0.044585843 -0.28348908 -0.07203108
000100 5e 65 87 be 4e f6 d9 3d 97 a3 ff 3c 89 8e d1 bc
       -0.26444525 0.10642682 0.031205935 -0.025580661
000110 07 4d 4a be c1 f8 be 3d 1a 2e de 3e eb 01 03 3c
       -0.19755946 0.0932479 0.43394548 0.007996063
000120 20 96 55 bd f5 be 69 3d 0c 24 d7 bd 5b c1 ce 3d
       -0.052145123 0.057066876 -0.10504922 0.100954734
000130 8a 6b ea 3d 0e a1 68 bd 93 fa 51 be 3f 15 99 bd
       0.11446293 -0.05679422 -0.20505743 -0.074747555
000140 00 88 cd 3e 89 0c d4 3d 6b 6b 1a 3e 38 e1 e5 3d
       0.40142822 0.103539534 0.15080039 0.11224598
000150 26 6b 25 bd 7e 6e ef ba db 7c 03 be 04 e5 f5 bd
       -0.040385388 -0.0018267182 -0.12840597 -0.12006572
000160 fe fb 40 3e 7d 99 76 3d 61 86 0e 3d 0b 36 cb 3d
       0.18846127 0.06020497 0.034796122 0.09922417
000170 36 bf 62 3d bd 7e 0b 3d cd ad d7 bd 7f df 55 be
       0.055358134 0.034056414 -0.10531197 -0.20886038
000180 9e 40 92 3e e9 d1 48 3c f7 68 36 be 54 ea 3d 3e
       0.28564924 0.012257078 -0.17813478 0.1854642
000190 21 46 6c 3e 8e 6c 3f bd 18 9a 9c 3d f3 5b dd 3d
       0.23073627 -0.046734385 0.076465786 0.108085535
0001a0 c5 04 d4 bd 30 03 03 be cf 48 46 be dd 70 73 be
       -0.10352472 -0.12794185 -0.19363712 -0.23773523
0001b0 86 a8 2d 3d a8 06 b4 3e 17 c1 2d be ab 1b ea bc
       0.042397045 0.35161328 -0.16968189 -0.028577646
0001c0 b4 47 13 3e 11 65 17 be 1c 3d 88 bd c1 fc f4 3d
       0.14382821 -0.14784648 -0.06652281 0.119622715
0001d0 e7 8f 06 3e 08 a3 88 bd ab 98 5d 3e 9f d6 5c 3e
       0.13140832 -0.06671721 0.2164027 0.21566246
0001e0 89 38 21 3e c0 ad c9 3e 09 ae 98 3e 35 ff c6 3e
       0.15744223 0.39390373 0.29820278 0.38866583
0001f0 83 f2 59 bd ff f9 6f bb 23 d8 0b be 24 fd cd 3c
       -0.053209793 -0.0036617515 -0.13656668 0.02514512
000200 0b 50 8d 3e 0c 51 8f 3e d3 46 a8 be cc d0 81 bd
       0.2760013 0.2799152 -0.32866535 -0.06338653
000210 5a dc b2 3e 8d 09 40 be e4 93 fb ba cb 88 15 be
       0.3493374 -0.18753643 -0.0019193855 -0.14602964
000220 be dd 85 3a b8 ae 89 be cd a1 ca be 3b 6a 1c b9
       0.0010213179 -0.26891112 -0.3957657 -0.00014916893
000230 fa ea bc bd 93 a5 8d be 8f e4 87 be 01 30 01 3d
       -0.09224506 -0.27665386 -0.26541564 0.03153992
000240 d2 a9 09 be 85 60 80 3e d0 f8 b8 3e 7d 1d b2 bd
       -0.13443688 0.2507364 0.3612733 -0.08697031
000250 e4 68 39 3d 97 8e 1b 3e 6d 84 5e bc 46 cb 31 3d
       0.045266047 0.15191112 -0.013581377 0.043406747
000260 2e 1a a8 bd e5 16 91 3b 94 b1 a8 bd 02 12 0e 3e
       -0.082081184 0.004427778 -0.08236995 0.13874057
000270 4b 32 9a 3d 3c 57 6b 3e 14 46 ec 3c 12 07 a0 bd
       0.07529124 0.22982496 0.02884201 -0.078138486
000280 38 47 cf 3c 93 cf 10 bd c7 34 4c 3b ff 4d 91 3e
       0.025302514 -0.03535421 0.0031159387 0.2837982
000290 d3 af 84 3d 3d a0 70 3e ac 28 99 be 37 ed 1d 39
       0.06478848 0.23498626 -0.29913843 0.00015061056
0002a0 29 76 3e 3e 85 f4 29 3e 1f b6 a1 bc 9a 74 67 3e
       0.18599762 0.16597183 -0.019740162 0.22603074
0002b0 71 99 57 be b1 5f c9 bd 48 c5 13 3e c8 40 5e 3e
       -0.21054627 -0.09832705 0.14430726 0.217044
0002c0 63 15 54 be de 67 2c bd e4 e6 93 3d b1 77 cb 3e
       -0.20711283 -0.042091243 0.07221773 0.39739755
0002d0 56 dc 59 3e 2e 92 f0 3c 3f 07 80 bd d3 95 f3 3d
       0.21275458 0.029366579 -0.06251382 0.11893811
0002e0 70 3a 08 be 82 07 33 be fe 12 70 3e ce 35 fa 3d
       -0.13303542 -0.17483333 0.23444745 0.12217294
0002f0 a9 7e 5c be 4c 86 8d be 38 67 b0 bd 47 71 8f be
       -0.21532692 -0.27641523 -0.086134374 -0.2801611
000300 fc 60 05 3e 23 6f 93 3c bb 67 0f 3e 2c 28 d3 bb
       0.13025278 0.01799733 0.14004414 -0.006443998
000310 29 89 99 3e 79 fc c8 be 2d dd bc 3c 82 32 3b bd
       0.29987457 -0.3925512 0.023054684 -0.045702465
000320 ef d6 95 3d e5 36 28 bd 25 aa 48 3e 65 15 14 be
       0.07316386 -0.041067977 0.19596155 -0.14461286
000330 5c 5f 3f 3e 37 ea 23 bd 14 8d 6a be c1 dc 84 3e
       0.1868872 -0.040018287 -0.2290538 0.25949672
000340 eb 27 9d 3d 75 05 ff bd 73 2d 5f 3e 33 d1 19 3d
       0.076736294 -0.12452213 0.21794681 0.037553024
000350 13 55 23 3e 0a 0c d7 3c f6 35 50 3e 0d ea 4c be
       0.15950422 0.026250858 0.20333084 -0.20011158
000360 ca 61 ad be 46 4b a7 3e d8 ae 56 bd fc 42 4b 3e
       -0.3386367 0.32674617 -0.052412838 0.19849771
000370 94 aa 5d 3e 34 a2 60 be e8 14 75 3e 00 19 9d 36
       0.21647102 -0.21936876 0.23933756 4.681875e-06
000380 dd c7 6b b8 0d 44 bb 3e f1 be c6 3d 11 42 a0 be
       -5.6214503e-05 0.36575356 0.09704388 -0.31300405
000390 ad d9 ca bd 2f a9 51 be 03 69 89 be 7f 4a 2d be
       -0.099047996 -0.20474695 -0.2683793 -0.16922949
0003a0 bc 79 3a 3a 7c cf c0 3e 02 20 09 be 35 36 fe 3c
       0.0007113477 0.37658298 -0.13391116 0.031031707
0003b0 63 3f 46 bd e4 20 89 bd 21 e5 9b 3c ec 0c 0d bc
       -0.048400294 -0.066957265 0.019030156 -0.008609038
0003c0 78 d2 94 3c 31 3e 88 3e 52 ae da bd 2e b4 94 3e
       0.018166766 0.26609948 -0.1067778 0.29043716
0003d0 a0 e8 53 bd d5 6c d6 bb a9 36 65 bd 90 e6 c7 bc
       -0.05173552 -0.0065437355 -0.05596033 -0.024401933
0003e0 11 78 2e bc af e9 94 be 38 ff aa 3c 7e d1 23 bc
       -0.010648743 -0.29084536 0.02087365 -0.009998677
0003f0 da 61 b3 bb 2a 1e 00 be 90 02 29 3d d4 fd 59 3e
       -0.0054743113 -0.12511507 0.04126221 0.21288234

predAlpha/Mod_B0_L7/batchnorm/sub f4 [14]
000000 11 5f 2c bf 2d ba d6 be d5 e7 0f bf 18 73 b6 be
       -0.6733256 -0.41938916 -0.5621312 -0.35634685
000010 94 11 25 bf 1f 25 00 bf e2 c8 d7 bf 84 61 94 bf
       -0.6447995 -0.5005664 -1.685818 -1.159226
000020 6e 7f 2b bf 07 4a 0a bf 9f 64 18 bf 2a 14 a1 bf
       -0.6699132 -0.54019207 -0.59528536 -1.2584279
000030 9b 88 0f bf 87 9b 39 bf
       -0.5606782 -0.7250294

predAlpha/Mod_B0_L7/batchnorm/mul f4 [14]
000000 7e 71 2c 41 04 c8 bf 40 de 7d 20 41 cd 49 54 41
       10.777708 5.993166 10.030729 13.268018
000010 2e a8 d4 3f b5 cc 85 40 94 a4 fe 40 8a 05 ca 40
       1.6613824 4.1812387 7.95759 6.313176
000020 52 81 9b 40 90 5c 97 3f 21 f2 ae 41 40 b7 f5 40
       4.859536 1.1825123 21.868227 7.6786194
000030 ec 1c 52 41 ef 18 e6 40
       13.132061 7.1905437

predAlpha/Mod_B0_L3/batchnorm/sub f4 [28]
000000 de 35 26 bf 6d e4 b0 bf 0c f5 a4 3d 70 f1 14 bf
       -0.64925945 -1.381971 0.080545515 -0.58180904
000010 00 cc 0e bf 3d cc 3c bf 45 b7 53 c0 cf 15 e1 bf
       -0.5578003 -0.7374914 -3.308061 -1.758478
000020 ba f4 bb bf 8f d4 26 bf 3b 79 8f bd 2b 46 9b bf
       -1.468406 -0.6516809 -0.07005545 -1.2130789
000030 f4 5e ba bf 85 e6 1a be 45 b2 fb bf 43 90 32 bf
       -1.4560227 -0.15126999 -1.9663779 -0.69751376
000040 fd a9 22 bf c7 28 fc bd 2b 27 2b bf e4 ea 1a bf
       -0.6354063 -0.12312465 -0.6685664 -0.60514665
000050 a9 da 04 c0 c0 2c fa bd 88 70 77 3d 3b 8a ae bf
       -2.075846 -0.12215567 0.060410053 -1.3635935
000060 98 57 2a bd 50 79 b0 bf 8d 05 e7 bf 3c ad bc 3b
       -0.041587442 -1.3787022 -1.8048569 0.005757956

predAlpha/Mod_B0_L3/batchnorm/mul f4 [28]
000000 15 98 4e 40 ac 91 06 40 ee 44 f9 41 02 23 e2 3f
       3.2280324 2.102641 31.158657 1.7666934
000010 07 f4 d1 3f c8 db b1 3f 8c d9 ed 40 49 7a d0 3f
       1.6402596 1.3895197 7.432806 1.6287318
000020 a1 dd d6 40 76 9f 46 40 11 4a a6 40 e2 e9 17 41
       6.7145543 3.1034827 5.1965413 9.4946
000030 7f ce 4a 3f a6 0c 72 40 66 14 e5 3f 8c fe 0a 40
       0.7922134 3.782022 1.789685 2.1717863
000040 5b 12 f5 40 01 4c 1c 40 1c 96 ac 40 c3 da 9e 40
       7.6584907 2.442139 5.393324 4.9642043
000050 ad 6e 70 40 b2 71 5f 40 b9 6a f9 41 72 a5 22 40
       3.756755 3.4913144 31.17711 2.541348
000060 4c ab f0 41 84 78 89 40 cd 0a fe 3f f3 09 f7 41
       30.083641 4.2959614 1.9847046 30.879858

predAlpha/Mod_B1_L0/BiasAdd/ReadVariableOp f4 [32]
000000 ea 67 24 3d 2c 84 b2 3d aa 7c 8c 3d 98 b2 08 3e
       0.040138163 0.08716616 0.06859715 0.13349378
000010 67 30 dd 3d 67 74 f7 3d 5c 79 08 3d f1 80 4b bd
       0.10800248 0.12082749 0.033318862 -0.049683515
000020 06 40 1c 3e e6 38 4a bd 10 71 90 3d 7f d0 c6 3d
       0.15258798 -0.04937067 0.07052815 0.09707736
000030 77 9b 3e 3e a2 bb a4 3e 90 dd bb 3c 5f b8 d0 bd
       0.18613993 0.32174402 0.022932798 -0.10191416
000040 56 36 4d 3d e9 e9 92 3c ca cd 11 3e 02 6b ce 3d
       0.050100647 0.017933803 0.14238659 0.10079004
000050 7f 4a 1a 3e 42 91 eb 3d 17 9f c4 3e 0d c5 86 3a
       0.1506748 0.11502315 0.38402626 0.0010282114
000060 51 60 33 3e 66 f4 48 bc f7 ad c3 3d 65 5f 5b 3c
       0.1751721 -0.0122653 0.095546655 0.013389443
000070 48 fc e5 3d e2 cf cf 3d 9d e0 1e bd 84 2b 52 3e
       0.112297595 0.101470724 -0.038788427 0.20524412

predAlpha/Mod_B0_L5/BiasAdd/ReadVariableOp f4 [14]
000000 fb 1e eb bd 50 55 1d bd bf 24 80 bd 14 71 69 be
       -0.114805184 -0.03841144 -0.06257009 -0.22797042
000010 18 aa 88 bd 19 7f 3d bd f1 ed 7c bb 7e 20 7e bc
       -0.06673068 -0.046263788 -0.0038593973 -0.015510676
000020 e7 a6 81 bc 9d 5d d6 3c b7 25 9b bd 6f 17 d7 bd
       -0.015826656 0.026167685 -0.07575553 -0.105025165
000030 09 df c2 bd 24 15 52 be
       -0.09515197 -0.20515877

predAlpha/Mod_B0_L1/BiasAdd/ReadVariableOp f4 [28]
000000 91 c6 14 3d 3f 83 01 bc dc 30 43 bc 8e 39 78 3d
       0.03632218 -0.007904827 -0.011913504 0.060601763
000010 2e ee e1 3c 46 15 9c 3c 6f ca f0 bc 71 cc 6a bc
       0.027579393 0.019053113 -0.029393403 -0.014330969
000020 a9 06 cd bc ad b8 de 3c 64 8e 19 bd b7 60 97 bc
       -0.02502759 0.02718767 -0.03748931 -0.018478734
000030 cc 45 0d 3d db 49 c8 bc 21 d6 64 39 9b c0 32 3d
       0.03449039 -0.02444928 0.00021823544 0.043640714
000040 c7 db 8b 3b 85 07 af bb 4c 0f a6 bc aa 91 85 3c
       0.004268143 -0.0053414726 -0.020270966 0.01630481
000050 de 69 67 bd 6f b1 eb bc d3 c8 b5 bb e7 a1 be 3b
       -0.056497447 -0.02877113 -0.0055476218 0.00581764
000060 4c 85 da bc 78 77 2e bd 03 76 73 3c 6f d9 1a bd
       -0.026674889 -0.042594403 0.014859679 -0.037805017

predAlpha/Mod_B0_L1/Tensordot/MatMul1 i1 [28, 57] scale=0.0035593652 zero_point=0
000000 e2 e4 05 cc 0c 15 fc e5 29 02 24 e2 e5 22 33 0f
       -0.10678095 -0.09966222 0.017796826 -0.185087 0.042712383 0.07474667 -0.014237461 -0.096102856 0.14593397 0.0071187303 0.12813714 -0.10678095 -0.096102856 0.12101842 0.18152763 0.053390477
000010 01 1a 02 1a 2b 0e 19 2c 15 09 00 f0 fc 05 e5 2f
       0.0035593652 0.0925435 0.0071187303 0.0925435 0.1530527 0.04983111 0.08898413 0.15661207 0.07474667 0.032034285 0.0 -0.056949843 -0.014237461 0.017796826 -0.096102856 0.16729017
000020 14 fa 09 01 ce d1 0f fa 12 1a 14 21 48 f3 40 1d
       0.0711873 -0.021356191 0.032034285 0.0035593652 -0.17796826 -0.16729017 0.053390477 -0.021356191 0.06406857 0.0925435 0.0711873 0.11745905 0.25627428 -0.04627175 0.22779937 0.10322159
000030 dd e8 0c e2 cf cb f8 f1 f5 f1 0d dd 0f f1 f2 f4
       -0.12457778 -0.085424766 0.042712383 -0.10678095 -0.1744089 -0.18864636 -0.028474921 -0.053390477 -0.039153017 -0.053390477 0.04627175 -0.12457778 0.053390477 -0.053390477 -0.04983111 -0.042712383
000040 be b9 06 06 2f c8 44 3d be b6 49 f5 b5 33 e3 d1
       -0.2349181 -0.25271493 0.021356191 0.021356191 0.16729017 -0.19932444 0.24203683 0.21712127 -0.2349181 -0.263393 0.25983366 -0.039153017 -0.2669524 0.18152763 -0.10322159 -0.16729017
000050 1c dc f2 ff 48 18 c3 ec 38 e2 22 ab 24 c9 dc 1a
       0.09966222 -0.12813714 -0.04983111 -0.0035593652 0.25627428 0.085424766 -0.21712127 -0.0711873 0.19932444 -0.10678095 0.12101842 -0.30254605 0.12813714 -0.19576508 -0.12813714 0.0925435
000060 ef ee 06 f4 0c 34 bf 50 d9 cd ea e9 15 0b 25 e2
       -0.06050921 -0.06406857 0.021356191 -0.042712383 0.042712383 0.185087 -0.23135874 0.2847492 -0.13881524 -0.18152763 -0.078306034 -0.0818654 0.07474667 0.039153017 0.1316965 -0.10678095
000070 bf 15 fc 2d 2f b9 4b 2a b7 0c 58 f4 0b 10 0e f7
       -0.23135874 0.07474667 -0.014237461 0.16017143 0.16729017 -0.25271493 0.2669524 0.14949334 -0.25983366 0.042712383 0.31322414 -0.042712383 0.039153017 0.056949843 0.04983111 -0.032034285
000080 19 11 37 de a8 f2 08 59 10 37 1d e2 e3 09 11 e8
       0.08898413 0.06050921 0.19576508 -0.12101842 -0.31322414 -0.04983111 0.028474921 0.3167835 0.056949843 0.19576508 0.10322159 -0.10678095 -0.10322159 0.032034285 0.06050921 -0.085424766
000090 f0 ec 0e 08 26 34 07 be 15 f7 d6 e2 30 06 13 d0
       -0.056949843 -0.0711873 0.04983111 0.028474921 0.13525587 0.185087 0.024915555 -0.2349181 0.07474667 -0.032034285 -0.14949334 -0.10678095 0.17084953 0.021356191 0.06762794 -0.17084953
0000a0 e9 e0 e2 0c 15 00 c8 09 2c e2 4b 29 0b 04 21 54
       -0.0818654 -0.113899685 -0.10678095 0.042712383 0.07474667 0.0 -0.19932444 0.032034285 0.15661207 -0.10678095 0.2669524 0.14593397 0.039153017 0.014237461 0.11745905 0.29898667
0000b0 d7 ec ff d5 e9 25 49 f4 25 fd 1e c6 3d e8 cc 44
       -0.14593397 -0.0711873 -0.0035593652 -0.1530527 -0.0818654 0.1316965 0.25983366 -0.042712383 0.1316965 -0.010678096 0.10678095 -0.20644318 0.21712127 -0.085424766 -0.185087 0.24203683
0000c0 11 09 d1 06 f5 d5 07 2c 29 f0 22 39 f6 d9 57 3a
       0.06050921 0.032034285 -0.16729017 0.021356191 -0.039153017 -0.1530527 0.024915555 0.15661207 0.14593397 -0.056949843 0.12101842 0.20288381 -0.03559365 -0.13881524 0.30966476 0.20644318
0000d0 21 e5 3a ec 03 dd d7 34 45 35 d5 eb 0d e6 ea 3c
       0.11745905 -0.096102856 0.20644318 -0.0711873 0.010678096 -0.12457778 -0.14593397 0.185087 0.2455962 0.18864636 -0.1530527 -0.07474667 0.04627175 -0.0925435 -0.078306034 0.2135619
0000e0 0d d0 34 fd 29 dd d5 f9 fb de ff 0c 00 cd b3 4e
       0.04627175 -0.17084953 0.185087 -0.010678096 0.14593397 -0.12457778 -0.1530527 -0.024915555 -0.017796826 -0.12101842 -0.0035593652 0.042712383 0.0 -0.18152763 -0.27407113 0.27763048
0000f0 f4 e9 07 df 1f 0b 00 09 e0 3c e8 e3 18 35 39 35
       -0.042712383 -0.0818654 0.024915555 -0.11745905 0.11034032 0.039153017 0.0 0.032034285 -0.113899685 0.2135619 -0.085424766 -0.10322159 0.085424766 0.18864636 0.20288381 0.18864636
