indian-sign-language-learning-app-win32-x64/resources/app/Models/Numbers/6.tflite (tflite, 15504 bytes, 11 tensors)

predAlpha/Mod_B3_Lo/MatMul f4 [1, 32]
-0.29924628 0.19182082 -0.22233063 0.35098565 0.4636668 0.04792919 -0.35496274 0.35950792
0.45111075 0.5020306 -0.25653368 -0.26172033 0.29887748 -0.12031455 -0.18112107 -0.631064
-0.10018888 -0.061689064 -0.12236537 0.306474 0.39788663 0.043881074 -0.47595453 -0.12512182
-0.35797158 -0.4054854 0.3229855 -0.2575024 -0.052850433 -0.13943057 0.09367114 0.08708848
00000000: cf36 99be ad6c 443e a4aa 63be 64b4 b33e
00000010: bc65 ed3e 6651 443d adbd b5be 6c11 b83e
00000020: fdf7 e63e 1485 003f 6258 83be 3500 86be
00000030: 7806 993e 7a67 f6bd cd77 39be 698d 21bf
00000040: d42f cdbd acad 7cbd b29a fabd 29ea 9c3e
00000050: ccb7 cb3e a4bc 333d 50b0 f3be ef1f 00be
00000060: 0d48 b7be c89b cfbe 5b5e a53e 5bd7 83be
00000070: b279 58bd e3c6 0ebe a8d6 bf3d 725b b23d

predAlpha/Mod_B1_L0/MatMul f4 [32, 28]
0.22842094 0.3565783 0.23447704 -0.32056227 0.2413715 0.022263676 -0.07811035 0.33609146
0.35108513 0.3273763 -0.26118863 0.32573366 0.33699214 0.27154672 -0.031282842 -0.0003056801
0.120875955 -0.10060291 -0.17981975 -0.065589204 0.21342821 -0.28505358 -0.28516278 0.062104527
-0.09473574 0.20967506 -0.17339349 0.06965245 -0.38374415 -0.28817213 0.021145038 0.18979858
-0.16604477 0.09293385 -0.1804852 0.10575625 -0.062216893 0.1243302 -0.02264612 -0.27232572
0.2569746 0.27838716 0.20815821 0.050942816 0.14274311 -0.14078397 -0.13026653 0.057111487
-0.009371666 0.07446263 0.12444842 0.067849025 -0.004151916 -0.14644082 0.24771525 0.12758067
0.1291946 -0.16618386 -0.2989908 -0.13070448 0.12995479 0.27838767 0.26573512 -0.101897955
-0.24841854 -0.042492505 0.24519287 -0.23431109 -0.035716727 -0.036785297 0.15476008 0.05398804
0.2066214 0.11502597 0.26061228 0.2981905 -0.19202727 -0.17123097 -0.08084433 0.2246188
-0.07484483 0.1991062 -0.22543052 -0.21032047 -0.26454234 -0.037468854 -0.103656106 0.14827514
0.0064938935 -0.26854116 -0.38408604 -0.25798714 -0.06684943 0.041876536 -0.088255614 -0.060874682
-0.06369051 -0.07328152 -0.21719417 -0.10275632 -0.2197294 -0.0011010882 -0.2667964 -0.0055065523
0.1667477 0.043132063 0.18458024 -0.12114086 -0.25990537 -0.064782664 0.19281587 -0.2515576
0.034054957 -0.24965824 -0.34700054 0.25240728 -0.09672179 0.3254529 0.0012247013 -0.30521166
-0.028671673 0.22929604 0.026869088 -0.19314297 -0.15464589 0.16680329 -0.008446653 0.07951429
-0.14097746 0.43357447 -0.07478026 0.3669957 -0.21962376 0.1435669 0.022868589 0.028040344
-0.029106906 -0.15840437 0.39944175 0.20717087 -0.22433361 0.18443035 0.08232007 0.1783887
0.09147352 0.2684135 -0.14183702 -0.025013808 -0.1381438 -0.12701832 0.2665322 -0.12627488
-0.16263336 0.24859947 0.082049586 0.19250055 -0.21895388 -0.072195426 0.11102836 0.23202373
-0.02685823 -0.17307661 0.024709113 0.076672755 0.08120105 -0.028401893 0.08724441 -0.023276975
-0.020233579 0.282675 -0.29531798 0.054698646 0.023434307 0.03728605 0.06865828 0.027153041
0.28042704 0.09483751 -0.26547953 0.14498489 0.18913522 0.108232744 0.040017266 -0.39329502
-0.0040862155 -0.23425204 0.18995291 0.07517968 -0.2606022 0.12279004 -0.45583406 -0.017280526
0.012031618 0.11983464 -0.0027136107 -0.15598708 -0.007605709 -0.17383808 0.22621423 0.44684047
-0.003547965 -0.26365954 0.19443569 -0.012973453 0.14964911 0.13765143 -0.13616599 -0.17786635
0.15737501 0.16022493 -0.14804019 -0.1363987 0.016619314 -0.04374213 0.22278032 0.3517027
0.2366883 -0.12593861 0.33061314 -0.3029192 -0.2627849 -0.17720328 0.33547232 0.005818242
-0.099733986 -0.050128307 0.18242706 -0.18973288 0.4099614 -0.29884976 -0.15179121 -0.15522692
-0.00014091397 -0.12727019 0.15106452 -0.03288474 0.29579785 -0.17883314 0.2602685 0.31851313
0.023263207 0.051145323 -0.39453414 0.31253555 -0.46636617 -0.05114992 0.020207006 -0.2747711
-0.14454538 -0.33955967 0.33261475 -0.008841894 0.2462289 -0.25851983 -0.080025144 -0.028744496
00000000: 2ee7 693e 6e91 b63e c01a 703e bd20 a4be
00000010: 172a 773e 5062 b63c 52f8 9fbd 2e14 ac3e
00000020: 6ec1 b33e de9d a73e 84ba 85be 90c6 a63e
00000030: 3c8a ac3e 2c08 8b3e 7022 00bd b043 a0b9
00000040: d08d f73d e608 cebd ab22 38be a253 86bd
00000050: ed8c 5a3e 8bf2 91be db00 92be 5161 7e3d
00000060: d004 c2bd 0fb5 563e 108e 31be f2a5 8e3d
00000070: 1d7a c4be 4c8b 93be 5c38 ad3c 8f5a 423e
00000080: a407 2abe 1a54 be3d 1dd1 38be bc96 d83d
00000090: 24d7 7ebd d5a0 fe3d 5b84 b9bc 476e 8bbe
000000a0: 2d92 833e c388 8e3e 6d27 553e 6aa9 503d
000000b0: 402b 123e ac29 10be 9764 05be bced 693d
000000c0: 9e8b 19bc dd7f 983d d0de fe3d 6ef4 8a3d
000000d0: cc0c 88bb 95f4 15be 11a9 7d3e 82a4 023e
000000e0: 974b 043e 1a2c 2abe 5215 99be 65d7 05be
000000f0: de12 053e d488 8e3e 6f0e 883e e0af d0bd
00000100: 6e61 7ebe 9f0c 2ebd d713 7b3e 3fef 6fbe
00000110: b44b 12bd 2eac 16bd 6d79 1e3e 9022 5d3d
00000120: 8f94 533e bc92 eb3d f96e 853e 6dac 983e
00000130: cca2 44be 2c57 2fbe b691 a5bd 7902 663e
00000140: 3f48 99bd 7fe2 4b3e 42d7 66be 405e 57be
00000150: 1872 87be f178 19bd a749 d4bd 70d5 173e
00000160: baca d43b 3a7e 89be eda6 c4be e416 84be
00000170: 5be8 88bd bb86 2b3d 5cbf b4bd bb57 79bd
00000180: 2c70 82bd 9f14 96bd 2668 5ebe e871 d2bd
00000190: be00 61be 6452 90ba 8a99 88be 4f70 b4bb
000001a0: e9bf 2a3e 3fab 303d 9a02 3d3e b318 f8bd
000001b0: 5112 85be c6ac 84bd 8671 453e 28cc 80be
000001c0: 367d 0b3d 69a6 7fbe 0eaa b1be 873b 813e
000001d0: 1316 c6bd c3a1 a63e 2886 a03a b444 9cbe
000001e0: dbe0 eabc 95cc 6a3e 901c dc3c 45c7 45be
000001f0: 7e5b 1ebe 7bce 2a3e d563 0abc 63d8 a23d
00000200: 655c 10be 79fd dd3e 6526 99bd dce6 bb3e
00000210: 0de5 60be 3403 133e e856 bb3c ddb4 e53c
00000220: 9b71 eebc c134 22be a183 cc3e 9a24 543e
00000230: b6b7 65be 4fdb 3c3e 6d97 a83d 87ab 363e
00000240: 7856 bb3d 7f6d 893e b93d 11be c2e9 ccbc
00000250: 9175 0dbe 1711 02be e976 883e 344e 01be
00000260: 5c89 26be dc90 7e3e 9d09 a83d dd1e 453e
00000270: 7235 60be 32db 93bd d662 e33d a197 6d3e
00000280: ca05 dcbc ff3a 31be c46a ca3c 9b06 9d3d
00000290: bc4c a63d 16ab e8bc 32ad b23d 5baf bebc
000002a0: e4c0 a5bc c7ba 903e eb33 97be b00b 603d
000002b0: 4ef9 bf3c 42b9 183d b69c 8c3d 0e70 de3c
000002c0: 2294 8f3e 2b3a c23d efec 87be eb76 143e
000002d0: aaac 413e 21a9 dd3d 25e9 233d f75d c9be
000002e0: a9e5 85bb c4df 6fbe 0483 423e cef7 993d
000002f0: a76d 85be 5879 fb3d 1563 e9be e48f 8dbc
00000300: 4320 453c dd6b f53d d5d6 31bb 14bb 1fbe
00000310: 5039 f9bb 9c02 32be b4a4 673e 46c8 e43e
00000320: fa84 68bb 62fe 86be 261a 473e 9b8e 54bc
00000330: 9e3d 193e 7ff4 0c3e 196f 0bbe 9922 36be
00000340: ea26 213e 0112 243e d997 17be 1aac 0bbe
00000350: 3a25 883c f32a 33bd 8620 643e 6012 b43e
00000360: 6b5e 723e 0df6 00be 2046 a93e 3a18 9bbe
00000370: be8b 86be c774 35be 07c3 ab3e f4a6 be3b
00000380: 5541 ccbd 5753 4dbd 29ce 3a3e 5649 42be
00000390: 76e6 d13e d602 99be 286f 1bbe cef3 1ebe
000003a0: 4ec2 13b9 1e53 02be a8b0 1a3e 26b2 06bd
000003b0: d172 973e 0920 37be ea41 853e 2714 a33e
000003c0: 7b92 be3c c27d 513d 6100 cabe a904 a03e
000003d0: 8cc7 eebe 9482 51bd 2a89 a53c ccae 8cbe
000003e0: b403 14be c4da adbe 7b4c aa3e 97dd 10bc
000003f0: 6e23 7c3e b65c 84be 39e4 a3bd 9479 ebbc

predAlpha/Mod_B0_L5/Tensordot/MatMul f4 [14, 28]
-0.34073105 0.33314115 0.050291985 0.013819557 0.00077320175 0.027695388 -0.030182581 -0.07403569
0.020703044 -0.42109358 0.114165746 -0.20646776 -0.12115411 0.1998833 0.16559121 0.005839026
-0.11706153 -0.1614047 0.14919853 0.12281742 0.00036702055 0.19598824 -0.3457176 -0.24179779
0.003095656 0.0012744347 0.11162952 0.09772016 -0.060237054 0.1984878 -0.23203737 0.1897934
0.32870245 -0.07249563 0.024831915 0.15558584 -0.07918851 -0.113253675 -0.057825655 -0.29717144
0.045228295 -0.076156296 0.3260221 0.05030992 0.19977288 -0.13640583 0.046510655 -0.15047388
-0.09688973 0.15028177 0.23275214 0.11031308 0.08184044 0.33454198 -0.2955047 0.2965535
-0.114424944 -0.13741241 0.33204395 0.20792615 -0.20642087 0.22444898 0.2340645 -0.20015131
-0.032522835 -0.10090045 0.099515684 -0.04762996 -0.04934967 -0.046929583 0.358727 -0.36369133
0.016154844 0.063369654 -0.08749317 -0.012843394 0.15012999 -0.0984327 -0.09065249 -0.058785994
-0.36052987 -0.2722439 0.4201936 -0.19651501 0.24444534 -0.28460127 -0.085637495 -0.26725128
0.32115012 0.085185006 -0.20474766 0.2331326 0.0481851 0.46487045 0.016808374 0.14650193
0.15580775 0.18214944 -0.24148452 0.07357192 0.4081284 -0.1930554 -0.19698715 0.18390928
0.007273764 -0.19385675 0.07642097 -0.17397182 -0.2980228 -0.0624923 0.09050762 0.29325402
-0.21447255 0.14668892 0.13592339 -0.22679225 0.007977987 -0.08994475 0.24098893 0.031379156
0.024751188 -0.061361972 -0.37771764 -0.033895127 -0.13709122 -0.16352798 -0.015829898 -0.19771062
0.1483488 0.05845658 0.13977818 0.17227504 0.2635599 -0.08579484 -0.2703422 0.24711038
-0.18664193 0.2570522 0.0171566 -0.01805818 0.029126294 0.24644965 -0.19510974 -0.118145406
0.0377711 -0.21394417 -0.1790828 -0.039459303 0.16938567 -0.054800224 0.24452654 0.14277914
0.0888836 -0.2534423 0.062652946 -0.24716769 -0.0847015 0.045176167 0.3358225 -0.023753585
-0.0064200643 0.2601457 -0.122569196 -0.0006789891 0.19864994 -0.09786668 0.18681754 -0.14505602
0.018103933 -0.06852412 -0.013682597 -0.054281626 -0.11947518 -0.029579626 -0.052261118 -0.22041066
-0.10489812 0.02609876 -0.19611704 0.06790157 0.06898852 -0.22169779 -0.13094321 -0.12777258
0.120513186 0.057424214 -0.105241455 -0.019816449 0.032199454 -0.16774376 -0.0458297 0.05986154
-0.020690875 0.031150728 0.15880874 -0.027176827 -0.01759926 0.41455868 0.046769183 0.07423703
-0.17576857 0.15749314 -0.05130775 0.09475315 -0.009422971 0.028952153 -0.17499086 -0.22038013
0.0475771 -0.21602872 -0.0055271112 0.17686895 0.16238283 -0.031086927 0.10823347 -0.11927225
-4.2891224e-05 -0.14329952 0.398603 -0.10778893 -0.13510336 -0.12383883 -0.27940878 -0.11473104
-0.18197477 0.046661533 0.32864422 0.09920229 -0.049976017 -0.21956925 0.24286442 -0.23740895
-0.2739624 0.36894426 0.40128386 -0.26202923 0.39190143 -0.049771953 0.13308163 0.3098693
0.008604446 -0.33825624 0.11921632 -0.3236649 -0.005918409 0.14936069 -0.2768725 -0.08721363
-0.30350032 -0.21627545 -0.037419315 0.0519151 -0.20978183 -0.45114625 -0.13154082 -0.109055035
00000000: 4d74 aebe 7a91 aa3e f8fe 4d3d 6c6b 623c
00000010: b1b0 4a3a 70e1 e23c 7641 f7bc 06a0 97bd
00000020: 6e99 a93c 9499 d7be bbcf e93d 496c 53be
00000030: a51f f8bd 35ae 4c3e be90 293e 4d55 bf3b
00000040: f5bd efbd 4647 25be 80c7 183e b387 fb3d
00000050: aa6c c039 24b1 483e e601 b1be d799 77be
00000060: 7de0 4a3b ef0a a73a 059e e43d 8221 c83d
00000070: 21bb 76bd 6340 4b3e 349b 6dbe 3359 423e
00000080: b04b a83e 9778 94bd 4d6c cb3c e551 1f3e
00000090: 962d a2bd 8bf1 e7bd 98da 6cbd db26 98be
000000a0: 4e41 393d d5f7 9bbd 5eec a63e c611 4e3d
000000b0: 4391 4c3e f8ad 0bbe f581 3e3d d315 1abe
000000c0: 1f6e c6bd 77e3 193e 9456 6e3e d3eb e13d
000000d0: f69b a73d 1649 ab3e 644c 97be dcd5 973e
000000e0: a057 eabd d7b5 0cbe aa01 aa3e 98ea 543e
000000f0: fe5f 53be f4d5 653e 9bae 6f3e 77f4 4cbe
00000100: aa36 05bd e5a4 cebd e1ce cb3d a217 43bd
00000110: e122 4abd 3c39 40bd 11ab b73e c035 babe
00000120: 2a57 843c f3c7 813d 9e2f b3bd 196d 52bc
00000130: adbb 193e 1597 c9bd 03a8 b9bd 95c9 70bd
00000140: 5f97 b8be 8d63 8bbe 9e23 d73e 3b3b 49be
00000150: e14f 7a3e 42b7 91be b662 afbd 29d5 88be
00000160: ca6d a43e 7a75 ae3d 5fa9 51be 50ba 6e3e
00000170: bd5d 453d 8003 ee3e b7b1 893c 9a04 163e
00000180: 118c 1f3e 6285 3a3e b847 77be e0ac 963d
00000190: 35f6 d03e 51b0 45be 00b7 49be b752 3c3e
000001a0: c158 ee3b 6282 46be 9982 9c3d ab25 32be
000001b0: 7296 98be edf7 7fbd 0f5c b93d 6425 963e
000001c0: b19e 5bbe 9f35 163e 802f 0b3e 3a3c 68be
000001d0: 1ab6 023c f434 b8bd cdc5 763e 6e87 003d
000001e0: 01c3 ca3c b156 7bbd 3564 c1be 9ed5 0abd
000001f0: a461 0cbe e173 27be b4ad 81bc a774 4abe
00000200: bfe8 173e 2b70 6f3d 0322 0f3e de68 303e
00000210: 53f1 863e 34b5 afbd 4b6a 8abe 810a 7d3e
00000220: 101f 3fbe 599c 833e ff8b 8c3c c0ee 93bc
00000230: 449a ee3c 4c5d 7c3e d9ca 47be 38f6 f1bd
00000240: deb5 1a3d 2e14 5bbe 7b61 37be 14a0 21bd
00000250: 7073 2d3e 3376 60bd 2a65 7a3e b234 123e
00000260: 9b08 b63d 30c3 81be 3050 803d 8719 7dbe
00000270: fb77 adbd a50a 393d edf0 ab3e e196 c2bc
00000280: 675f d2bb d131 853e 8f05 fbbd 30fe 31ba
00000290: e46a 4b3e 536e c8bd 194d 3f3e 9189 14be
000002a0: b34e 943c 6056 8cbd f92c 60bc 6956 5ebd
000002b0: 67af f4bd f950 f2bc c10f 56bd 55b3 61be
000002c0: d3d4 d6bd 11cd d53c e8d2 48be fa0f 8b3d
000002d0: da49 8d3d bf04 63be fa15 06be d1d6 02be
000002e0: 9ecf f63d a735 6b3d d588 d7bd 1b56 a2bc
000002f0: 93e3 033d 05c5 2bbe ecb7 3bbd 6031 753d
00000300: e97f a9bc d02f ff3c c29e 223e f0a1 debc
00000310: 532c 90bc 0941 d43e 0b91 3f3d 9609 983d
00000320: adfc 33be e245 213e 1328 52bd f10d c23d
00000330: ce62 1abc 112d ed3c ce30 33be 54ab 61be
00000340: 35e0 423d a236 5dbe c51c b5bb 221d 353e
00000350: af47 263e 03aa febc 82a9 dd3d 0245 f4bd
00000360: 1ae6 33b8 1cbd 12be b115 cc3e 71c0 dcbd
00000370: 8958 0abe 369f fdbd ab0e 8fbe 1cf8 eabd
00000380: 9857 3abe 2a20 3f3d 0e44 a83e 922a cb3d
00000390: a7b3 4cbd c3d6 60be 73b1 783e 551b 73be
000003a0: cd44 8cbe 43e6 bc3e 1475 cd3e b228 86be
000003b0: 4ea7 c83e addd 4bbd 8d46 083e 30a7 9e3e
000003c0: aaf9 0c3c ec2f adbe b027 f43d 68b7 a5be
000003d0: 37ef c1bb 02f2 183e 3bc2 8dbe 0f9d b2bd
000003e0: 6564 9bbe 5077 5dbe ff44 19bd eea4 543d
000003f0: 0cd1 56be a4fc e6be a3b2 06be 3f58 dfbd

predAlpha/Mod_B0_L7/batchnorm/sub f4 [14]
-0.38962618 -0.40641806 -0.36765742 -0.6979614 -0.5397915 -0.4026532 -0.5725326 -0.55227196
-0.87246585 -1.1322927 -0.7594748 -0.4679814 -0.79003185 -0.7999987
00000000: 157d c7be 0716 d0be 983d bcbe 99ad 32bf
00000010: c72f 0abf 8f28 cebe 7f91 12bf b261 0dbf
00000020: ec59 5fbf f8ee 90bf f16c 42bf 429b efbe
00000030: 873f 4abf b7cc 4cbf

predAlpha/Mod_B0_L7/batchnorm/mul f4 [14]
2.2578735 2.9576626 3.1743896 2.856394 3.286326 3.1598117 1.4252294 0.789035
3.5145295 2.247496 1.3396635 3.5817914 2.8256295 2.7708912
00000000: 0081 1040 584a 3d40 3329 4b40 29cf 3640
00000010: 2a53 5240 5b3a 4a40 eb6d b63f 33fe 493f
00000020: 0dee 6040 f9d6 0f40 187a ab3f 123c 6540
00000030: 1dd7 3440 4856 3140

predAlpha/Mod_B0_L3/batchnorm/sub f4 [28]
-0.35867158 -0.59368664 0.014490373 -0.49197784 -0.27132168 -0.09410307 -1.3539402 -1.7396342
-0.1605077 -1.0197427 -0.3784814 -1.2839825 -1.7275326 -1.2897569 -0.20613724 -0.5426621
-0.630652 -1.3434734 -0.05078167 -0.07498513 0.006901576 -0.86323035 -0.21868205 -1.2800728
-0.07942009 -1.4076849 -2.301603 -0.9333125
00000000: cda3 b7be d9fb 17bf 0869 6d3c 85e4 fbbe
00000010: adea 8abe 1cb9 c0bd ea4d adbf 55ac debf
00000020: 215c 24be ee86 82bf 50c8 c1be 8a59 a4bf
00000030: ca1f ddbf c116 a5bf a415 53be e7eb 0abf
00000040: 6972 21bf f0f6 abbf 7100 50bd ce91 99bd
00000050: 9e26 e23b aafc 5cbf 30ee 5fbe 6dd9 a3bf
00000060: 00a7 a2bd 052f b4bf 774d 13c0 91ed 6ebf

predAlpha/Mod_B0_L3/batchnorm/mul f4 [28]
3.183127 2.0150168 3.937166 3.05452 1.1985062 3.4072971 0.737436 0.9026746
2.0744762 2.416781 4.33724 0.524347 0.6783518 0.41396782 3.5899138 1.8379292
1.624732 0.5962156 3.855987 2.5555015 4.1806164 3.440389 1.3036971 0.43153733
2.5923104 0.65121305 1.977983 3.000114
00000000: 5ab8 4b40 09f6 0040 87fa 7b40 417d 4340
00000010: a768 993f 2811 5a40 9bc8 3c3f af15 673f
00000020: 38c4 0440 8aac 1a40 acca 8a40 9b3b 063f
00000030: 77a8 2d3f 97f3 d33e 26c1 6540 4441 eb3f
00000040: 38f7 cf3f 96a1 183f 7ec8 7640 568d 2340
00000050: 9cc7 8540 552f 5c40 8cdf a63f 76f2 dc3e
00000060: 6ae8 2540 e6b5 263f 8c2e fd3f de01 4040

predAlpha/Mod_B1_L0/BiasAdd/ReadVariableOp f4 [32]
0.094848834 0.07100066 0.07815054 -0.021874947 0.018376172 -0.019820185 0.083293416 0.05047006
0.039805945 0.05515941 0.08087578 0.11092759 -0.010951281 0.10735537 0.16664346 0.12418644
0.12575448 0.0044163447 0.022640826 -0.047597963 -0.05121901 0.00014684402 0.06959546 0.0073049087
0.05037982 0.05737261 -0.05615006 0.113762915 0.109614305 0.03552878 -0.061864614 -0.019249883
00000000: 1b40 c23d cb68 913d 640d a03d 1733 b3bc
00000010: a089 963c f15d a2bc bd95 aa3d b2b9 4e3d
00000020: 8f0b 233d d5ee 613d 33a2 a53d 012e e33d
00000030: 006d 33bc 22dd db3d 95a4 2a3e 7655 fe3d
00000040: c8c5 003e fcb6 903b 4179 b93c 15f6 42bd
00000050: 06cb 51bd 24fa 1939 1188 8e3d 045e ef3b
00000060: 125b 4e3d 8bff 6a3d 9bfd 65bd 88fc e83d
00000070: 777d e03d a086 113d c065 7dbd eeb1 9dbc

predAlpha/Mod_B0_L5/BiasAdd/ReadVariableOp f4 [14]
-0.0846848 -0.091971025 -0.086376324 -0.021456756 -0.02782811 -0.04763948 0.08737332 -0.00813113
0.010172583 -0.0071011228 0.049245704 -0.0120012555 -0.05776154 -0.0050034616
00000000: 396f adbd 4e5b bcbd 12e6 b0bd 14c6 afbc
00000010: c7f7 e3bc 9e21 43bd c8f0 b23d 6e38 05bc
00000020: e8aa 263c 89b0 e8bb ddb5 493d eaa0 44bc
00000030: 5d97 6cbd 14f4 a3bb

predAlpha/Mod_B0_L1/BiasAdd/ReadVariableOp f4 [28]
0.011609401 0.036999755 -0.010899628 0.07118303 0.0035668674 -0.02009713 0.029232275 -0.016357142
-0.024227586 -0.07791605 -0.0019286978 0.025145957 0.013796665 0.010827259 -0.01695905 0.02441817
0.030315414 -0.050272543 -0.021828836 -0.010002244 -0.0075160433 -0.072151154 0.03201842 0.02500549
0.005412892 -0.030251479 0.0063184374 -0.015966687
00000000: 5b35 3e3c 0e8d 173d 5a94 32bc 69c8 913d
00000010: 1bc2 693b bda2 a4bc 8678 ef3c 6aff 85bc
00000020: ee78 c6bc 7392 9fbd 5ccc fcba e5fe cd3c
00000030: 680b 623c d164 313c b5ed 8abc 9d08 c83c
00000040: 0858 f83c 95ea 4dbd 63d2 b2bc 74e0 23bc
00000050: 2449 f6bb fcc3 93bd bf25 033d 50d8 cc3c
00000060: a15e b13b f3d1 f7bc e50a cf3b 92cc 82bc

predAlpha/Mod_B0_L1/Tensordot/MatMul1 i1 [28, 57] scale=0.0029789621 zero_point=0
0.26214868 0.21746424 -0.2770435 0.062558204 -0.008936887 0.21746424 -0.1817167 0.24129593
0.080431975 0.02681066 0.06851613 -0.05660028 0.235338 0.1489481 -0.023831697 0.09234782
-0.13405329 0.047663394 0.10128471 0.15192707 -0.157885 -0.10128471 0.023831697 -0.02681066
0.2442749 0.16682188 0.035747547 -0.04170547 0.0148948105 0.10724264 -0.25619075 -0.13107434
0.0 0.13405329 -0.1727798 0.14596915 -0.035747547 0.0863899 0.11320056 -0.008936887
-0.1102216 0.19959046 -0.11320056 -0.017873773 0.235338 -0.07149509 0.15192707 0.14299019
-0.10724264 0.0 -0.119158484 0.062558204 0.011915849 -0.0148948105 0.02681066 0.13405329
0.23235905 -0.008936887 -0.2978962 -0.05362132 0.10128471 -0.059579242 0.24725387 0.07447405
-0.035747547 -0.1727798 -0.29491726 0.17873773 0.07149509 -0.13107434 0.25619075 0.04170547
0.10724264 0.24725387 0.04170547 0.10426368 0.011915849 0.017873773 0.26512763 0.09532679
-0.18767461 -0.19363254 0.16384292 0.2115063 -0.12213745 0.03872651 -0.12511641 0.15192707
-0.33662271 0.10724264 0.05362132 -0.10426368 0.023831697 0.03872651 0.1102216 0.157885
-0.20256943 0.18767461 0.18767461 0.119158484 0.080431975 0.07745302 -0.12511641 -0.25619075
-0.008936887 -0.16384292 0.13405329 0.21448527 -0.18469565 0.16086395 -0.098305754 0.029789621
-0.12809537 -0.11320056 -0.21746424 -0.059579242 -0.08341094 0.235338 -0.25023282 0.050642356
-0.047663394 0.10128471 -0.0029789621 0.032768585 -0.16086395 0.08341094 -0.035747547 0.062558204
0.02681066 0.09532679 -0.035747547 -0.13703226 0.04170547 0.09532679 -0.1489481 -0.098305754
0.02681066 -0.07447405 -0.008936887 -0.02681066 0.12511641 0.07149509 -0.059579242 -0.008936887
0.119158484 -0.25023282 0.02681066 -0.13405329 0.06851613 0.19661151 -0.098305754 0.023831697
0.14299019 0.20554839 -0.14596915 -0.0148948105 -0.07447405 0.20256943 0.157885 0.059579242
-0.15490603 0.080431975 -0.11320056 0.04170547 -0.25023282 -0.31279102 -0.116179526 0.24725387
0.116179526 -0.119158484 0.02681066 0.017873773 -0.19661151 -0.30385414 0.098305754 0.098305754
0.157885 -0.080431975 -0.07447405 0.16086395 -0.19661151 -0.157885 -0.10128471 0.029789621
0.05362132 0.0029789621 0.2204432 0.19661151 0.13107434 0.19363254 0.089368865 0.07745302
0.089368865 0.017873773 -0.032768585 0.008936887 -0.33066478 0.19959046 0.04170547 0.2442749
0.157885 -0.07149509 0.10724264 0.18469565 0.06553717 -0.26214868 0.035747547 -0.029789621
-0.07149509 -0.13405329 0.1727798 0.011915849 0.09234782 0.044684432 -0.098305754 0.20256943
-0.17575876 -0.18469565 -0.16980085 0.07447405 -0.0148948105 -0.13703226 -0.09532679 -0.2978962
0.03872651 -0.22342215 0.06553717 -0.16384292 0.19065358 0.017873773 -0.1489481 0.05362132
-0.21746424 -0.2770435 0.31874895 -0.0148948105 0.235338 0.07745302 -0.20554839 -0.09234782
-0.11320056 -0.2442749 -0.15192707 -0.2919383 -0.044684432 -0.023831697 -0.044684432 -0.1817167
-0.10426368 0.116179526 0.09234782 -0.3068331 0.17873773 0.16682188 0.09532679 -0.12511641
00000000: 5849 a315 fd49 c351 1b09 17ed 4f32 f81f
00000010: d310 2233 cbde 08f7 5238 0cf2 0524 aad4
00000020: 002d c631 f41d 26fd db43 dafa 4fe8 3330
00000030: dc00 d815 04fb 092d 4efd 9cee 22ec 5319
00000040: f4c6 9d3c 18d4 560e 2453 0e23 0406 5920
00000050: c1bf 3747 d70d d633 8f24 12dd 080d 2535
00000060: bc3f 3f28 1b1a d6aa fdc9 2d48 c236 df0a
00000070: d5da b7ec e44f ac11 f022 ff0b ca1c f415
00000080: 0920 f4d2 0e20 cedf 09e7 fdf7 2a18 ecfd
00000090: 28ac 09d3 1742 df08 3045 cffb e744 3514
000000a0: cc1b da0e ac97 d953 27d8 0906 be9a 2121
000000b0: 35e5 e736 becb de0a 1201 4a42 2c41 1e1a
000000c0: 1e06 f503 9143 0e52 35e8 243e 16a8 0cf6
000000d0: e8d3 3a04 1f0f df44 c5c2 c719 fbd2 e09c
000000e0: 0db5 16c9 4006 ce12 b7a3 6bfb 4f1a bbe1
000000f0: daae cd9e f1f8 f1c3 dd27 1f99 3c38 20d6
