indian-sign-language-learning-app-win32-x64/resources/app/Models/Numbers/9.tflite (tflite, 15504 bytes, 11 tensors)

predAlpha/Mod_B3_Lo/MatMul f4 [1, 32]
00000000: 2274 d33d 642e 253e fd2b bebe 4ed8 88bd
00000010: ce5d 453e 9b8f 903d 9aae a4be 1368 943e
00000020: 01ca 8bbe 86a4 5f3e f6c4 38bf 1ff6 babe
00000030: 82f2 5c3e d810 d3bd 2b51 ba3e 3208 6fbd
00000040: a48c 18be 7690 b6be e454 c83e 71cd b7be
00000050: 62a3 bf3d 277c 9abe 34a3 2dbe 012a 0dbf
00000060: 5ade dc3e bdc1 17be 6583 83be 22f0 97be
00000070: 281a dabe ef6a 3dbd 177a b73e e378 043f
0.10324885 0.16130978 -0.37142935 -0.06681882 0.19274065 0.070586406 -0.3216446 0.28985652
-0.27302554 0.21840104 -0.7217554 -0.365159 0.21576884 -0.10305947 0.3639005 -0.058357425
-0.148974 -0.3565709 0.39127266 -0.35898927 0.09357335 -0.30172846 -0.16956788 -0.5514222
0.4313839 -0.14819999 -0.25686184 -0.29675394 -0.4259808 -0.046244558 0.35835335 0.5174696

predAlpha/Mod_B1_L0/MatMul f4 [32, 28]
00000000: 83bb d93d 6f24 ec3d 718f 4a3d ccdc 59be
00000010: d1cc 11be 1814 fbbd 7fb7 023d afb1 9c3e
00000020: 17c1 0fbe f7aa d23e 0996 103c 4fb2 1bbd
00000030: 36b9 8a3e 667d 203e 9d54 49be f51c 313e
00000040: 9984 803e cf22 b23d af2f 183a 0223 723b
00000050: b83a 13be 99d9 7bbe aeb9 8f3e cba5 163e
00000060: b9d8 a4be f7de 123d 87d0 4fbe 603d 983c
00000070: 6d14 b3bd 56c0 77be b86f 34bd 527b bf3d
00000080: 0d89 073d ef74 563e fc7e 04be bc6f 62be
00000090: 07ef 043d fe0c 973e 4b0e 5abe a575 88bd
000000a0: 8d77 c53d 2bcf a3be ba80 21bc 775f f53d
000000b0: 5d1a 873d e3a6 f9bd 8181 17be 5f34 ec3c
000000c0: e470 093e bfc3 063c 5424 43be 9257 7f3d
000000d0: 083c 30be 18cd 1ebe b895 413b b280 c93d
000000e0: ee33 b93e 715c 8cbe f79d 2e3e fd6f 9ebe
000000f0: 2baa 8cbd 22dc 4fbe 322e 923e eea0 dc3c
00000100: 31c2 413e 6c2b c3be 0734 bb3d 709b 1dbe
00000110: 6957 96bc a2d7 4c3c 8f71 b03d 9342 aebd
00000120: 3a2f dfbd 6e22 573e 26d7 853d c27a 7b3e
00000130: 1e34 873e 4bd2 073e 4e1e eabe 909c 363e
00000140: 1cff f9bd 772a 2ebe 2a40 bb3e b83b d53d
00000150: 6aca b7bc 7353 2abd 70bd d53d 2f10 9fbe
00000160: 6ee5 933e 1682 63be 7329 443e 03f2 57bd
00000170: 6f76 463e 4aad c4be d8cf 1ebe 740f 31be
00000180: 557d 033e 126c 313e 9f63 c6bb 6d36 a9bd
00000190: a2a3 163e a66b 203e 774c dfba 18ff a2bd
000001a0: 8f08 8c3e d72b 6bbe 8428 7cbe 2d58 d9bd
000001b0: 771e 8b3e 9693 62be 0c08 ecbd 63f3 1a3e
000001c0: 3b41 edbc 4215 0abe d86d 21be c6fc d0bc
000001d0: f7c0 5ebd ab43 c63e 5cd6 4cbe 58cd 86bb
000001e0: 6249 a5be 521e 083e 9418 233b 4b7a 7ebd
000001f0: e04b 98be 8a23 043e 1a64 b23c 4349 9f3d
00000200: 5931 2cbd d706 d4be 1dbd 2cbe c29f fcbe
00000210: 3e3d 84be f68c 9cbe 9973 b33e f2b1 833e
00000220: 5581 2bbe f13b 0dbe b3a7 06be e061 28be
00000230: 88b1 073e 066f 423e e395 9bbc 2c6b 9c3d
00000240: 08f9 afbe 8ad4 9ebd 3c9a e1bd 51d1 7ebd
00000250: 2431 e33d fdfe 76be 9c03 7c3e b5d3 4c3e
00000260: 58ff 933e fe10 7abe cd96 08bd be49 343e
00000270: 9442 063e 06be 4fbc 91f5 3e3e 5e80 3bbe
00000280: e11b 32be 5b83 693d 0d91 643c 4b80 823d
00000290: ee04 7cbd 1f66 d7bd a391 6bbe a606 94bd
000002a0: 98fe 9bbe 8b5d a63d dbbc 74be 52db c3bc
000002b0: 2828 a93e 1f44 da3d fa3f d0bd 0fef 6f3d
000002c0: a16d 6cbe b254 b1bd d987 d93e cda2 893d
000002d0: 8688 f23d 8bec 37bd 4c20 753d b67f 41bd
000002e0: 6347 9cbe fb33 173c 8755 16be 4bb5 5cbe
000002f0: 528f 3e3e ef90 aabc f800 7cbd 90f7 28bd
00000300: 847d 143e 2018 da3c 5395 683e b2fc c3bd
00000310: 378b 1ebe 6b58 9a3e 2441 d13c 5d45 8cbe
00000320: 86bf 7cbe e122 a83e 7f60 3c3d ae0a 22be
00000330: a6e4 9ebd 3ca5 87bc f546 87be f038 813c
00000340: 0136 eebd 5124 63bc f36f 56be 0ad6 013e
00000350: b7e3 1f3e 97fe 113d e416 cc3d 1d0c 49be
00000360: ba64 f43d 4386 53bd 8af2 693e 43e5 8bbe
00000370: 94b0 ab3e 0337 15bd a814 923e bcb5 a23e
00000380: 4ef2 f73d 84ea b6be 4e32 023e fbe9 efbe
00000390: 390f 823e bc70 c6be df3d 8c3d ed68 cfbd
000003a0: 28db 953e ee55 2dbe e953 acbe 890d 06be
000003b0: 7157 5ebe 7d47 873d 8ffc 2d3e 7d1a aa3e
000003c0: dae8 abbd b2ee 8d3e 4956 693e e661 00bc
000003d0: c623 323e ac4c 1d3d 9fe3 f5be 7156 b9bd
000003e0: e99d 33be 404c d1bc 1cb0 143e 4f36 8e3e
000003f0: 06c3 1d3e c25b d03e 85d8 103e 3c57 783e
0.10631468 0.11530387 0.049453203 -0.21275634 -0.14238288 -0.12259692 0.031913277 0.30604312
-0.14038502 0.4114606 0.008824834 -0.038011845 0.2709443 0.15672836 -0.19661184 0.17296202
0.25101164 0.086980455 0.0005805445 0.0036947136 -0.14377868 -0.24594726 0.2807135 0.14711682
-0.32196596 0.035857167 -0.2029439 0.018583953 -0.0874413 -0.24194464 -0.044051856 0.09349693
0.033089686 0.20943044 -0.12939066 -0.22112936 0.032454517 0.295021 -0.21294515 -0.06663064
0.09641943 -0.31993994 -0.009857351 0.11981099 0.06596825 -0.12190034 -0.14795496 0.028833566
0.1342197 0.00822538 -0.19056827 0.062339373 -0.172104 -0.15507925 0.0029538702 0.09839
0.36172432 -0.27414277 0.17052446 -0.30944815 -0.068683945 -0.20298818 0.2855087 0.026932206
0.18921734 -0.38119066 0.09140783 -0.15391326 -0.018352227 0.012502583 0.086154096 -0.08508792
-0.108976796 0.21009228 0.06535177 0.24558547 0.2640695 0.13263814 -0.45726246 0.17833161
-0.122068614 -0.17008387 0.3657239 0.10411781 -0.022435386 -0.04158349 0.10436523 -0.31067035
0.28885978 -0.22217593 0.19156437 -0.052721035 0.19381116 -0.3841346 -0.15508974 -0.17291051
0.12840779 0.17326382 -0.006054356 -0.08262334 0.14710858 0.15666065 -0.0017036338 -0.079588115
0.2735028 -0.22965942 -0.2462483 -0.10612521 0.2717168 -0.22126612 -0.11524972 0.15131907
-0.028961768 -0.13484672 -0.15764558 -0.025511157 -0.054383244 0.38723502 -0.20003647 -0.0041138344
-0.3228255 0.13292816 0.0024886476 -0.062128346 -0.29745388 0.12904182 0.021776248 0.077776454
-0.04203925 -0.41411468 -0.16869016 -0.49340636 -0.25827974 -0.30576295 0.35049132 0.257217
-0.16748555 -0.13792397 -0.1314991 -0.16443586 0.13251317 0.18987665 -0.01899237 0.07637629
-0.34369683 -0.07755382 -0.11015746 -0.06221134 0.11093357 -0.24120708 0.24610752 0.20002635
0.2890575 -0.24420545 -0.03334694 0.17606255 0.13111335 -0.012679582 0.18648364 -0.18310687
-0.17393447 0.057010036 0.013950598 0.06372126 -0.06152814 -0.10517525 -0.23004775 -0.072278306
-0.30467677 0.08123311 -0.23900168 -0.023908291 0.3303845 0.10657524 -0.101684526 0.058577593
-0.23088695 -0.086587325 0.42486456 0.06720505 0.11842446 -0.04490332 0.059845254 -0.047240935
-0.30523214 0.009228702 -0.14681064 -0.21553533 0.1860936 -0.020821063 -0.06152436 -0.04125172
0.14501005 0.026622832 0.22713213 -0.09569682 -0.15482794 0.30145583 0.025543757 -0.2739667
-0.24682435 0.3283911 0.045990463 -0.15824386 -0.07758455 -0.016558282 -0.26421323 0.01577422
-0.11631394 -0.013863639 -0.20941143 0.12679306 0.1561421 0.035643186 0.099653035 -0.19633527
0.119332746 -0.051641714 0.22846428 -0.2732335 0.33533156 -0.036429416 0.28531384 0.31779277
0.12106763 -0.35725796 0.12714502 -0.468582 0.2540224 -0.38757885 0.068477385 -0.10127435
0.29268765 -0.16927311 -0.33657768 -0.13091101 -0.21713044 0.06605432 0.16990875 0.33223334
-0.08394022 0.27721173 0.22786821 -0.007835841 0.17396459 0.038403198 -0.48025224 -0.090496905
-0.17540707 -0.025549054 0.14520305 0.2777581 0.15406427 0.40695006 0.14145096 0.24252027

predAlpha/Mod_B0_L5/Tensordot/MatMul f4 [14, 28]
00000000: 0a8f 1b3e 914e 8bbe e48d fabc 0a8d e3bc
00000010: 15ff 3fbe 5581 9dbe c58a 773d 3e35 21be
00000020: 01d1 8d3d f142 47be d7d7 283e 9586 973c
00000030: 6376 2c3e faeb 72bc 8ccf 11bd a6f0 ab3d
00000040: 9048 ac3d 651e a63d da76 8e3e 24e8 71be
00000050: 5211 e03c 893a 563e 8b5c 2a3c fded 1abe
00000060: 4a50 afbd 5a4b 0fbe c6b4 083e 68ef 97bd
00000070: 3aa5 6c3e e0c7 20be c0a4 f23e fd15 efbd
00000080: 83a5 abbe f627 b63d 3982 8a3b 58c5 39be
00000090: 8c67 81be 400b 963c ae18 ca3e cbc0 71bd
000000a0: e22d 9e3d 65e4 12be 9631 9ebe 90a2 e83e
000000b0: 1b91 8e3c e790 2f3d 7ed1 6e3d 4ddd 0c3d
000000c0: 71e6 033e 8daa b1bd 281b 943e 38e3 b43e
000000d0: 01d2 9c3e ae55 8abd 3ddb cbbd 3647 823e
000000e0: 7537 a1bd 87ad c2bd 148f 953e 9ce0 b8bd
000000f0: 9f3b 753d 4cc4 e63d 04d7 453d 7ea5 d63d
00000100: 1f24 b6be 7b9e 2c3e 1fe2 063e 26dd 603e
00000110: 3812 50be 445f 263e f02b e9bc bc12 073e
00000120: e670 2e3e 1e0f 59be cd28 4ebe 712d 933e
00000130: 9235 0dbb 27a6 1d3e d021 cc3c a8de 023b
00000140: 6668 07be 8de9 b43e f26e c33d 3553 ea3d
00000150: 4a55 903e 1de3 9f3d f95a 033e dfd4 4f3e
00000160: 533a 49be 613c 043e 35d9 38be f21f a3bd
00000170: 3592 943e 7af8 99bc f3b5 5f3e 4145 423e
00000180: 87fd 2bbe 42cf 733e ad60 a0be 8b73 debd
00000190: 60ba b93e 7152 663e 2fd1 a23e 0172 43be
000001a0: b702 aa3c a9f3 513e b837 d93e 6be6 a5bd
000001b0: b6eb db3e 520a 7f3c f5c4 bbbd 32eb c03d
000001c0: 9fb4 12be c343 dcbc f0a4 a93d a680 893c
000001d0: e4da 2cbe 65dd 0e3d 1447 fbbb 444f 32be
000001e0: ed8d 8e3d ed57 20be 5382 003e 9600 c93d
000001f0: cd20 88be 346b 923d 7a02 833d 36a6 1dbe
00000200: 6e49 adbe 0aef 333b a90d fc3d 6f8d 14be
00000210: 609b a0bd 49ba cbbe 9238 11be f561 3dbc
00000220: 211f a33e 226c cbbd c8ac a53e b3b7 7dbe
00000230: 9251 0c3f 8360 7b3e 23cd c1bd 29d3 c8be
00000240: 7816 3d3e 27c1 ef3d d3d3 19bd 0a07 583e
00000250: a3f5 18be fa84 acbd bcd7 b3bd 201a 9e3e
00000260: 0b42 84be bc40 4e3e d809 cebd 58b1 63be
00000270: babd 0b3e 84c0 a83d 2f5d 9f3e 7452 15be
00000280: 3a09 4ebe 3509 41be 7940 69bd 62fc 14be
00000290: bdbc 023d 9fa1 5fbe d51f bebd 61a1 24bd
000002a0: 32a1 9fbe 7a74 c13d a820 b03d 3ce0 6d3e
000002b0: a8c0 5d3e 6932 933e 4479 54bc c549 66be
000002c0: a107 52bb cc45 c43c cc7c a13d 0287 6b3d
000002d0: f89c 84bd 4631 d03e d08e 85be 358d f93e
000002e0: 41be 833e 015e 89be 5465 49be 80d1 4abe
000002f0: 4b44 8c3e 07e1 b6be 6a7f a03c 70c4 63be
00000300: c2f1 543e 5771 a23d d8f5 25bd 02b5 91be
00000310: aa19 c6bd 9977 61be 81a1 a4be 4306 9b3e
00000320: 49fc 3d3d d6f6 603e e41f e7bc 20b6 853e
00000330: 17b3 c83e 33c7 9fbe 6579 8cbe c30b 55bd
00000340: 1729 ec3d 12af 86bd fbfb 4abc cddf 30be
00000350: f65b adbe 287b 113d 3674 823e cfbd ae3e
00000360: f505 473e 00ec f13b c4b4 503e f4e3 1b3e
00000370: 61ca 153e 71ae 23be 492c 3c3d eb05 6f3d
00000380: 07e8 503e ea2d b13c 28ae 47be 67e0 5b3e
00000390: 7176 c0be 2104 873e 0e25 a5be 235d a0be
000003a0: 72cd e03d d38c 94bd b294 b23e 536e c7be
000003b0: a7c1 273d cc72 d4bd 5405 3cbe 745a a73e
000003c0: 3e53 52be ef8f 003e c550 bbbe 9624 a63e
000003d0: 27a9 673e 1094 e1bd c343 2ebe 04c3 a23d
000003e0: e12f 86be 9d6a cb3e df87 88bb 18dc 56be
000003f0: a8b6 19bd 76d6 89bd 698c 4ebe 66cf 733d
0.15191284 -0.2720838 -0.030585237 -0.027777214 -0.1874965 -0.30762735 0.060435075 -0.15742967
0.0692463 -0.1945913 0.16488586 0.01849679 0.16842036 -0.014826769 -0.035598323 0.083955094
0.08412278 0.08111266 0.27825052 -0.23623711 0.027352009 0.20920767 0.0103980405 -0.15129848
-0.08560236 -0.13993588 0.1335021 -0.0741871 0.23109904 -0.15701246 0.4739132 -0.11674116
-0.33524713 0.08894341 0.0042269495 -0.18141687 -0.25274312 0.018315911 0.39471954 -0.059021752
0.07723595 -0.14344938 -0.30897206 0.45436525 0.017403176 0.0428628 0.058305256 0.034390736
0.12880875 -0.08675108 0.2892697 0.35329604 0.3062897 -0.06754623 -0.09953926 0.25444955
-0.07871906 -0.09505754 0.29210722 -0.09027216 0.059871312 0.112679094 0.048300758 0.10480784
-0.35574433 0.1685733 0.13172196 0.21959361 -0.2031945 0.16247278 -0.028463334 0.1319074
0.17035255 -0.21197173 -0.20132752 0.28745607 -0.0021546823 0.15395413 0.024918467 0.001996914
-0.13223419 0.35334435 0.095426455 0.11441652 0.2819007 0.0780699 0.12827672 0.20296048
-0.19651155 0.12913658 -0.18051608 -0.079650775 0.29017797 -0.01879524 0.21846752 0.18971731
-0.16795932 0.23809531 -0.31323758 -0.10861882 0.36275005 0.22492386 0.3180022 -0.19086458
0.020753248 0.20503105 0.42425323 -0.08100589 0.4295327 0.015566425 -0.09168426 0.0941986
-0.14326714 -0.02688778 0.082834125 0.016784977 -0.16880375 0.034879107 -0.0076683853 -0.1741305
0.06960664 -0.15658541 0.12549715 0.09814565 -0.26587525 0.071493536 0.06396957 -0.15395436
-0.33845085 0.002745571 0.12307293 -0.14507078 -0.078421354 -0.39790562 -0.14181736 -0.011558999
0.31859687 -0.09932734 0.32358384 -0.24777107 0.54811966 0.24548535 -0.09462955 -0.39223602
0.18465602 0.11706763 -0.037555527 0.21096435 -0.14937453 -0.08423801 -0.087813824 0.30879307
-0.25831637 0.20141882 -0.10060471 -0.2223562 0.13646594 0.082398444 0.3112578 -0.14582235
-0.20120707 -0.18851168 -0.05694625 -0.14549401 0.031918276 -0.21838997 -0.09283415 -0.040192965
-0.3117767 0.09446044 0.08599979 0.2323007 0.21655524 0.28749397 -0.012968365 -0.22489078
-0.0032048004 0.023959063 0.07885131 0.0575018 -0.06475252 0.40662593 -0.2608552 0.48740545
0.2573109 -0.26829532 -0.1966756 -0.1980648 0.27395853 -0.35718557 0.019592006 -0.22242904
0.20795348 0.07931774 -0.040517658 -0.2845841 -0.09672864 -0.22018279 -0.32154468 0.30278215
0.046383176 0.2196916 -0.028213449 0.26115513 0.39199135 -0.31206664 -0.27436367 -0.05201317
0.11531275 -0.06576361 -0.012389178 -0.17272873 -0.33859223 0.03551784 0.25479287 0.34129187
0.19435866 0.0073828697 0.20381457 0.15223676 0.14627983 -0.15984513 0.04594067 0.058355253
0.20401011 0.021628339 -0.19500029 0.21472321 -0.37590364 0.26370338 -0.32254833 -0.31321058
0.109766856 -0.072534226 0.3487907 -0.38951358 0.040956166 -0.10373458 -0.18361408 0.32686198
-0.20539567 0.12554906 -0.3658506 0.32449788 0.2262312 -0.11014569 -0.17018037 0.079473525
-0.26208404 0.39729777 -0.0041665877 -0.20982397 -0.03752771 -0.06730358 -0.2017075 0.059523962

predAlpha/Mod_B0_L7/batchnorm/sub f4 [14]
00000000: dc40 90bf 996d 86bf fcec d2be 4eff 28bf
00000010: 6715 0fbf d1ce 56bf ffc8 14bf ebd8 53bf
00000020: 12ef 4abf 78d9 76bf be45 98be 5246 53bf
00000030: fb39 1fbf c8ce 95bf
-1.1269794 -1.0502197 -0.4119643 -0.66014564 -0.5589203 -0.83909327 -0.58119196 -0.82752866
-0.7927104 -0.9642558 -0.2974071 -0.82529175 -0.62197846 -1.170373

predAlpha/Mod_B0_L7/batchnorm/mul f4 [14]
00000000: 3bc6 bd3f 1a72 4440 39ba 863f 3cc7 4d40
00000010: 3b55 4c40 0ddb 9940 a876 c73f d664 4a40
00000020: ab53 bb40 21e4 8340 27dc ac3f 95eb 9b3f
00000030: 9f47 8440 3eb7 c63f
1.482612 3.0694642 1.0525581 3.2152853 3.192702 4.8079896 1.5583086 3.1624045
5.8539634 4.121598 1.3504685 1.2181269 4.133743 1.5524671

predAlpha/Mod_B0_L3/batchnorm/sub f4 [28]
00000000: 803a 3dbf efef 33bf 5572 ecbd a390 37bf
00000010: 6792 dcbd b273 3dbf 60e9 5dbb 8243 abbd
00000020: 8ff4 b2bf 20c7 a9bf ee47 a3bf 77a8 ccbe
00000030: fd3d c5bf 3b16 53bf 00cf 0abe 6c40 23bd
00000040: d374 2bbf a110 1abf 9f80 27bf 1ac5 e3be
00000050: b349 85bf 2f26 20be c9e2 57bf b11a 15bf
00000060: 63f0 1dbf 5293 4bc0 eec2 eebe 9668 f7bf
-0.7391739 -0.70287985 -0.115452446 -0.71705073 -0.107701115 -0.7400466 -0.0033861026 -0.083624855
-1.3980883 -1.3263893 -1.2756326 -0.39972278 -1.5409542 -0.82455796 -0.13555527 -0.03985636
-0.66975135 -0.60181624 -0.65430635 -0.44486314 -1.0413116 -0.15639566 -0.8433042 -0.5824385
-0.61694926 -3.1808667 -0.46633095 -1.9328792

predAlpha/Mod_B0_L3/batchnorm/mul f4 [28]
00000000: 7c14 bf40 a09c 0040 9bc8 3140 ef09 983f
00000010: 0ae3 c63f 308c 1540 8db6 c240 d348 6f40
00000020: 946a 743f 53ee 2d40 26fd 6b3f 3d2a 9540
00000030: 0199 4440 0cab 5240 8a34 a240 6de6 dd40
00000040: f592 0440 ce30 3340 6f38 8c40 9fb4 8740
00000050: 5de0 2640 625b 9f3f d8a4 9940 2c65 2440
00000060: fab7 f53f ec21 be40 a085 0a40 f8bc 1040
5.9712505 2.0095596 2.777869 1.1878031 1.5538037 2.3366814 6.084784 3.7388198
0.95475125 2.7176712 0.9218315 4.661406 3.0718386 3.2916899 5.0689135 6.934378
2.0714695 2.7998538 4.381889 4.2407985 2.607444 1.2449763 4.8013725 2.568675
1.919677 5.941641 2.1644058 2.2615337

predAlpha/Mod_B1_L0/BiasAdd/ReadVariableOp f4 [32]
00000000: 5fd4 073d 0f1d 81bd d8fb 533e 22bd 453e
00000010: 8eb3 2c3e 3183 06bd 10c9 40bb 9376 edbc
00000020: b5eb 2a3e 6f91 51bc 2e3f 893d 2fc2 863d
00000030: 2bbe dcbc 3470 173d 5698 f83b 9a73 e63b
00000040: 8910 dd3d 0d94 0f3e 5914 b03d d5b4 363d
00000050: 4aa7 a6bd ccca cf3c c6bb 4e3d ef90 9d3d
00000060: 3426 083e 2229 4f3d 17a1 593d 029b 753d
00000070: 8045 8e3d f8ff 033d 8959 1b3d 65fe b63d
0.033161517 -0.063043706 0.2070154 0.1931043 0.1686537 -0.032839958 -0.0029416718 -0.028987205
0.16691478 -0.012791022 0.06701504 0.06580006 -0.026946148 0.03697224 0.0075865192 0.0070328237
0.107941695 0.1402132 0.08597631 0.04460605 -0.081373766 0.025365256 0.050472043 0.076936595
0.13295823 0.050576337 0.053132143 0.05996228 0.0694685 0.032226533 0.037927184 0.08935241

predAlpha/Mod_B0_L5/BiasAdd/ReadVariableOp f4 [14]
00000000: a980 dabc 91d2 1abd 5231 853c 18c2 acbd
00000010: 87de dfbb 7de5 2dbd 54ba 213b 08a5 5ebc
00000020: f56b 68bd 9fbd 7abc 807a 8abd 8e05 e63c
00000030: 71b9 90bc 2b9b cf3c
-0.026672678 -0.037798468 0.01625887 -0.08435458 -0.0068319472 -0.042455185 0.002467771 -0.013589151
-0.05674358 -0.015303998 -0.06761646 0.02807882 -0.01766655 0.025342545

predAlpha/Mod_B0_L1/BiasAdd/ReadVariableOp f4 [28]
00000000: ab2a 533a 9681 133d 0ad9 6ebc 6d2c 74bc
00000010: 933c 00bc 9306 d73b e03e a9bc 299b 6abc
00000020: 3858 fe3c b79a 81bb c286 87bc d870 c73c
00000030: fde4 abbd 3c3b f8ba 57b0 603c de06 92bc
00000040: 7714 b03c 98e8 9cbc 79dd 7bbd abc9 9dbb
00000050: b8fc 53bc 00ba 0cbd 10a6 1bbd 0215 b93c
00000060: dda8 1b3d 38f9 113d 18f3 893c df56 093d
0.0008055369 0.036012255 -0.014578113 -0.01490317 -0.007826942 0.006562063 -0.020659864 -0.01431922
0.031047925 -0.003955211 -0.01654375 0.0243458 -0.083932854 -0.0018938552 0.013713918 -0.01782554
0.021494133 -0.019153878 -0.06149051 -0.0048153005 -0.012938671 -0.03435707 -0.038000166 0.022593025
0.038002837 0.035638064 0.016839549 0.033530112

predAlpha/Mod_B0_L1/Tensordot/MatMul1 i1 [28, 57] scale=0.0038764447 zero_point=0
00000000: 07ff e11b 1f03 1ded ad1b 3eea 2715 ed24
00000010: 3eba c5cd 03ca 51eb d1d5 c326 ac0d ec17
00000020: e5ff 07c8 0551 0f31 2a0a da48 01ff 0435
00000030: fdc7 fa19 0e11 f6eb 2e03 f926 d8db 03cc
00000040: db40 d22f 0919 0fd8 e108 c825 fe48 f3f0
00000050: 5633 bde9 1c00 50df f734 32f6 1af2 01f7
00000060: 3528 3107 e815 eff9 e0ee ede1 18b7 11ff
00000070: d8c0 e30a 11d9 1506 1011 e9f7 d314 c6d5
00000080: 0318 22bc 00f4 f81a d92a f63e 061e eaea
00000090: 3b13 ce19 333f cd2c 1cf1 261d eef8 36ce
000000a0: 470d bd10 01eb e543 fc05 4125 ac1d 20e9
000000b0: 1ff0 2f11 11cc 272e 2403 2310 bd2b 1018
000000c0: 3745 1bf1 efff 04ad e8ff 1007 45fc 2c16
000000d0: cdcc 3117 2e05 f121 11ee 22a6 300b 01cc
000000e0: 33e5 2fc2 d700 ea0f 151a c00f fefd e9e4
000000f0: 05c8 03fa 1ad8 dcd0 e41a 000b 060f fcbd
0.027135113 -0.0038764447 -0.12016978 0.104664005 0.12016978 0.011629334 0.11241689 -0.073652446
-0.32174492 0.104664005 0.24033956 -0.08528178 0.15118134 0.081405334 -0.073652446 0.13955201
0.24033956 -0.27135113 -0.22871023 -0.19769868 0.011629334 -0.20932801 0.31399202 -0.081405334
-0.18219289 -0.16668712 -0.23646313 0.14730489 -0.32562134 0.05039378 -0.077528894 0.08915823
-0.104664005 -0.0038764447 0.027135113 -0.2170809 0.019382223 0.31399202 0.05814667 0.18994579
0.16281067 0.038764447 -0.14730489 0.27910402 0.0038764447 -0.0038764447 0.015505779 0.20545156
-0.011629334 -0.22095734 -0.023258667 0.09691112 0.054270227 0.06589956 -0.038764447 -0.081405334
0.17831646 0.011629334 -0.027135113 0.14730489 -0.15505779 -0.14342844 0.011629334 -0.20157512
-0.14342844 0.24809246 -0.17831646 0.18219289 0.034888003 0.09691112 0.05814667 -0.15505779
-0.12016978 0.031011557 -0.2170809 0.14342844 -0.0077528893 0.27910402 -0.05039378 -0.062023114
0.33337423 0.19769868 -0.2597218 -0.08915823 0.10854045 0.0 0.31011558 -0.12792267
-0.034888003 0.20157512 0.19382223 -0.038764447 0.10078756 -0.054270227 0.0038764447 -0.034888003
0.20545156 0.15505779 0.18994579 0.027135113 -0.09303467 0.081405334 -0.06589956 -0.027135113
-0.12404623 -0.069776006 -0.073652446 -0.12016978 0.09303467 -0.28298047 0.06589956 -0.0038764447
-0.15505779 -0.24809246 -0.11241689 0.038764447 0.06589956 -0.15118134 0.081405334 0.023258667
0.062023114 0.06589956 -0.08915823 -0.034888003 -0.17444001 0.077528894 -0.22483379 -0.16668712
0.011629334 0.09303467 0.13179912 -0.26359823 0.0 -0.046517335 -0.031011557 0.10078756
-0.15118134 0.16281067 -0.038764447 0.24033956 0.023258667 0.11629334 -0.08528178 -0.08528178
0.22871023 0.073652446 -0.19382223 0.09691112 0.19769868 0.24421601 -0.19769868 0.17056356
0.10854045 -0.05814667 0.14730489 0.11241689 -0.069776006 -0.031011557 0.20932801 -0.19382223
0.27522758 0.05039378 -0.2597218 0.062023114 0.0038764447 -0.081405334 -0.104664005 0.2597218
-0.015505779 0.019382223 0.2519689 0.14342844 -0.32562134 0.11241689 0.12404623 -0.08915823
0.12016978 -0.062023114 0.18219289 0.06589956 0.06589956 -0.20157512 0.15118134 0.17831646
0.13955201 0.011629334 0.13567556 0.062023114 -0.2597218 0.16668712 0.062023114 0.09303467
0.21320446 0.26747468 0.104664005 -0.05814667 -0.06589956 -0.0038764447 0.015505779 -0.32174492
-0.09303467 -0.0038764447 0.062023114 0.027135113 0.26747468 -0.015505779 0.17056356 0.08528178
-0.19769868 -0.20157512 0.18994579 0.08915823 0.17831646 0.019382223 -0.05814667 0.12792267
0.06589956 -0.069776006 0.13179912 -0.34888002 0.18606934 0.04264089 0.0038764447 -0.20157512
0.19769868 -0.104664005 0.18219289 -0.24033956 -0.15893424 0.0 -0.08528178 0.05814667
0.081405334 0.10078756 -0.24809246 0.05814667 -0.0077528893 -0.011629334 -0.08915823 -0.10854045
0.019382223 -0.2170809 0.011629334 -0.023258667 0.10078756 -0.15505779 -0.13955201 -0.18606934
-0.10854045 0.10078756 0.0 0.04264089 0.023258667 0.05814667 -0.015505779 -0.2597218
