Project/Models/Alphabets/F.tflite (tflite, 15504 bytes, 11 tensors)

predAlpha/Mod_B3_Lo/MatMul f4 [1, 32]
-0.16926076 0.25732708 -0.12249512 0.1863462 0.31717655 -0.22579123 -0.37985134 0.24384196
-0.41235667 -0.5908916 -0.46915305 0.30152792 0.12931211 0.20530656 0.30213812 -0.4989553
-0.09533187 -0.5882055 -0.026857607 -0.4068518 -0.2579235 0.22905874 -0.3608812 0.05294594
0.45004764 -0.13505498 -0.7240874 -0.5380502 0.4665927 0.19808832 -0.43470833 0.09712861
00000000: b152 2dbe 60c0 833e b9de fabd 8ad1 3e3e
00000010: f764 a23e d135 67be e07b c2be b5b1 793e
00000020: 6a20 d3be ac44 17bf d434 f0be de61 9a3e
00000030: 656a 043e e23b 523e d9b1 9a3e 1277 ffbe
00000040: 5b3d c3bd a394 16bf 7c04 dcbc e14e d0be
00000050: 8d0e 84be 608e 6a3e 6cc5 b8be d8dd 583d
00000060: a56c e63e da4b 0abe cb5d 39bf a8bd 09bf
00000070: 3de5 ee3e aad7 4a3e 1792 debe 5deb c63d

predAlpha/Mod_B1_L0/MatMul f4 [32, 28]
0.17101456 0.05062322 0.15908124 0.009617736 -0.3582843 -0.13411863 0.20412481 -0.19817771
0.40139294 0.3376629 0.0022780816 0.42666778 0.16042256 0.1568579 -0.19207364 -0.03653568
0.06896538 0.28263268 0.3335046 -0.08971942 -0.3908525 -0.08906552 -0.018637808 -0.23011991
-0.1147413 0.17206232 0.13943687 -0.17452522 0.022879818 -0.27141553 0.02437654 -0.1349439
-0.09393439 0.17624407 -0.08210412 0.28578216 -0.18772241 0.05346413 0.0029100883 -0.13165388
-0.21818672 0.17056938 -0.0020378535 -0.09536385 -0.2523771 -0.16856451 -0.16280356 0.04557347
0.2719517 0.10212653 0.20854071 -0.1814761 0.07611838 -0.046013776 -0.17801258 0.02351442
0.19465823 0.20162855 0.052403912 -0.032352384 -0.1479731 -0.12744984 0.35298476 -0.19506145
0.17623104 -0.09335185 0.0013759292 0.002709716 -0.15344344 -0.19240676 -0.16701794 0.05943686
-0.15600435 -0.024284491 0.37255794 -0.1138746 -0.094816044 -0.042255167 0.0030334613 -0.1723845
-0.026588734 -0.13675207 0.0015252441 0.017591568 -0.021258619 -0.0011311638 0.00036537225 -0.38034293
-0.11203715 0.0019350166 -0.40105018 -0.2167126 -0.0243928 0.32095462 -0.06431299 -0.12896544
0.16873197 -0.15462705 -0.37990597 -0.24326098 -0.070776075 -0.02022521 -0.02879282 0.4157289
0.27621138 0.021882903 0.31476542 -0.22331697 -0.05209318 0.21865994 -0.3453372 -0.23937024
-0.28692153 0.20992328 -0.14658841 -0.33751503 0.19332916 0.17917511 0.021500217 0.30027667
-0.08534746 0.26030198 0.13774325 -0.048440866 0.08282497 -0.305316 0.1395175 0.041299477
-0.10807556 0.024925651 0.011353326 0.23290871 0.11208456 0.2368921 0.25049374 0.1053195
-0.09561854 0.07087286 -0.28905907 -0.16748877 -0.0333212 -0.09306344 -0.12424624 0.1029246
0.31347474 0.06416548 0.029622791 -0.13484868 -0.14267167 0.3127949 0.1011374 0.334972
0.018590732 0.3260361 -0.17601335 -0.41749662 -0.2296203 0.3356372 0.07218394 0.24978323
-0.42307904 -0.20659313 -0.42218044 0.44397774 -0.0041989414 0.09867316 0.17438525 0.01897307
0.22086515 0.1960068 0.036938835 -0.025063153 0.16409622 0.123342134 0.21645178 -0.37277582
-0.03394422 0.14394446 -0.11644668 0.18036333 0.071392015 0.27272776 -0.21473366 0.28640944
-0.3534434 -0.081159286 0.33888477 0.23288229 0.11038377 -0.2636136 0.022246674 0.11237467
0.098846555 -0.1431448 0.038843185 0.24096969 -0.38124672 -0.18757811 0.054927252 -0.02442913
-0.17285624 -0.09225051 -0.0015384792 0.40994793 -0.19933043 0.047234222 0.25735152 -0.31606734
0.16009228 0.14145827 -0.17746496 0.013464446 -0.018350577 -0.24381399 -0.17943773 0.09130545
0.22918265 0.20470889 0.023244403 0.035373434 -0.015480986 -0.17270501 -0.09193371 -0.27865443
0.025991542 0.085072875 -0.09261457 0.19990228 0.022755891 -0.21796957 -0.31240386 -0.21951096
0.20011202 0.13436276 0.07534004 -0.017640833 0.32527664 -0.13979022 -0.21653734 -0.092773356
0.0009908837 -0.20037642 0.15634578 0.16164207 -0.0043161246 -0.049297802 0.093492314 -0.055421405
0.13170996 -0.4311114 0.07430428 -0.015298325 0.30650777 0.16901326 0.35321736 0.068811595
00000000: 711e 2f3e 4b5a 4f3d 31e6 223e b593 1d3c
00000010: 0a71 b7be 6556 09be 1806 513e 19ef 4abe
00000020: 6083 cd3e 27e2 ac3e de4b 153b 3374 da3e
00000030: d045 243e 5b9f 203e f4ae 44be 70a6 15bd
00000040: b93d 8d3d 3bb5 903e 1dc1 aa3e d1be b7bd
00000050: d21d c8be fc67 b6bd 51ae 98bc 8ea4 6bbe
00000060: 7dfd eabd 1b31 303e 8ac8 0e3e bdb6 32be
00000070: 756e bb3c faf6 8abe 4fb1 c73c bc2e 0abe
00000080: ac60 c0bd 5379 343e 3426 a8bd 0a52 923e
00000090: 4e3a 40be 34fd 5a3d 2eb7 3e3b 46d0 06be
000000a0: 576c 5fbe bda9 2e3e 828d 05bb 1f4e c3bd
000000b0: 9237 81be 2d9c 2cbe fab5 26be 3fab 3a3d
000000c0: 413d 8b3e b727 d13d b28b 553e dfd4 39be
000000d0: f4e3 9b3d f178 3cbd ee48 36be 50a1 c03c
000000e0: 7d54 473e b777 4e3e 7ca5 563d ef83 04bd
000000f0: 4386 17be 3682 02be 6bba b43e 30be 47be
00000100: e975 343e 412f bfbd 8658 b43a 7e95 313b
00000110: 4720 1dbe 4706 45be c006 2bbe 1174 733d
00000120: 9bbf 1fbe 45f0 c6bc eabf be3e 1637 e9bd
00000130: ea2e c2bd c113 2dbd 09cd 463b 9085 30be
00000140: 9ed0 d9bc bc08 0cbe b3ea c73a 311c 903c
00000150: 8e26 aebc 8f43 94ba 6f8f bf39 4fbc c2be
00000160: bc73 e5bd 62a0 fd3a 7356 cdbe e8e9 5dbe
00000170: 69d3 c7bc 2a54 a43e 87b6 83bd 840f 04be
00000180: 13c8 2c3e 8e56 1ebe 0983 c2be 6819 79be
00000190: 0cf3 90bd 57af a5bc ecde ebbc 6bda d43e
000001a0: 946b 8d3e c643 b33c ef28 a13e 34ad 64be
000001b0: a95f 55bd 64e8 5f3e 0ad0 b0be 791d 75be
000001c0: 61e7 92be 21f6 563e 461b 16be c5ce acbe
000001d0: 14f8 453e ae79 373e 3921 b03c ddbd 993e
000001e0: a6ca aebd 4d46 853e 910c 0d3e ee69 46bd
000001f0: 23a0 a93d 6152 9cbe addd 0e3e a429 293d
00000200: b856 ddbd e130 cc3c 4d03 3a3c 9f7f 6e3e
00000210: 978c e53d d893 723e b740 803e c0b1 d73d
00000220: a7d3 c3bd ca25 913d 8dff 93be 2d82 2bbe
00000230: d07b 08bd 0b98 bebd d074 febd 22ca d23d
00000240: c37f a03e 3169 833d 7fab f23c c615 0abe
00000250: 8618 12be a726 a03e 2021 cf3d 7381 ab3e
00000260: 974b 983c 34ee a63e d83c 34be 1ec2 d5be
00000270: 9521 6bbe a4d8 ab3e 2cd5 933d 2dc7 7f3e
00000280: d19d d8be 268d 53be 0928 d8be 0d51 e33e
00000290: 4697 89bb 2715 ca3d 0c92 323e 696d 9b3c
000002a0: 792a 623e 02b6 483e 2d4d 173d 3e51 cdbc
000002b0: d708 283e cd9a fc3d 89a5 5d3e 79dc bebe
000002c0: 1809 0bbd 2d66 133e 997b eebd 2ab1 383e
000002d0: fa35 923d f9a2 8b3e 24e3 5bbe 42a4 923e
000002e0: 89f6 b4be d736 a6bd 4e82 ad3e b278 6e3e
000002f0: e310 e23d 5df8 86be a83e b63c b124 e63d
00000300: 1070 ca3d 8d94 12be 081a 1f3d c2c0 763e
00000310: c532 c3be 7a14 40be 66fb 603d 991f c8bc
00000320: 3a01 31be d6ed bcbd cca6 c9ba b2e4 d13e
00000330: 471d 4cbe ac78 413d 94c3 833e 94d3 a1be
00000340: 3bef 233e 70da 103e 60b9 35be fb99 5c3c
00000350: f353 96bc 60aa 79be 86be 37be 5afe ba3d
00000360: dbae 6a3e 359f 513e 0c6b be3c bce3 103d
00000370: f6a3 7dbc 95d9 30be be47 bcbd cbab 8ebe
00000380: 37ec d43c b03a ae3d b5ac bdbd 2fb3 4c3e
00000390: 906a ba3c 6a33 5fbe 66f3 9fbe 7bc7 60be
000003a0: 2aea 4c3e 6496 093e e14b 9a3d 8283 90bc
000003b0: a98a a63e 2b25 0fbe f7bb 5dbe f5ff bdbd
000003c0: 8ae0 813a 7a2f 4dbe 1c19 203e 8085 253e
000003d0: 476e 8dbb 7eec 49bd e678 bf3d 8e01 63bd
000003e0: fade 063e a2ba dcbe d82c 983d d3a5 7abc
000003f0: 96ee 9c3e d011 2d3e e8d8 b43e 18ed 8c3d

predAlpha/Mod_B0_L5/Tensordot/MatMul f4 [14, 28]
0.37288678 0.00926311 0.11957855 0.29427803 0.06611473 -0.13796192 -0.14376917 0.27533895
0.011190441 0.2305502 -0.14065827 -0.29797313 0.12921949 -0.3613012 -0.06539312 0.037491333
-0.17772782 -0.18988122 0.109305754 -0.023350667 0.2799755 -0.30931213 0.010726957 0.1162524
-0.38207746 -0.11732745 -0.08870781 -0.3974588 -0.09563999 0.1709546 0.016965354 -0.26203334
0.20869392 -0.29444575 -0.42412964 0.1055844 0.00028962025 0.4294116 -0.23757471 -0.337723
0.13144459 -0.42532393 0.12862436 0.005236311 -0.016938742 -0.067794375 0.16198346 -0.086073466
-0.21772934 -0.018281743 0.3487819 -0.16880737 -0.062319007 0.17760178 0.3981388 -0.071996294
-0.23330604 0.11973223 -0.13388155 0.2027638 -0.04065749 -0.049105998 0.22627972 0.06022174
0.24112096 -0.05855597 -0.46120918 0.10800147 -0.1145224 -0.078046046 -0.052523267 -0.18328255
0.16017066 -0.16408578 -0.09166238 -0.20508169 0.06574293 -0.116415754 -0.20992449 0.013949849
-0.3110318 -0.0041840086 0.16072036 0.015659042 0.13500446 -0.36639708 -0.3072867 0.24863924
-0.1310528 -0.30991814 0.064564355 0.124731615 -0.021849662 -0.13039201 -0.2678709 0.30622083
0.11982597 0.22623137 -0.22923599 0.030417478 0.22572416 -0.16696621 0.012278173 -0.045806047
0.054777116 0.15385666 -0.2592736 0.09437849 0.32010394 0.21072212 -0.12677462 0.12347302
-0.0780811 0.08611835 0.23012726 -0.102950364 -0.15521304 -0.17999493 0.006327393 -0.14171143
0.1391499 -0.049340602 -0.4236419 0.08076525 0.028328996 0.2111596 0.14890765 0.024273086
-0.3110805 0.21299112 0.2832929 -0.37310082 -0.44023475 0.4785941 -0.20215036 -0.11910113
0.36040404 -0.13032357 0.024214009 0.013663523 -0.31319544 -0.31100678 0.082404815 -0.083861664
0.27185073 -0.09868703 0.10674871 -0.14505422 0.17577064 -0.007707802 0.17259821 0.07452815
-0.05840737 0.17842288 -0.088080935 0.07305358 0.042700775 0.34807765 -0.28986323 -0.039478276
-0.028450774 -0.099366195 0.060857106 -0.0864394 0.25853932 -0.24440001 0.11983606 -0.21360148
-0.09907916 -0.27324933 -0.06692158 0.072195485 0.12943201 0.2721755 -0.18595874 -0.015817301
-0.107837975 -0.13543966 0.1582171 -0.15951066 0.22491764 -0.14674543 0.20784359 -0.2037047
-0.19455065 0.06923047 -0.15230985 -0.10168404 0.29349494 -0.08899345 0.3880933 -0.29089472
-0.12829009 0.057170466 0.046610408 -0.21635243 -0.18733326 -0.36111543 -0.17365175 -0.065776974
0.017894423 -0.01121108 0.23087476 -0.014720216 3.6262816e-05 0.02932881 0.2854158 0.37992153
0.19520903 -0.11605776 0.06457101 -0.10947471 0.12629464 0.34944344 -0.01174648 -0.20518813
-0.53951675 0.24703784 -0.13261172 -0.14291878 -0.10869085 -0.17600602 -0.2778798 -0.24832052
-0.3216787 -0.15456453 -0.021197245 -0.39185292 0.20730525 0.19505948 -0.29536274 0.028626602
-0.17702511 0.18640473 -0.015440358 -0.0697006 0.14843072 -0.35292178 0.027227674 0.24774511
-0.055420406 0.010406256 0.2666134 -0.15258466 -0.17803149 -0.08935831 -0.07221393 -0.4001681
0.013260429 0.18742332 0.43940124 0.19709821 -0.21477991 -0.21947186 0.10353191 0.093585484
00000000: 04eb be3e 4dc4 173c 99e5 f43d 9cab 963e
00000010: 2967 873d e445 0dbe 3a38 13be 3af9 8c3e
00000020: 1d58 373c 5a15 6c3e b908 10be ef8f 98be
00000030: 1d52 043e 79fc b8be d4ec 85bd 8390 193d
00000040: 48fe 35be 3970 42be b2db df3d e649 bfbc
00000050: f358 8f3e 295e 9ebe 1ec0 2f3c bd15 ee3d
00000060: a89f c3be 6049 f0bd 71ac b5bd b87f cbbe
00000070: e6de c3bd b90e 2f3e edfa 8a3c 3c29 86be
00000080: dcb3 553e 98c1 96be 8527 d9be a23c d83d
00000090: 2cd8 9739 d6db db3e c946 73be 07ea acbe
000000a0: 6999 063e 0fc4 d9be 1bb6 033e 5c95 ab3b
000000b0: 1ec3 8abc c7d7 8abd fede 253e 4947 b0bd
000000c0: 71f4 5ebe 98c3 95bc 8b93 b23e d7db 2cbe
000000d0: 3742 7fbd 3edd 353e d9d8 cb3e cb72 93bd
000000e0: c7e7 6ebe 2c36 f53d 3f18 09be 50a1 4f3e
000000f0: 7888 26bd 5f23 49bd dfb5 673e 12ab 763d
00000100: 6ae8 763e 63d8 6fbd 9c23 ecbe e02f dd3d
00000110: b88a eabd 9bd6 9fbd a322 57bd 6cae 3bbe
00000120: c703 243e 1a06 28be 7cb9 bbbd ef00 52be
00000130: 3ba4 863d 626b eebd 72f6 56be e88d 643c
00000140: 8f3f 9fbe 021a 89bb e193 243e 6447 803c
00000150: 9c3e 0a3e 6698 bbbe af54 9dbe 499b 7e3e
00000160: b532 06be 97ad 9ebe 513a 843d 4a73 ff3d
00000170: 10fe b2bc 7c85 05be 6026 89be fac8 9c3e
00000180: 5167 f53d 32a9 673e d7bc 6abe 132e f93c
00000190: 3c24 673e 31f9 2abe 642a 493c 1f9f 3bbd
000001a0: f85d 603d 9a8c 1d3e 82bf 84be 8249 c13d
000001b0: aae4 a33e 8ac7 573e 35d1 01be 6cdf fc3d
000001c0: fce8 9fbd d15e b03d 7ba6 6b3e a4d7 d2bd
000001d0: 2bf0 1ebe 9750 38be 0556 cf3b cd1c 11be
000001e0: 507d 0e3e 5f19 4abd 97e7 d8be 4068 a53d
000001f0: 3612 e83c 393a 583e 3f7b 183e 5ad8 c63c
00000200: f145 9fbe 581a 5a3e c40b 913e 1207 bfbe
00000210: 7366 e1be 490a f53e 8100 4fbe 4beb f3bd
00000220: e186 b83e 8b73 05be 755c c63c f8dc 5f3c
00000230: 275b a0be 483c 9fbe dbc3 a83d aabf abbd
00000240: 0530 8b3e 6d1c cabd 119f da3d 1889 14be
00000250: 38fd 333e bb91 fcbb 96bd 303e 37a2 983d
00000260: 913c 6fbd 7db4 363e c763 b4bd 1e9d 953d
00000270: 02e7 2e3d 3c37 b23e f468 94be f9b3 21bd
00000280: 9911 e9bc 8180 cbbd 4d45 793d 2407 b1bd
00000290: 445f 843e ff43 7abe 9c6c f53d 59ba 5abe
000002a0: 04ea cabd 56e7 8bbe 2e0e 89bd 3adb 933d
000002b0: d389 043e 965a 8b3e f86b 3ebe 4993 81bc
000002c0: 28da dcbd b2b0 0abe aa03 223e c356 23be
000002d0: cf50 663e 6f44 16be f3d4 543e f797 50be
000002e0: 4938 47be b4c8 8d3d 1df7 1bbe b93f d0bd
000002f0: f844 963e 3342 b6bd 2ab4 c63e 27f0 94be
00000300: 7a5e 03be 942b 6a3d 8eea 3e3d 7e8b 5dbe
00000310: 4ad4 3fbe 1fe4 b8be c4d1 31be 14b6 86bd
00000320: 5397 923c adae 37bc 6f6a 6c3e 102d 71bc
00000330: e718 1838 f942 f03c 0522 923e 1385 c23e
00000340: e0e4 473e b1af edbd ce3d 843d 4734 e0bd
00000350: 6253 013e 40ea b23e 4f74 40bc d61c 52be
00000360: c51d 0abf 7df7 7c3e 5ecb 07be 4d59 12be
00000370: 4f99 debd ec3a 34be 4346 8ebe bc47 7ebe
00000380: 12b3 a4be 2a46 1ebe d8a5 adbc f2a0 c8be
00000390: d447 543e acbd 473e c939 97be 5682 ea3c
000003a0: 1246 35be e2e0 3e3e 8ef9 7cbc 30bf 8ebd
000003b0: 39fe 173e 2ab2 b4be 920c df3c e5b0 7d3e
000003c0: 8200 63bd 007f 2a3c 8d81 883e 273f 1cbe
000003d0: e34d 36be 7d01 b7bd e6e4 93bd d5e2 ccbe
000003e0: 4542 593c e6eb 3f3e 33f9 e03e 1dd4 493e
000003f0: 44ef 5bbe 3bbd 60be 8a08 d43d bfa9 bf3d

predAlpha/Mod_B0_L7/batchnorm/sub f4 [14]
-0.7792779 -0.55179524 -0.83334935 -0.8179798 -0.62281346 -1.3433876 -0.97839224 -0.7798217
-0.9202229 -1.1082045 -0.79015106 -0.95414746 -0.67943895 -0.86395097
00000000: c27e 47bf 7442 0dbf 6256 55bf 2067 51bf
00000010: b470 1fbf 20f4 abbf ea77 7abf 65a2 47bf
00000020: ba93 6bbf a5d9 8dbf 5747 4abf 0243 74bf
00000030: b6ef 2dbf e42b 5dbf

predAlpha/Mod_B0_L7/batchnorm/mul f4 [14]
6.729398 4.7789555 3.05138 2.3567734 4.3988347 3.070297 10.586487 12.006094
6.5602956 4.1888323 2.7311783 6.0565557 2.8607714 3.8586168
00000000: 3a57 d740 34ed 9840 cf49 4340 60d5 1640
00000010: 41c3 8c40 bf7f 4440 4062 2941 f618 4041
00000020: f1ed d140 ea0a 8640 a0cb 2e40 4ecf c140
00000030: e116 3740 94f3 7640

predAlpha/Mod_B0_L3/batchnorm/sub f4 [28]
-6.1472316 -0.5364318 -3.9233813 -0.49529684 -0.54878646 -0.5473978 -1.4364802 -1.0492967
0.014929585 -0.6726323 -1.4235591 -0.6202173 -1.263742 -0.8106014 -2.2663014 -0.34346288
-0.10305886 -0.64087135 -0.15369987 -0.07861656 -0.34525055 -0.28225842 -0.12783675 -0.6229941
-1.7513164 -1.494225 -1.7836347 -0.53842926
00000000: 1fb6 c4c0 9853 09bf ae18 7bc0 8c97 fdbe
00000010: 457d 0cbf 4322 0cbf 95de b7bf 5b4f 86bf
00000020: 389b 743c a131 2cbf 2f37 b6bf 90c6 1ebf
00000030: 4cc2 a1bf 9383 4fbf 150b 11c0 5eda afbe
00000040: 8610 d3bd 2510 24bf 8063 1dbe b801 a1bd
00000050: aec4 b0be 2d84 90be a3e7 02be 8b7c 1fbf
00000060: 232b e0bf c442 bfbf 244e e4bf 80d6 09bf

predAlpha/Mod_B0_L3/batchnorm/mul f4 [28]
12.380804 0.94349116 6.771909 1.795016 2.4213395 2.0922115 2.6059275 4.069211
22.538631 0.86711144 6.004593 0.94310415 1.7937632 3.0366926 1.3362399 1.8841957
8.01825 1.7819206 2.0669994 4.601467 2.7666998 10.531141 10.468635 9.7658615
4.307349 1.2625759 1.141257 1.0139682
00000000: c617 4641 a388 713f 7bb3 d840 16c3 e53f
00000010: 3af7 1a40 cbe6 0540 84c7 2640 fa36 8240
00000020: 1e4f b441 04fb 5d3f a025 c040 466f 713f
00000030: 089a e53f 2c59 4240 e909 ab3f 532d f13f
00000040: c14a 0041 f915 e43f b849 0440 383f 9340
00000050: 9c11 3140 8e7f 2841 877f 2741 f840 1c41
00000060: ced5 8940 169c a13f b614 923f b6c9 813f

predAlpha/Mod_B1_L0/BiasAdd/ReadVariableOp f4 [32]
0.15603751 0.05746952 0.25177944 -0.026137615 0.005810527 0.26618323 0.10154446 0.017427456
0.112474136 0.09043658 0.12492277 -0.0022745475 0.010468172 -0.069662236 -0.016671997 0.10741659
0.13822003 0.13875327 -0.0193311 0.10445356 0.11126195 0.024139518 0.10819259 -0.05268202
0.025659582 0.114733905 0.10121574 0.115735315 0.033806935 -0.004010254 0.110691406 -0.0280009
00000000: 4cc8 1f3e 2965 6b3d 3ce9 803e 8d1e d6bc
00000010: 3c66 be3b 2b49 883e 8bf6 cf3d 06c4 8e3c
00000020: d758 e63d d036 b93d 82d7 ff3d 9310 15bb
00000030: b282 2b3c 13ab 8ebd b693 88bc 3bfd db3d
00000040: 8d89 0d3e 5615 0e3e 415c 9ebc c0eb d53d
00000050: 4edd e33d 3dc0 c53c 1494 dd3d 1ac9 57bd
00000060: 0b34 d23c 9cf9 ea3d 334a cf3d a306 ed3d
00000070: 2479 0a3d 7368 83bb 2db2 e23d 2562 e5bc

predAlpha/Mod_B0_L5/BiasAdd/ReadVariableOp f4 [14]
-0.011576673 -0.12028852 0.0104247695 -0.061273444 -0.024373917 0.0017693754 -0.01566379 -0.08773442
-0.02819554 -0.025745953 -0.01697984 -0.03587473 0.023017613 -0.023055505
00000000: 16ac 3dbc d459 f6bd a7cc 2a3c ddf9 7abd
00000010: cfab c7bc 63ea e73a 5951 80bc 1bae b3bd
00000020: 55fa e6bc 2de9 d2bc 4e19 8bbc 62f1 12bd
00000030: 6f8f bc3c e6de bcbc

predAlpha/Mod_B0_L1/BiasAdd/ReadVariableOp f4 [28]
-0.040589783 0.019009521 0.000958322 -0.015024276 0.012207629 -0.022453828 -0.01929887 0.040873457
-0.013785535 0.026733123 0.0004960697 -0.02395199 0.008593182 0.024572594 0.014054365 0.0076530557
0.0049599065 -0.0022626948 -0.008943517 -0.005397021 -0.006064224 0.008477379 -0.010623654 -0.007076459
0.03798061 -0.04144959 0.039857395 -0.023965409
00000000: 7941 26bd dbb9 9b3c e737 7b3a 6228 76bc
00000010: 8202 483c 17f1 b7bc aa18 9ebc ed6a 273d
00000020: b9dc 61bc 6cff da3c ad0a 023a f736 c4bc
00000030: 6bca 0c3c 774c c93c 4844 663c 7cc6 fa3b
00000040: b686 a23b b849 14bb d487 12bc 7ed9 b0bb
00000050: 66b6 c6bb b4e4 0a3c d60e 2ebc a4e1 e7bb
00000060: 8e91 1b3d 0cc7 29bd 8241 233d 1b53 c4bc

predAlpha/Mod_B0_L1/Tensordot/MatMul1 i1 [28, 57] scale=0.00322094 zero_point=0
-0.00322094 -0.27055895 0.0 0.09340726 0.07730256 0.18037264 0.0322094 -0.2254658
-0.0322094 0.10629102 -0.1449423 0.14816324 -0.19969828 0.05797692 -0.035430342 0.18359359
0.0322094 -0.07730256 0.23190768 -0.05153504 -0.11917478 0.02576752 -0.048314102 0.2576752
-0.32531494 -0.13850042 0.161047 0.21902391 -0.0805235 0.2641171 -0.21258204 0.048314102
-0.1288376 0.13850042 -0.08696538 -0.05153504 -0.0322094 0.12561665 -0.1771517 0.0
-0.09984914 0.11917478 0.02254658 0.0 0.02254658 -0.0805235 -0.2093611 0.05475598
-0.09340726 0.070860684 0.26089615 -0.33497775 0.1127329 0.05475598 0.0322094 0.0322094
-0.17393076 0.00644188 0.04187222 0.20291921 0.12561665 0.2641171 0.04187222 0.10629102
0.08374444 0.09018632 0.13527948 0.09340726 -0.08696538 0.00644188 0.0161047 0.13850042
-0.32853588 0.05475598 -0.06763974 -0.01288376 0.16426794 -0.0322094 -0.21258204 -0.06763974
0.15138417 0.0644188 0.02898846 0.07408162 -0.2737799 -0.2898846 -0.04509316 0.00322094
0.27700084 -0.10951196 -0.14816324 0.05475598 0.19969828 -0.13205855 0.122395724 -0.161047
-0.16748887 -0.0161047 0.0161047 -0.04509316 0.0322094 -0.16748887 -0.06763974 0.01288376
-0.02898846 0.30276835 -0.161047 -0.08374444 -0.03865128 0.04509316 0.161047 0.10629102
-0.13850042 0.03865128 -0.07730256 0.13527948 0.10629102 -0.20291921 -0.00322094 -0.00322094
0.18037264 -0.3059893 -0.09018632 0.23512863 -0.09018632 -0.161047 0.19325641 0.2512333
-0.048314102 -0.061197862 0.070860684 0.11595384 -0.02254658 -0.11595384 -0.035430342 0.34786153
0.17393076 0.16426794 0.09018632 0.29954743 0.2963265 -0.1288376 -0.06763974 0.11595384
-0.24479145 -0.035430342 -0.23190768 -0.00322094 -0.267338 0.061197862 -0.01288376 -0.05797692
-0.00322094 -0.13205855 -0.19647734 -0.14172137 0.18681452 0.37684998 -0.05475598 0.035430342
-0.19003546 0.048314102 -0.02576752 0.23512863 -0.08374444 -0.01288376 0.1127329 0.22868674
0.10951196 0.13205855 -0.00644188 -0.096628204 -0.07730256 -0.04187222 -0.00644188 0.05153504
0.09018632 -0.048314102 -0.05797692 0.01288376 -0.03865128 -0.19325641 0.18359359 0.17070982
0.13527948 -0.09984914 -0.10307008 0.15460512 0.15782607 -0.16748887 0.19325641 -0.01288376
0.08374444 0.05475598 -0.13850042 -0.13527948 -0.0805235 -0.1288376 0.10629102 0.06763974
0.0805235 0.23834956 -0.2737799 -0.24479145 0.09018632 -0.01288376 -0.2898846 -0.096628204
0.05797692 -0.01932564 0.22224486 0.02898846 -0.09340726 -0.21580298 0.06763974 0.10629102
-0.21580298 -0.13850042 0.122395724 -0.0644188 0.10951196 -0.1288376 0.07408162 0.04187222
0.07408162 0.01932564 -0.06763974 0.035430342 0.0805235 0.0644188 0.01932564 0.0322094
-0.15782607 -0.1288376 -0.34786153 0.07730256 0.03865128 0.02576752 -0.09018632 -0.061197862
-0.0161047 -0.13850042 0.29310554 -0.15782607 0.31887305 -0.0805235 -0.22224486 0.0
-0.05797692 0.1127329 0.10629102 0.07408162 -0.0805235 0.04509316 0.16748887 -0.15782607
00000000: ffac 001d 1838 0aba f621 d32e c212 f539
00000010: 0ae8 48f0 db08 f150 9bd5 3244 e752 be0f
00000020: d82b e5f0 f627 c900 e125 0700 07e7 bf11
00000030: e316 5198 2311 0a0a ca02 0d3f 2752 0d21
00000040: 1a1c 2a1d e502 052b 9a11 ebfc 33f6 beeb
00000050: 2f14 0917 aba6 f201 56de d211 3ed7 26ce
00000060: ccfb 05f2 0acc eb04 f75e cee6 f40e 3221
00000070: d50c e82a 21c1 ffff 38a1 e449 e4ce 3c4e
00000080: f1ed 1624 f9dc f56c 3633 1c5d 5cd8 eb24
00000090: b4f5 b8ff ad13 fcee ffd7 c3d4 3a75 ef0b
000000a0: c50f f849 e6fc 2347 2229 fee2 e8f3 fe10
000000b0: 1cf1 ee04 f4c4 3935 2ae1 e030 31cc 3cfc
000000c0: 1a11 d5d6 e7d8 2115 194a abb4 1cfc a6e2
000000d0: 12fa 4509 e3bd 1521 bdd5 26ec 22d8 170d
000000e0: 1706 eb0b 1914 060a cfd8 9418 0c08 e4ed
000000f0: fbd5 5bcf 63e7 bb00 ee23 2117 e70e 34cf
