Project/Models/Alphabets/I.tflite (tflite, 15504 bytes, 11 tensors)

predAlpha/Mod_B3_Lo/MatMul f4 [1, 32]
0	0x3ec7e46b	0.39041457
1	0xbe265a8b	-0.16245477
2	0x3c6685f9	0.0140700275
3	0xbf29bdc2	-0.6630517
4	0x3e8e928d	0.27846184
5	0xbe04938b	-0.12946908
6	0xbf027d3c	-0.5097234
7	0x3eb09179	0.34485987
8	0xbe9816ee	-0.29704994
9	0xbc9985b8	-0.01874052
10	0xbef942d2	-0.48683792
11	0x3f030f9b	0.5119569
12	0xbe8ce845	-0.27520958
13	0x3eaf5400	0.34243774
14	0xbea311a7	-0.31849405
15	0x3e526130	0.20544887
16	0xbe484f0a	-0.19561401
17	0xbedb0e1a	-0.42784196
18	0xbc309e6f	-0.010779961
19	0xbe8e7434	-0.2782303
20	0x3ec7d7d1	0.39031842
21	0xbc440eba	-0.011966402
22	0xbecb9e96	-0.3976943
23	0xbebbaf7e	-0.36657327
24	0xbee465f9	-0.4460905
25	0xbeba2ede	-0.36363882
26	0xbf0ea143	-0.55714816
27	0x3cb1f24e	0.021721985
28	0xbe6bf5b9	-0.23042955
29	0xbe5dbd0b	-0.21654145
30	0xbeb1eee3	-0.3475257
31	0x3caa99e0	0.020825326

predAlpha/Mod_B1_L0/MatMul f4 [32, 28]
0	0xbe548355	-0.20753224
1	0xbe999c52	-0.30002075
2	0xbe59f720	-0.21285677
3	0xbd3282fd	-0.04358195
4	0x3e32aca8	0.17448676
5	0xbd2e3430	-0.04253024
6	0xbeab51b3	-0.3346077
7	0xbe901574	-0.28141367
8	0x3cc6d387	0.024270786
9	0xbd7d1502	-0.061787613
10	0x3c26e34a	0.010186026
11	0x3e25a8e8	0.16177714
12	0xbcc840ca	-0.024444956
13	0x3d0d43a6	0.034488343
14	0xbec1867a	-0.3779791
15	0x3ceaedd0	0.028677851
16	0xbe16b610	-0.14717889
17	0xbe63a88b	-0.22232263
18	0xbe807453	-0.25088748
19	0xbe131c1d	-0.14366193
20	0xbe5ee558	-0.21767175
21	0x3d8c209d	0.06842158
22	0xbe80e2b1	-0.25172952
23	0xbe4f445b	-0.2024092
24	0xbe24a27b	-0.16077606
25	0xbea4fd5d	-0.3222455
26	0xbd343db7	-0.04400417
27	0x3df60ff9	0.12014765
28	0x3dcdafd8	0.10043305
29	0xbd8a3c72	-0.0674981
30	0x3c3aec4f	0.011408879
31	0xb8565b86	-5.1106814e-05
32	0xbdba5897	-0.090989284
33	0x3e0bd1a7	0.13654195
34	0x3eb627d9	0.35577276
35	0xbdbdbceb	-0.09264549
36	0x3dc1f86d	0.094712116
37	0xbd715a4c	-0.058924004
38	0xbdc806a9	-0.09766895
39	0xbe71116d	-0.23541804
40	0x3dc77e93	0.09740939
41	0x3cb21c17	0.02174191
42	0xbce0dde7	-0.027449561
43	0x3e5a606f	0.21325849
44	0xbe58ef9f	-0.21185158
45	0x3e4b2147	0.19836913
46	0xb9448a72	-0.00018743591
47	0x3e8e5511	0.27799276
48	0x3dfe0752	0.1240374
49	0xbcdab572	-0.026697848
50	0x3d83eb9e	0.06441425
51	0x3e9a6640	0.30156136
52	0xbd4b04fa	-0.049565293
53	0xbd171ba5	-0.0368916
54	0xbe5387df	-0.206573
55	0x3e9f6fa5	0.31139866
56	0x3e087436	0.13325581
57	0xbd852d12	-0.06502737
58	0x3df8e56e	0.12153135
59	0x3e425b5c	0.18980163
60	0xbe938d9c	-0.28818977
61	0xbe2180c6	-0.1577178
62	0xbc56b5e8	-0.013104893
63	0xbb56c9e8	-0.0032774154
64	0xbe3efd40	-0.18651295
65	0x3db24adc	0.087056845
66	0x3e68d0f4	0.2273596
67	0x3e3f6d25	0.18693979
68	0xbd439530	-0.0477497
69	0x3d924b41	0.0714326
70	0x3e8e3901	0.27777866
71	0x3cd707d4	0.02624885
72	0xbda00dbf	-0.07815122
73	0x3d099e73	0.033598375
74	0xbd93fbff	-0.07225799
75	0xbde310f6	-0.110872194
76	0x3e10f7a2	0.14156964
77	0x3e7db7f5	0.24777205
78	0x3df8141c	0.121132106
79	0xbe9df5ff	-0.30851743
80	0x3e031533	0.12801056
81	0x3dd4c611	0.10389341
82	0xbd27db1c	-0.040980443
83	0xbde242a0	-0.11047864
84	0xbd18de9c	-0.03732167
85	0x3eb392a8	0.35072827
86	0xbe8a9c4d	-0.27072373
87	0xbe6258e2	-0.22104219
88	0xbe2c937f	-0.1685314
89	0x3e4163fd	0.18885799
90	0x3da6c260	0.08142543
91	0x3d0deef7	0.034651723
92	0xbec45435	-0.38345495
93	0x3e3f239c	0.18665928
94	0x3e937970	0.28803587
95	0x3ccb5f7b	0.024825802
96	0xbd768bf5	-0.060192067
97	0xbdc5d960	-0.096606016
98	0xbcb08066	-0.0215456
99	0xbee6e0ff	-0.45093533
100	0xbecaac2b	-0.3958448
101	0xbde980f6	-0.114015505
102	0x3ebb8e13	0.36631832
103	0x3e3b232a	0.18275133
104	0xbed3d7ce	-0.41375583
105	0xbeb7c996	-0.35895985
106	0xbdb02058	-0.08599919
107	0xbe2f8377	-0.17139994
108	0xbdf58f1e	-0.11990188
109	0xbd0f3171	-0.03495926
110	0xbed2768f	-0.41106078
111	0xbdc678a9	-0.09690983
112	0xbd310dc8	-0.043226033
113	0x3d1089d9	0.03528771
114	0x3d60acd3	0.054852318
115	0xbdc91513	-0.09818473
116	0x3e31a93e	0.17349717
117	0xbebf89f0	-0.37409925
118	0xbe2d75f3	-0.16939525
119	0x3e284022	0.16430715
120	0x3d8ce6e7	0.068799786
121	0xbd6d1e4b	-0.057890218
122	0xbe86a323	-0.26296338
123	0x3e7fcc7a	0.24980345
124	0xbdd2a99b	-0.10286256
125	0x3e0d6676	0.13808617
126	0x3e252772	0.16128328
127	0x3c7a5557	0.015279136
128	0xbd92907d	-0.07156465
129	0xbe240829	-0.16018738
130	0xbe5f3861	-0.2179885
131	0x3d3b5e03	0.045743953
132	0xbe204654	-0.15651828
133	0x3b9655ec	0.0045878794
134	0x3e37cd59	0.17949428
135	0xbe97240d	-0.29519692
136	0xbeb195cb	-0.34684595
137	0xbe07f84e	-0.13278314
138	0xbe074db6	-0.13213238
139	0x3e9356fa	0.28777295
140	0x3ba4376a	0.0050114887
141	0xbdeb3b28	-0.114858925
142	0xbed65f7f	-0.41869733
143	0xbe31b12a	-0.17352739
144	0xbd059382	-0.032611378
145	0x3e0f2d26	0.13982067
146	0x3ed24164	0.41065514
147	0xbe2b0ee4	-0.16704899
148	0xbed83995	-0.42231432
149	0x3e8eaca1	0.2786608
150	0xbd7f41cc	-0.06231861
151	0xbe6d7a58	-0.23191202
152	0xbeb20796	-0.34771413
153	0x3e445610	0.19173455
154	0x3e569c62	0.20958093
155	0xbe89bb8d	-0.26900902
156	0xbf09d729	-0.53843933
157	0xbdd7cba9	-0.10536892
158	0x3c4bbdc1	0.012435378
159	0x3ebba3b9	0.36648348
160	0xbdeedd2e	-0.116632804
161	0xbdbb6aa4	-0.091511995
162	0xbe749ba0	-0.23887491
163	0x3e778a60	0.2417388
164	0x3c087c8b	0.008330475
165	0xbe1e9d24	-0.15489632
166	0xbeaddbc4	-0.3395673
167	0xbe3bbad7	-0.18332992
168	0xbdcd019c	-0.100100726
169	0xbe94372e	-0.2894835
170	0xbd4367d6	-0.047706448
171	0xbe59cd99	-0.21269836
172	0x3edcb857	0.4310939
173	0xbe1a6219	-0.15076484
174	0x3da9e91b	0.082964145
175	0x3e551e52	0.20812348
176	0x3dc17014	0.09445205
177	0x3ea06fe5	0.3133537
178	0x3ed771fd	0.42079154
179	0xbc3e1958	-0.011602722
180	0x3ef768a8	0.48322034
181	0x3d70617c	0.05868672
182	0x3b8184ea	0.003952612
183	0x3d0cc956	0.034371696
184	0x3e10f6d4	0.14156657
185	0x3ec90997	0.3926513
186	0x3e7abf25	0.24486978
187	0x3c9832f2	0.01857898
188	0xbe71c59a	-0.23610535
189	0x3e7cbe32	0.24681929
190	0xbe267e2c	-0.16259068
191	0x3e921526	0.2853176
192	0xbe405038	-0.18780601
193	0x3e1e23a9	0.15443291
194	0x3ea1a013	0.3156744
195	0xbe22c439	-0.15895166
196	0xbe83488e	-0.25641292
197	0x3da2c58b	0.079478346
198	0x3e7699b2	0.24082068
199	0xbe61f03d	-0.220643
200	0xbd42425d	-0.04742657
201	0xbdb71cbd	-0.08941028
202	0x3e02fbb4	0.1279133
203	0xbeed600e	-0.46362346
204	0x3e39649f	0.1810479
205	0xbda732c1	-0.081639774
206	0xbe93dc6f	-0.28879115
207	0x3e31b9d0	0.17356038
208	0xbe4a8e37	-0.19780813
209	0xbebb2330	-0.36550283
210	0x3d18f42d	0.03734224
211	0x3e5a6cb4	0.2133053
212	0xbd2afe15	-0.041746218
213	0xbdc12ab3	-0.09431972
214	0xbe6cbb25	-0.23118265
215	0xbede1238	-0.43373275
216	0xbece54e6	-0.40299147
217	0x3db28db5	0.08718435
218	0x3d6e9327	0.058245804
219	0xbebda45b	-0.37039456
220	0xbcc877c2	-0.024471167
221	0xbe327bf0	-0.17430091
222	0x3eb9ce91	0.3629041
223	0x3dee4893	0.11634936
224	0xbd036295	-0.032076437
225	0xbe3109cc	-0.17288893
226	0xbe5f0b7a	-0.21781722
227	0xbba788ad	-0.0051127286
228	0xbe47dcb0	-0.1951778
229	0x3c24022c	0.010010283
230	0x3dfd37b8	0.12364143
231	0xbe479a5e	-0.1949248
232	0xbe566e13	-0.20940427
233	0x3e2c08ae	0.16800186
234	0xbe81de50	-0.25364923
235	0xbe9197ce	-0.2843613
236	0x3d4c22af	0.049837764
237	0x3e74a1c1	0.23889829
238	0x3d1a1535	0.03761788
239	0x3d82b807	0.06382757
240	0xbe670534	-0.22560579
241	0xbd3ccb26	-0.046092175
242	0x3e308edd	0.17241998
243	0x3e7ed7ba	0.2488698
244	0x3927309e	0.00015944472
245	0x3afeb695	0.0019433076
246	0xbe8aa906	-0.2708208
247	0xbc86ecaf	-0.016470281
248	0xbe4f169a	-0.20223466
249	0x3e4ad552	0.19807938
250	0xbe508d23	-0.2036634
251	0xbd5b8f03	-0.053603183
252	0x3d054676	0.0325379
253	0x3d5a56a9	0.0533053
254	0xbe3fc3a9	-0.18726982
255	0xbd2f102a	-0.042740025

predAlpha/Mod_B0_L5/Tensordot/MatMul f4 [14, 28]
0	0xbd8dbc06	-0.06920628
1	0xbf072cb9	-0.52802616
2	0x3d994cf6	0.07485382
3	0xbd1fde63	-0.039030444
4	0x3e8ffd68	0.2812302
5	0x3d6621d0	0.05618459
6	0xbb932a67	-0.0044911387
7	0x3e4c9c76	0.1998156
8	0x3edab3d0	0.4271531
9	0xbe8c8699	-0.2744644
10	0x3e21b69e	0.15792319
11	0x3e4dccec	0.20097703
12	0x3eb77f1e	0.3583917
13	0x3ce0fefe	0.02746534
14	0xbe4d95cf	-0.20076679
15	0x3e818f6b	0.25304732
16	0x3e73c58c	0.23805827
17	0x3eccb65f	0.39982888
18	0x3d0d44bf	0.03448939
19	0x3e341bf5	0.1758879
20	0xbdd26b4d	-0.10274372
21	0xbcd555c4	-0.026041873
22	0xbd58eb23	-0.05295862
23	0xbe89cdec	-0.26914918
24	0x3da347fb	0.079727136
25	0xbe6010b2	-0.21881369
26	0x3d933cbe	0.0718932
27	0x3dcbd850	0.09953368
28	0x3e3b56b1	0.18294789
29	0xbe20d6cb	-0.15706937
30	0x3ea0924b	0.31361613
31	0xbe44a050	-0.1920178
32	0xbe1b3b3b	-0.15159313
33	0xbec0c810	-0.37652636
34	0xbeb79456	-0.3585536
35	0xbe891c2a	-0.267793
36	0x3ed07d6f	0.40720698
37	0xbe03d908	-0.1287576
38	0xbec0398d	-0.37543908
39	0xbecb1b37	-0.396692
40	0x3e748b77	0.23881327
41	0x3eb8fb40	0.3612919
42	0xbea8a453	-0.3293787
43	0x3e9552c8	0.2916472
44	0xbe9ce664	-0.30644524
45	0x3e91bf35	0.28466192
46	0x3d7d9d58	0.061917633
47	0x3e4ba84a	0.19888416
48	0x3a27ea16	0.0006405426
49	0x3e05a268	0.13050234
50	0xbdeca31a	-0.11554547
51	0xbbf897e1	-0.0075864648
52	0x3d7a2f4b	0.06108026
53	0x3c1bf3b3	0.009518552
54	0x3ead9baa	0.33907825
55	0xbd815874	-0.06315699
56	0x3e33f6b7	0.17574583
57	0xbe0f1687	-0.13973437
58	0xbdf893aa	-0.1213754
59	0x3cd44f1b	0.025916627
60	0xbe1270ff	-0.14300917
61	0xbeac4d4b	-0.3365272
62	0xbd72d208	-0.059282333
63	0xbed8ce71	-0.42345002
64	0x3efb047a	0.49026853
65	0x3d9bfd4f	0.07616674
66	0x3d17978a	0.037009753
67	0xbac3c651	-0.0014936422
68	0xbeae3c27	-0.34030268
69	0xbe7edd6c	-0.24889153
70	0x3d482c49	0.04887036
71	0xbe74eb48	-0.23917878
72	0x3e955383	0.29165277
73	0x3c6f972c	0.0146234445
74	0x3e88b5af	0.26701114
75	0xbe3ed813	-0.18637113
76	0x3a69e825	0.0008922837
77	0xbd66cd8c	-0.05634837
78	0x3e94c994	0.29060042
79	0x3de31462	0.11087872
80	0x3db5c3f4	0.08875266
81	0x3e44f3b6	0.19233593
82	0x3c94437b	0.018098583
83	0xbdce88b9	-0.100846715
84	0x3e4668af	0.19375871
85	0x3d24cca4	0.040234223
86	0x3da92183	0.08258345
87	0xbef6aee4	-0.48180306
88	0x3e80b193	0.25135478
89	0xbeabeef2	-0.33580738
90	0x3e447f77	0.19189249
91	0xbe4f40d0	-0.20239568
92	0x3ebd9ec7	0.370352
93	0x3dd0e183	0.10199263
94	0xbc892cc7	-0.016744984
95	0x3d8309f7	0.06398385
96	0x3dddbab9	0.1082663
97	0xbd544310	-0.05182177
98	0xbe28003f	-0.16406344
99	0x3e172229	0.14759125
100	0xbe144f92	-0.14483479
101	0xbe06a9a7	-0.13150655
102	0x3d1828ff	0.037148472
103	0xbd453d26	-0.04815402
104	0x3e1b9d4b	0.15196721
105	0x3e0449ba	0.1291875
106	0xbe2b8092	-0.16748264
107	0x3cb014c8	0.021494284
108	0x3de7d919	0.11320705
109	0xbed1d086	-0.40979403
110	0x3cc22d9c	0.023703389
111	0x3e794b83	0.24345212
112	0xbec953f5	-0.39321867
113	0xbde79883	-0.11308386
114	0xbea79b03	-0.32735452
115	0xbe71e7df	-0.23623608
116	0x3dd2d9dd	0.102954604
117	0x3d8d84cd	0.06910095
118	0x3e733ec3	0.2375441
119	0x3e57cd7e	0.21074483
120	0xbe10e088	-0.14148152
121	0xbeaa6a0d	-0.33284035
122	0x3dcf75e3	0.10129907
123	0x3e542444	0.20716959
124	0xbe6ab7df	-0.22921704
125	0xbd6cc7ff	-0.05780792
126	0x3e86d573	0.26334724
127	0xbe02e781	-0.12783624
128	0x3e59cad9	0.21268786
129	0xbd6eb75f	-0.058280345
130	0x3e350afb	0.1767997
131	0xbe7e4c35	-0.24833758
132	0x3d8353c2	0.0641246
133	0x3ec18899	0.37799528
134	0xbd865d36	-0.06560747
135	0x3ccc6e08	0.02495481
136	0xbd874163	-0.066042684
137	0x3ded71f7	0.11594003
138	0x3da89a22	0.082325235
139	0x3e8227a1	0.2542086
140	0xbdbdaffe	-0.092620835
141	0xbde37ddb	-0.111079894
142	0x3e9b2d52	0.30308014
143	0xbd9e96d7	-0.07743614
144	0xbeaf2b3d	-0.34212676
145	0xbd594930	-0.053048313
146	0xbd4204f0	-0.04736799
147	0x3e7c07c7	0.24612342
148	0x3e0dc30e	0.13843939
149	0xbe67f281	-0.22651102
150	0xbcb3611d	-0.021896893
151	0x3caa77c8	0.02080907
152	0x3e8c6749	0.2742255
153	0xbe2afa6a	-0.16697088
154	0x3d9fea89	0.07808406
155	0xbe6d3b22	-0.23167089
156	0xbe03d11a	-0.12872735
157	0x3e8d488c	0.2759441
158	0xbce0cde4	-0.027441926
159	0x3d13c5bd	0.03607725
160	0xbb1ce77a	-0.0023941682
161	0x3a8f669b	0.0010940613
162	0xbe403367	-0.18769608
163	0xbcce3760	-0.02517289
164	0xbe07822a	-0.13233247
165	0x3e70fef0	0.23534751
166	0xbe0f4303	-0.13990407
167	0x3d39ddf2	0.04537768
168	0x3d4f3b17	0.05059346
169	0x3e390345	0.18067653
170	0xbdf2281e	-0.11824058
171	0x3d97011c	0.073732585
172	0x3e8ba42c	0.2727369
173	0x3ed95d8a	0.42454177
174	0xbc07ec44	-0.008296076
175	0xbe415804	-0.18881232
176	0xbe95aa59	-0.29231527
177	0x3db8d936	0.09025805
178	0xbdf75fee	-0.12078844
179	0x3cce5d54	0.025190987
180	0xbd97850f	-0.07398426
181	0xbe2bf0c6	-0.16791067
182	0xbdf9a28a	-0.12189205
183	0x3dacdca8	0.08440524
184	0xbed5134e	-0.4161629
185	0xbeddaf66	-0.4329788
186	0xbc941965	-0.018078515
187	0x3e925b96	0.285855
188	0xb78f5938	-1.7088474e-05
189	0x3e401574	0.18758184
190	0xbc55ff34	-0.013061333
191	0xbeb84923	-0.359933
192	0x3cec4f3e	0.02884638
193	0x3ded49d7	0.115863495
194	0xbe211b37	-0.15733038
195	0xbef144b4	-0.4712273
196	0x3e1327a5	0.14370592
197	0xbecd3bf3	-0.400848
198	0x3e0d4670	0.13796401
199	0xbe304619	-0.1721424
200	0x3cf95def	0.030440299
201	0x3e65becb	0.22436063
202	0xbebf3a36	-0.373491
203	0xbe48f902	-0.19626239
204	0x3cd8f31b	0.02648311
205	0x3dc28576	0.09498112
206	0x3e38599f	0.18002938
207	0xbd31872b	-0.043341797
208	0xbe92dde8	-0.28684926
209	0xbef3c281	-0.47609332
210	0xbd36f17b	-0.044663887
211	0x3de89f31	0.11358488
212	0x3d50097a	0.050790288
213	0x3d8a3b8f	0.06749641
214	0x3d8c73a4	0.06857994
215	0xbdd93dc2	-0.106074825
216	0xbe063607	-0.13106547
217	0x3d165d8c	0.036710307
218	0x3e554e22	0.20830587
219	0xbed3bea2	-0.4135638
220	0x3cfbb501	0.030725958
221	0x3d92eba8	0.07173854
222	0x3e7323e1	0.23744155
223	0x3ebdf13f	0.3709812
224	0x3db5c300	0.08875084
225	0x3e02306b	0.12713782
226	0xbe55ec31	-0.20890881
227	0x3d23162e	0.039816074
228	0x3e4e4491	0.20143344
229	0x3e8c4764	0.27398217
230	0x3e50349e	0.20332572
231	0x3e21b31e	0.15790984
232	0x3dbc9883	0.09208777
233	0x3e90e938	0.28302932
234	0xbe98f0f5	-0.29871336
235	0x3ee28ffc	0.44250476
236	0x3c4176f3	0.011808145
237	0x3dc85cad	0.097833015
238	0x3ed048f3	0.40680656
239	0xbea4c64f	-0.32182547
240	0xbd6014c2	-0.054707296
241	0x3f01fd14	0.5077679
242	0xbde325b7	-0.11091178
243	0xbc86c283	-0.016450172
244	0x3b11b88d	0.0022235245
245	0x3dc826cf	0.09773027
246	0xbe9f497b	-0.3111075
247	0xbe9a9ed6	-0.30199307
248	0x3e252490	0.16127229
249	0xbe607e76	-0.21923241
250	0x3e03586f	0.12826703
251	0xbdd68e12	-0.104763165
252	0x3e867d06	0.2626726
253	0xbd451d54	-0.048123673
254	0xbc453fe2	-0.012039157
255	0x3df8219f	0.12115788

predAlpha/Mod_B0_L7/batchnorm/sub f4 [14]
0	0xbf30e56e	-0.6910008
1	0xbf422fd3	-0.75854224
2	0xbf9ce5e6	-1.225766
3	0xbf1154a6	-0.5676979
4	0xbf36f6d5	-0.71470386
5	0xbec03d19	-0.37546614
6	0xbf7c9999	-0.9867187
7	0xbf570fe5	-0.8400863
8	0xbf68b066	-0.9089416
9	0xbf2567a0	-0.64611244
10	0xbf1f0b7d	-0.62126905
11	0xbf3d7cbc	-0.74018455
12	0xbecbd80b	-0.39813265
13	0xbf36b8ab	-0.7137553

predAlpha/Mod_B0_L7/batchnorm/mul f4 [14]
0	0x3f8c05fc	1.0939326
1	0x401fbab7	2.4957712
2	0x402544af	2.582317
3	0x403c20ee	2.9395099
4	0x40638723	3.555123
5	0x40c78c20	6.235855
6	0x4053c06e	3.30862
7	0x402a947f	2.6653135
8	0x404ba319	3.1818297
9	0x4078f8e3	3.8901908
10	0x4019afce	2.4013553
11	0x4098f706	4.780154
12	0x4001e8dd	2.0298378
13	0x409b552c	4.854147

predAlpha/Mod_B0_L3/batchnorm/sub f4 [28]
0	0xbe8d4ca4	-0.27597535
1	0xbfac4ec0	-1.3461533
2	0xbf2cc513	-0.6748821
3	0xbe51e138	-0.2049607
4	0xbf115a4a	-0.56778395
5	0xbd47090f	-0.048592623
6	0xbf04d6c4	-0.51890206
7	0xbf5569eb	-0.83364743
8	0xbf19cc64	-0.600775
9	0xc01c097e	-2.4380794
10	0xbda2c10a	-0.079469755
11	0xbf20ce25	-0.6281455
12	0xbfae856d	-1.3634468
13	0xbefaa144	-0.4895116
14	0xbf92be4d	-1.1464325
15	0xbf0bea71	-0.54654604
16	0xbf9fae14	-1.2475
17	0xbf9c099c	-1.2190433
18	0xbfb324b6	-1.3995578
19	0xbfd988f3	-1.6994919
20	0xbcad652e	-0.02116641
21	0xbf583639	-0.8445774
22	0xbf062e57	-0.5241446
23	0xbda4d382	-0.080481544
24	0xbf9feeed	-1.2494789
25	0xc00b2f08	-2.1747456
26	0xbfa24f1a	-1.268039
27	0xbf29a8e9	-0.6627336

predAlpha/Mod_B0_L3/batchnorm/mul f4 [28]
0	0x401a7125	2.4131558
1	0x40234d0b	2.5515773
2	0x40adfed3	5.4373565
3	0x40a00fac	5.001913
4	0x3f3a1f7d	0.727043
5	0x40c0c642	6.0242014
6	0x3f866dec	1.0502295
7	0x3fbaf903	1.4607242
8	0x3f21461f	0.6299762
9	0x409a9e75	4.831843
10	0x40c0b43d	6.0220017
11	0x40099d54	2.1502275
12	0x3f759135	0.95924693
13	0x3f96bbb4	1.1776032
14	0x40d9f7bc	6.811491
15	0x3f4a511f	0.7903003
16	0x3fdb1c39	1.7117988
17	0x400ddef1	2.2167323
18	0x3fb062d8	1.3780165
19	0x40a83e73	5.257623
20	0x40f00fb2	7.501916
21	0x408363bd	4.105925
22	0x3faa9bec	1.3328834
23	0x3fd25c86	1.6434486
24	0x3f97957e	1.1842496
25	0x40293cb0	2.644329
26	0x3f8706b4	1.0548921
27	0x3f80ac37	1.0052556

predAlpha/Mod_B1_L0/BiasAdd/ReadVariableOp f4 [32]
0	0x3d78fbcf	0.06078702
1	0x3d07c55d	0.033147205
2	0xbd4f7c42	-0.05065561
3	0x3dbda925	0.092607774
4	0x3d1267d5	0.035743553
5	0x3e724690	0.2365973
6	0x3d9936b8	0.0748114
7	0x3d92af42	0.07162334
8	0x3e1e165c	0.15438217
9	0xbc673bb9	-0.01411336
10	0x3dd9dcf0	0.106378436
11	0x3db3808b	0.08764752
12	0x3e046076	0.12927422
13	0x3c5749a7	0.013140119
14	0xbd0e3138	-0.034714907
15	0x3e100ec4	0.14068133
16	0x3dd496b9	0.103803106
17	0x3dc77905	0.097398795
18	0xbbf3d9c0	-0.0074417293
19	0x3cc34b83	0.023839718
20	0x3d8dbd02	0.06920816
21	0x3bdf4ac6	0.0068143336
22	0x3d2d5b32	0.0423233
23	0x3dc7073e	0.09718178
24	0x3daf7656	0.08567493
25	0x3d99beab	0.0750707
26	0x3e1c7b1f	0.15281342
27	0xbd2b1c61	-0.04177511
28	0x3d41e8fe	0.04734134
29	0x3dd5d94a	0.10441835
30	0x3dedd5f4	0.11613074
31	0xbc9ef747	-0.01940502

predAlpha/Mod_B0_L5/BiasAdd/ReadVariableOp f4 [14]
0	0xbc91fef1	-0.01782176
1	0xbd78a5de	-0.06070506
2	0xbc174463	-0.009232613
3	0xbdf4e054	-0.1195685
4	0xbd80ef9f	-0.06295704
5	0xbddad78a	-0.10685642
6	0xbcbc74f2	-0.023004983
7	0xbd16a401	-0.0367775
8	0xbcb6eab1	-0.022328706
9	0xbcb0c29d	-0.021577174
10	0xbcb8eac4	-0.022572882
11	0xbd3947b8	-0.045234412
12	0xbd4913d3	-0.04909117
13	0xbb94f8c8	-0.0045462586

predAlpha/Mod_B0_L1/BiasAdd/ReadVariableOp f4 [28]
0	0xbc87bfa2	-0.01657087
1	0xbb9b0aef	-0.004731528
2	0x3b40007d	0.0029297166
3	0xbc97cd65	-0.018530557
4	0x3cef15da	0.029185224
5	0xbbf9f419	-0.0076279757
6	0xbba01d82	-0.00488633
7	0x3d06d087	0.03291371
8	0xbce39270	-0.027779788
9	0x3ca782ce	0.020448115
10	0x3be1409f	0.0068741585
11	0xbba3f348	-0.0050033666
12	0xbc8c785d	-0.017147237
13	0x3d0deb18	0.03464803
14	0xbd66a62e	-0.056310825
15	0x3bc78199	0.0060884473
16	0xbcc986ba	-0.024600375
17	0x3d22ec88	0.039776355
18	0x3c1b0157	0.009460769
19	0x3d047fc8	0.032348424
20	0xbbc77d40	-0.006087929
21	0x3a37fe3f	0.00070187816
22	0x3caad20c	0.020852111
23	0xbb2f79e3	-0.002677553
24	0xbd92ddeb	-0.07171234
25	0x3d13570c	0.035971686
26	0x3d85f7c1	0.06541396
27	0x3ceec381	0.029145958

predAlpha/Mod_B0_L1/Tensordot/MatMul1 i1 [28, 57] scale=0.0031404863 zero_point=0
0	0x10	0.05024778
1	0xf6	-0.031404864
2	0xbf	-0.2041316
3	0xcf	-0.15388383
4	0x2f	0.14760286
5	0xc4	-0.18842918
6	0xde	-0.106776536
7	0x04	0.012561945
8	0xc0	-0.20099112
9	0xe1	-0.097355075
10	0x9d	-0.31090814
11	0x3b	0.1852887
12	0xf4	-0.037685834
13	0x63	0.31090814
14	0xcf	-0.15388383
15	0x02	0.0062809726
16	0x24	0.11305751
17	0x31	0.15388383
18	0xc3	-0.19156967
19	0xcd	-0.1601648
20	0x19	0.078512155
21	0x59	0.2795033
22	0xf0	-0.05024778
23	0x2c	0.1381814
24	0x1a	0.08165264
25	0x16	0.0690907
26	0xf9	-0.021983404
27	0x4c	0.23867697
28	0x08	0.02512389
29	0xb1	-0.24809842
30	0xf1	-0.047107294
31	0x3a	0.1821482
32	0x35	0.16644578
33	0xd4	-0.1381814
34	0x2a	0.13190043
35	0x2a	0.13190043
36	0x22	0.106776536
37	0xe2	-0.09421459
38	0xae	-0.25751987
39	0xc5	-0.1852887
40	0x61	0.30462718
41	0xd8	-0.12561946
42	0xe4	-0.087933615
43	0x0b	0.03454535
44	0xe9	-0.07223119
45	0x26	0.11933848
46	0x10	0.05024778
47	0x20	0.10049556
48	0x44	0.21355307
49	0x95	-0.33603203
50	0x46	0.21983404
51	0xea	-0.0690907
52	0x1d	0.0910741
53	0x57	0.2732223
54	0xe3	-0.0910741
55	0x07	0.021983404
56	0x20	0.10049556
57	0x45	0.21669355
58	0xa2	-0.2952057
59	0x1c	0.087933615
60	0xbc	-0.21355307
61	0x13	0.05966924
62	0x1b	0.08479313
63	0x1b	0.08479313
64	0xf6	-0.031404864
65	0x5e	0.2952057
66	0xd8	-0.12561946
67	0x62	0.30776766
68	0x32	0.15702431
69	0x1a	0.08165264
70	0x1b	0.08479313
71	0x39	0.17900772
72	0xdd	-0.10991702
73	0xf8	-0.02512389
74	0xa4	-0.28892475
75	0xfb	-0.015702432
76	0x4a	0.23239599
77	0x1e	0.09421459
78	0xe7	-0.078512155
79	0x11	0.053388268
80	0xa8	-0.2763628
81	0xfc	-0.012561945
82	0x53	0.26066035
83	0x21	0.10363605
84	0xe7	-0.078512155
85	0xd4	-0.1381814
86	0x0a	0.031404864
87	0x4f	0.24809842
88	0xf5	-0.03454535
89	0x09	0.028264377
90	0x0b	0.03454535
91	0xd2	-0.14446238
92	0xf7	-0.028264377
93	0xda	-0.11933848
94	0x46	0.21983404
95	0x32	0.15702431
96	0xdc	-0.11305751
97	0xe7	-0.078512155
98	0x3d	0.19156967
99	0x06	0.018842917
100	0xe4	-0.087933615
101	0xd6	-0.13190043
102	0x1f	0.097355075
103	0x17	0.07223119
104	0x14	0.06280973
105	0x2d	0.14132188
106	0xf7	-0.028264377
107	0x00	0.0
108	0x08	0.02512389
109	0x49	0.2292555
110	0x32	0.15702431
111	0x09	0.028264377
112	0x27	0.12247897
113	0x23	0.10991702
114	0xd6	-0.13190043
115	0xb1	-0.24809842
116	0x0b	0.03454535
117	0x12	0.056528755
118	0xeb	-0.065950215
119	0x22	0.106776536
120	0xf6	-0.031404864
121	0xf0	-0.05024778
122	0x9e	-0.30776766
123	0xe9	-0.07223119
124	0x45	0.21669355
125	0x28	0.12561946
126	0x2d	0.14132188
127	0xee	-0.056528755
128	0xdd	-0.10991702
129	0x35	0.16644578
130	0x05	0.015702432
131	0x03	0.0094214585
132	0xed	-0.05966924
133	0x6b	0.33603203
134	0x01	0.0031404863
135	0x0d	0.04082632
136	0x1e	0.09421459
137	0xae	-0.25751987
138	0x0b	0.03454535
139	0x01	0.0031404863
140	0x0c	0.037685834
141	0x03	0.0094214585
142	0xcb	-0.16644578
143	0xbf	-0.2041316
144	0xf2	-0.043966807
145	0x14	0.06280973
146	0x6b	0.33603203
147	0xc8	-0.17586723
148	0x34	0.16330528
149	0xef	-0.053388268
150	0x11	0.053388268
151	0x05	0.015702432
152	0x39	0.17900772
153	0x14	0.06280973
154	0x24	0.11305751
155	0x06	0.018842917
156	0xb7	-0.2292555
157	0xec	-0.06280973
158	0x1a	0.08165264
159	0xa6	-0.28264377
160	0x27	0.12247897
161	0x16	0.0690907
162	0x2b	0.13504091
163	0xf5	-0.03454535
164	0x21	0.10363605
165	0x99	-0.3234701
166	0x50	0.2512389
167	0xc8	-0.17586723
168	0x2b	0.13504091
169	0xe7	-0.078512155
170	0x07	0.021983404
171	0xe8	-0.07537167
172	0x35	0.16644578
173	0x1d	0.0910741
174	0x2b	0.13504091
175	0x6e	0.3454535
176	0x59	0.2795033
177	0xea	-0.0690907
178	0xef	-0.053388268
179	0xec	-0.06280973
180	0xca	-0.16958626
181	0x0b	0.03454535
182	0x1c	0.087933615
183	0xaf	-0.2543794
184	0x2c	0.1381814
185	0x44	0.21355307
186	0xd4	-0.1381814
187	0xce	-0.15702431
188	0x00	0.0
189	0xfa	-0.018842917
190	0xa5	-0.28578424
191	0xc7	-0.17900772
192	0xea	-0.0690907
193	0xfd	-0.0094214585
194	0x25	0.116197996
195	0x33	0.1601648
196	0x27	0.12247897
197	0xcd	-0.1601648
198	0x57	0.2732223
199	0x17	0.07223119
200	0xb3	-0.24181744
201	0xf3	-0.04082632
202	0x03	0.0094214585
203	0xe0	-0.10049556
204	0xb4	-0.23867697
205	0xe4	-0.087933615
206	0xfa	-0.018842917
207	0x53	0.26066035
208	0xed	-0.05966924
209	0xef	-0.053388268
210	0xd3	-0.14132188
211	0xd3	-0.14132188
212	0x07	0.021983404
213	0x14	0.06280973
214	0x3e	0.19471015
215	0x0c	0.037685834
216	0xd4	-0.1381814
217	0xa2	-0.2952057
218	0xf5	-0.03454535
219	0xc7	-0.17900772
220	0xd3	-0.14132188
221	0xc6	-0.1821482
222	0xd9	-0.12247897
223	0x2a	0.13190043
224	0x0c	0.037685834
225	0xbd	-0.21041258
226	0xc7	-0.17900772
227	0xff	-0.0031404863
228	0xca	-0.16958626
229	0xf6	-0.031404864
230	0xde	-0.106776536
231	0x39	0.17900772
232	0x5a	0.28264377
233	0x01	0.0031404863
234	0xcb	-0.16644578
235	0xe1	-0.097355075
236	0xc3	-0.19156967
237	0x2b	0.13504091
238	0x22	0.106776536
239	0xf6	-0.031404864
240	0xfc	-0.012561945
241	0xc2	-0.19471015
242	0x19	0.078512155
243	0xf0	-0.05024778
244	0x11	0.053388268
245	0xeb	-0.065950215
246	0xe3	-0.0910741
247	0xbf	-0.2041316
248	0x0d	0.04082632
249	0xe2	-0.09421459
250	0x17	0.07223119
251	0x27	0.12247897
252	0xdb	-0.116197996
253	0x17	0.07223119
254	0xe7	-0.078512155
255	0x06	0.018842917
