Project/Models/Alphabets/J.tflite (tflite, 15504 bytes, 11 tensors)

predAlpha/Mod_B3_Lo/MatMul f4 [1, 32]
00000000: 36d3 92be c459 18bf bc1c 5a3e 52ca 3ebe
00000010: 8938 8d3e efe7 8b3e 7e60 25be 8888 f5be
00000020: e376 18be c3ab 73be 8c5a efbd 8338 633d
00000030: 2d7c 4b3e 017c 93be 2b50 923e b17d e1be
00000040: ce3e 053d 4a30 2a3f d102 ba3e 4845 09be
00000050: 3657 54be fe25 653e 0563 e8be adfa 74be
00000060: a69e 5e3e 3d94 a5be b9fe b0be 896c f9be
00000070: ab60 883e 9a8e f0be 5b96 89be dbe3 a9bd
-0.28676766 -0.5951197 0.21300024 -0.18631867 0.27582195 0.2732539 -0.1615009 -0.47955728
-0.14889102 -0.2379599 -0.11687192 0.055473816 0.19871588 -0.28805545 0.28576788 -0.44041207
0.0325306 0.66479933 0.36330274 -0.13405335 -0.20736393 0.22377774 -0.45388046 -0.2392375
0.21740207 -0.3233966 -0.34569338 -0.48715618 0.26636252 -0.46983796 -0.26872525 -0.08295413

predAlpha/Mod_B1_L0/MatMul f4 [32, 28]
00000000: 89ac 693e 49d0 a0be a4c3 ec3d 68fb 023e
00000010: 6f91 173e 2662 8bbe 82f5 e3bc bf13 e8bc
00000020: d540 613d 33fb 57be 8ba3 813e c3da 003d
00000030: 10fb c93e d9db c5bd 2900 3e3e 5e46 9f3e
00000040: 32db 50be 5892 33be 7912 a2bb 86bf e0be
00000050: bf86 383e cd17 d13d bf16 c53d ec81 56be
00000060: d6d0 813d 345a 38be 29fb debe d7d2 00bd
00000070: 849d 203e 6e7b 423d 5960 c53d b0fa 053e
00000080: 8243 7abe 08c8 d63d 4f85 29bd 59aa c13d
00000090: 6fdb 85be 52c8 5bbd ec87 abbe 229d 98be
000000a0: ed02 233e f829 00be 3d11 c0bc 9b9d b73e
000000b0: 6efe a53e 8c5b 593e 4470 5e3d 7692 2a3e
000000c0: 7e2a c83d a2c6 ef3d a38b 81be a6be e6bc
000000d0: 051f a6bd 6522 cabd 3f4e 2b3e fbe4 813e
000000e0: b09c a33d b75d e0bd 738f 613b a69d 883d
000000f0: 395b 033e 0b17 83bd d247 3ebd 99ed 163e
00000100: a04c 2d3d 3cf8 3cbe 768c d5bd a8ec 94be
00000110: 21bd a7bc afa7 8d3d 1b70 e3bd 63db 61be
00000120: dfab 0c3e 8b4b 1d3e 089d a9be 8bc6 c5bd
00000130: 8df0 2e3e 4ffc f3bd 9de9 40be 0992 a63e
00000140: 0041 dc3d a883 c23d 9a45 973d 1fd9 b1bc
00000150: 48c8 4cbe bfbf 833d dcba aa3e 7648 8a3e
00000160: 1724 b2bc 9b45 1fbd 0ce6 063e 0751 a7be
00000170: 12c6 7a3b edf5 f4bd 240f 3fbe 2af2 fa3d
00000180: 19d7 fa3d 34d8 253e 099e 64bc 961a 5b3e
00000190: 4676 a93b 08f8 01be d318 24be bbdd c3be
000001a0: 5b4d 1e3e dcc4 333d 81af 04be c03f b2be
000001b0: 8f0d f23d 9a72 24bd 5ce4 da3d 4a2d 073e
000001c0: ccdc b2be 19af c63e 302a 9bbd fdae cabe
000001d0: ff42 9f3d 2bd9 61be cdd9 bfbe ff36 4dbd
000001e0: b1cd fbbd 3e77 d93d bc97 a2be 5023 093e
000001f0: 8b97 093e 6318 2a3e 90a0 3cbe 2ffe 24be
00000200: 6c42 b53d 7e50 8f3d 88ff 38be cfae a13d
00000210: 95fe 88be 5ba5 6e3d e647 303e ab5a 04be
00000220: c6cb 17bd 7a49 b73b 9b31 f93d d029 a5be
00000230: cc95 3ebe 7fe4 c23e e09e 9ebd b01e 90be
00000240: c1b2 4e3e 87b1 223c 2afb 46be 1ee2 23be
00000250: 30b6 0bbe 2f39 853e 556d 4bbe c338 ac3e
00000260: abfe 3ebe b085 9ebe 9973 103b 8431 d6bd
00000270: 0b80 cfbe 39c5 a1be f1f0 07be 5316 d53e
00000280: 95e3 fa3d 0ecd e5be 43e1 8bbd aab5 623e
00000290: 05a6 933d 5f21 5c3e 2ee6 19be d464 9cbe
000002a0: 7500 793e 8663 6a3d 1f53 d8bb 471b bdbd
000002b0: fdb6 d93d 63a0 b23e 0a87 4cbe bd64 18bd
000002c0: f607 043a 277d 743d ffc5 493d b13b 13be
000002d0: 77ff 09be d019 50be e658 a23e e0f8 0c3e
000002e0: 36d0 d83d a79b 433d 3a45 fa3d f629 623e
000002f0: f41e f63c 2672 de3e 40a2 973b 148b c4be
00000300: b948 b53d 7a8d 8c3e 1c57 d7be 37f5 13be
00000310: b815 7a3d a75c e5be 8d90 29be e461 3e3e
00000320: d743 84bd 29cf 04bd 6bd8 86be efed 453e
00000330: 9435 81bd ac68 49be d400 983e e83f 2b3e
00000340: ba73 cebc 2a0c a23d 8baf 6dbd 58a1 803e
00000350: e53a fc3d a121 9cbd 06c7 bb3d dbab ca3d
00000360: 4b0e 57be 910c b73d dc9e c73b 40f4 4ebe
00000370: adb7 033e 907c 8e3e b49a 9dbe df85 80bc
00000380: d345 a6bd d213 253e 858c 893e 32c9 a0be
00000390: 0348 e63e 9d20 673e dce3 dbbe 548a 973d
000003a0: b179 fbbb 50f4 6d3c 509c a63d bb6d 15be
000003b0: 4994 8abe 957f 693e 150f 123d 4e56 a2be
000003c0: ad96 e43d 2eb0 06be c2a1 11bd 07dc aa3d
000003d0: ad6f 123b 0115 2dbd 57ee ee3c fa39 9dbe
000003e0: d402 003d d5ce c4be 4938 53bc 4629 583c
000003f0: 23c0 123c 6e58 bf3e 2871 adbd efcc 74be
0.22819723 -0.3140891 0.11560753 0.12791216 0.14801572 -0.2722332 -0.027827028 -0.028329728
0.05499347 -0.21091919 0.25320086 0.031458627 0.39449358 -0.09661073 0.18554749 0.31108373
-0.20396116 -0.17536294 -0.00494605 -0.4389612 0.18020152 0.10209618 0.09623479 -0.20947999
0.063386604 -0.1800316 -0.43550995 -0.031451073 0.15685087 0.047480993 0.096375175 0.13083911
-0.24439815 0.10487372 -0.0413869 0.09456319 -0.26143977 -0.053657837 -0.33502138 -0.29807383
0.15919085 -0.1251601 -0.02344572 0.3586243 0.32420677 0.21226329 0.054306284 0.16657433
0.0977373 0.11707808 -0.25301847 -0.02816708 -0.08111385 -0.098698415 0.16729067 0.2537001
0.0798887 -0.10955375 0.0034417778 0.06670694 0.12827767 -0.064008795 -0.046455212 0.14739074
0.042309403 -0.18454069 -0.104271814 -0.29086804 -0.020475926 0.06916749 -0.11105367 -0.22056346
0.13737439 0.15360849 -0.33127618 -0.0965701 0.1708395 -0.119133584 -0.18839116 0.3253329
0.10754585 0.09497768 0.07386322 -0.021709977 -0.19998276 0.06433057 0.33345687 0.27008408
-0.021745725 -0.03888474 0.13173693 -0.32679006 0.0038265032 -0.11960969 -0.1865812 0.122532204
0.12248058 0.16195756 -0.013953694 0.2139686 0.00517157 -0.12692273 -0.16025095 -0.38255104
0.15459196 0.04388891 -0.12957574 -0.34814262 0.11818992 -0.040148355 0.10688087 0.1320087
-0.3493408 0.38805464 -0.07576406 -0.3958663 0.0777645 -0.220555 -0.37470856 -0.050101276
-0.12295092 0.10618447 -0.3175639 0.13392377 0.13436715 0.16610865 -0.18420625 -0.16112588
0.088505596 0.069977745 -0.18066227 0.0789467 -0.2675673 0.058263164 0.17214927 -0.12925212
-0.037059568 0.005593476 0.121676646 -0.32258463 -0.1861183 0.38064954 -0.07745147 -0.28148413
0.20185377 0.009930021 -0.19431749 -0.16004226 -0.13643718 0.2602019 -0.19865926 0.33637056
-0.18651836 -0.3096137 0.0022041558 -0.10458663 -0.40527377 -0.3159578 -0.13275506 0.41618595
0.12250439 -0.44883007 -0.06830075 0.22139612 0.072094 0.21497105 -0.15029213 -0.30545676
0.2431658 0.05722382 -0.0066017057 -0.09233718 0.10630605 0.3488799 -0.19973388 -0.037205447
0.00050365867 0.059689667 0.04926109 -0.14378239 -0.13476358 -0.20322347 0.3170845 0.13766813
0.10586588 0.047755864 0.12220235 0.2208632 0.030044056 0.43446463 0.004627496 -0.38387358
0.08851761 0.27451688 -0.42058647 -0.14449011 0.06105587 -0.4479725 -0.16559048 0.1859203
-0.06458252 -0.032424126 -0.2633699 0.19329046 -0.06309047 -0.19668835 0.29688132 0.16723597
-0.025201667 0.07912476 -0.05802874 0.25123096 0.12315921 -0.07623602 0.0916882 0.0989606
-0.21001546 0.08937944 0.0060919356 -0.20210361 0.12863036 0.2782941 -0.30782092 -0.015688835
-0.08118787 0.16120842 0.2686502 -0.314035 0.44976816 0.22571035 -0.4294728 0.07399431
-0.007674419 0.014523581 0.08135283 -0.1459264 -0.27066258 0.22802575 0.035658915 -0.3170647
0.111615516 -0.13153145 -0.035554655 0.08342748 0.0022344396 -0.04225636 0.029166384 -0.30708295
0.031252697 -0.3843905 -0.012891837 0.013193434 0.008956942 0.37372154 -0.084688485 -0.23906301

predAlpha/Mod_B0_L5/Tensordot/MatMul f4 [14, 28]
00000000: 758e 023e 178e ac3e 5341 f1bd 54df e83d
00000010: f381 eabe 6278 623e b1e5 973e cb0e a03d
00000020: face 84be 4ca2 0abe 4a2c f0be 86dc e8bd
00000030: 6ece 8dbd 9b0c a83e 1e10 02be d147 c83e
00000040: 58f3 8d3d e873 c53d f679 213e 5eb5 ec3d
00000050: d241 26be 103f f23d fdb2 a8be 6650 a2bd
00000060: 32fc 3dbe 2816 f0be 4ba4 2dbe a34e ca3d
00000070: cc14 2c3c ecc9 53be 8ca8 d03c 2b52 0c3e
00000080: 9840 193e 0633 4fbe ead0 97be f65f 153d
00000090: 2744 5cbe e316 f73c 6836 0dbd d373 c1be
000000a0: fafc 84be 6ae6 303e 5823 b83e 1e30 9b3e
000000b0: 8a42 c4bd 055c 533b 1a85 32be 871b 1c3d
000000c0: 27d0 4ebe 32e0 313c 4fe3 8f3d 8096 e1bd
000000d0: ce67 7fbc 49b8 f3bd d916 f73c 212e 35bc
000000e0: 0b01 8f3c 5abb bfbc 26fd b8be 3f28 29bd
000000f0: 183e 1ebc 1ed8 163e fd26 8f3d bedb 893d
00000100: 2a62 b3be f578 8bbd 67dd 6f3d 617a 80be
00000110: dd9b 2b3e f842 3c3e c98c e73d ade0 1dbc
00000120: 8309 1fbd 9178 7abe 3619 80bd 3866 be3e
00000130: 9b01 8d3d 86e9 903d c092 0abc 4a29 4d3d
00000140: 6bf0 c9bd 4676 16be e3e2 debd d847 33be
00000150: f7bf b4be ff50 e63c 9b8e 3e3e 7747 18be
00000160: 6225 153d 0ad5 34be c102 bd3c e3d0 f33c
00000170: 1c70 15be 969c 4b3d 0dc5 2cbe 6c61 873d
00000180: cf56 5bbe e7b7 c63e 69e1 563e e73b 97bc
00000190: bac9 9b3e 13e7 643e d758 2f3e 1943 103e
000001a0: f88c a03e 0a61 7a3e 5dd0 fabc 2de2 dd3d
000001b0: 831c d9be 44ed 823d f032 983d 96ae 653d
000001c0: 9b69 323d 105d 42bd e543 903d 9cf2 e23e
000001d0: c6f0 d7be cce2 5c3e 028f e53d 7a66 773d
000001e0: 0cfa 1c3d 64c7 8bbd cccd 353d de85 e73e
000001f0: 8f5b 943d 5dd7 d4bd fd5e debd d1c5 88bd
00000200: 0c56 223e 9d04 0c3e 47a3 d6bd 5435 d13d
00000210: c5f2 f0bd a01b 123e 2fcc 81be aac7 cdbb
00000220: a05f c13c 631f 443d 60c5 55b6 4645 51bd
00000230: a731 e93d c2c3 73be 5861 d13d 7331 90be
00000240: 411f b1bd a3e2 c63e 29b0 d83d 2185 cebe
00000250: 8670 d9be ac57 843e 870e f0bd 778e 33be
00000260: 7747 4ebe d954 9a3e e5a5 3fbe f3e1 c6be
00000270: 4fc6 eebd bad5 4cbd 6ad8 a3be 9abf 953e
00000280: f1df 97bd b1c1 103d 2754 8c3d 23da e3bd
00000290: 0f08 8ebe 4449 a1be 4373 6d39 e84b 003e
000002a0: bd9c 35bd a4df e03c e9bc ba3e 457f 1f3d
000002b0: d712 643e 4e1a 16be 2e76 65bd 4e00 cdbc
000002c0: bec5 32be 76e0 4f3b b204 5abe a1a7 21be
000002d0: b01e 3dbd 03d4 91be 008b 383e 9701 eb3d
000002e0: b55e d5bc 3710 95be c202 bfbd 5b57 35bd
000002f0: 3206 5939 093b 19be 9270 7c3d 8cac c93e
00000300: 7fa9 a73b 9232 b63e 6949 e038 51ff c6be
00000310: a5dc b43d 0661 3ebb 8c70 d1bc 6806 cd3d
00000320: f041 07be f35a d7bd caad f6bd 8e8c b43c
00000330: db6f 573d 4283 efbc 3190 8dbe ea26 e1bd
00000340: a882 acbd 4a10 7abd 836b 75bc 47a7 983d
00000350: 7d2a 77be 73f6 f6be 5458 903d 2206 6a3d
00000360: 7d97 633d d323 583e 8dcb 54be 9ae7 28be
00000370: 033b 2ebe f839 2bbd 1ff9 0d3e ac7d a93e
00000380: b610 82be 5e15 5dbe a633 07bd cd3a 89bd
00000390: 9fae 7a3d 4ec2 963d 9072 f8bd 79b9 4fbe
000003a0: 0767 333e 1679 613e 9032 00bd 31be 213e
000003b0: c66b c73e 19cb 8a3d d2ff bebe abfe 8b3e
000003c0: 3ba8 e2bc 5f0a 863e cc2a 8e3e 6484 0c3d
000003d0: 1dd4 52be fa6c 0d3e cbb4 f43e 2e2c 253e
000003e0: 6367 f0bd 6284 d1be 9047 1abe 3455 d0be
000003f0: cb1c 4d3d 0122 fabe 831b 97bd 86c5 003d
0.12749656 0.33702156 -0.11780038 0.113707215 -0.45802268 0.22116235 0.29667428 0.078153215
-0.2593916 -0.13538474 -0.4690879 -0.113701865 -0.06924139 0.32822117 -0.1270146 0.39117292
0.0693118 0.09641248 0.1576918 0.115580305 -0.16236046 0.118284345 -0.32949057 -0.07925491
-0.18553236 -0.46891904 -0.16957204 0.0987828 0.010503005 -0.20682496 0.025470994 0.1370322
0.14966047 -0.20234308 -0.29651576 0.03646847 -0.21510373 0.03016228 -0.034475714 -0.3778368
-0.25974256 0.17275396 0.35964465 0.30310148 -0.09583004 0.0032250893 -0.17433587 0.03811219
-0.20196591 0.010856675 0.070257775 -0.11015034 -0.015588714 -0.11900384 0.030162262 -0.011058361
0.017456552 -0.023404766 -0.36130637 -0.041298147 -0.009658359 0.1473088 0.06989858 0.067313656
-0.3503583 -0.0681018 0.058560755 -0.25093368 0.16758676 0.18384922 0.113061495 -0.009636086
-0.03882743 -0.24460055 -0.062548086 0.37187362 0.06885072 0.07075791 -0.0084578395 0.050088204
-0.09860309 -0.14693555 -0.10883119 -0.17507875 -0.35302708 0.028114794 0.18609087 -0.14871012
0.036412604 -0.17659393 0.023072602 0.02976269 -0.14593548 0.04970988 -0.16872044 0.066103786
-0.21419834 0.3881218 0.20984425 -0.01846118 0.30427343 0.22353773 0.17123733 0.14088096
0.3135755 0.2445108 -0.030616933 0.10834155 -0.42404565 0.06392911 0.074315906 0.0560747
0.043557744 -0.047452033 0.070442 0.4432572 -0.42175883 0.21570891 0.11208917 0.060400464
0.0383244 -0.0682514 0.044385716 0.4521932 0.07244026 -0.1039264 -0.10857961 -0.066783555
0.15853137 0.13673635 -0.104803614 0.1021525 -0.117650546 0.1426835 -0.25351092 -0.0062799053
0.023605168 0.047881495 -3.185436e-06 -0.051091455 0.113864236 -0.23805144 0.10223645 -0.28162727
-0.08648539 0.38844785 0.10580475 -0.40335944 -0.4246866 0.25848138 -0.11721521 -0.17534815
-0.20144449 0.3014286 -0.18715627 -0.3884426 -0.11658918 -0.050008513 -0.32001048 0.29247743
-0.0741576 0.03534097 0.06851988 -0.11125591 -0.27740523 -0.3150121 0.0002264502 0.12528956
-0.04433893 0.02745039 0.36472252 0.038939733 0.22272812 -0.14658472 -0.056020908 -0.02502456
-0.17458245 0.0031719483 -0.21290854 -0.15786602 -0.046171844 -0.28482065 0.18021774 0.114749126
-0.026046136 -0.29113933 -0.09326698 -0.04427276 0.0002069704 -0.14963926 0.061630793 0.39389455
0.005116641 0.35585457 0.00010694826 -0.38866666 0.08831147 -0.002904953 -0.025566362 0.100109875
-0.13208747 -0.10515394 -0.120448664 0.022039678 0.052596908 -0.029237393 -0.27649072 -0.109937504
-0.08423358 -0.06105069 -0.014979246 0.074537806 -0.24137302 -0.482349 0.07048097 0.057134755
0.055564392 0.21107416 -0.20780773 -0.16494599 -0.17014699 -0.04180333 0.13864563 0.33103693
-0.25403374 -0.21590182 -0.03300824 -0.067006685 0.061201688 0.073612794 -0.12131226 -0.20285596
0.1751977 0.22018847 -0.03129822 0.15795209 0.38949412 0.06777019 -0.3730455 0.27342734
-0.02766811 0.26179788 0.27767026 0.034305945 -0.20588727 0.13811103 0.47794184 0.16130134
-0.117384695 -0.40921313 -0.15066361 -0.40690005 0.050076287 -0.48854068 -0.07378294 0.031438373

predAlpha/Mod_B0_L7/batchnorm/sub f4 [14]
00000000: ed75 29bf 4c51 5cbf 21be fcbd b17b 15bf
00000010: e617 fdbe 23c9 64bf 3285 45bf 7824 aebe
00000020: db53 3cbe 2a99 afbe b4bf 2fbf bcaa c0be
00000030: 2c4a 82bf 8fe8 03bf
-0.66195565 -0.8606155 -0.12340952 -0.58391863 -0.49432296 -0.8936941 -0.77156365 -0.34012198
-0.18391363 -0.34296542 -0.6865189 -0.3763026 -1.0178885 -0.5152673

predAlpha/Mod_B0_L7/batchnorm/mul f4 [14]
00000000: 04c7 2740 7248 0840 5e2a 7340 9c23 fc3f
00000010: 9d6f 4d3f db71 1040 f401 2140 4bf2 4b40
00000020: 1141 5e3f 3f33 7240 c125 0440 749f 5440
00000030: a410 cd3f 9da4 4540
2.621522 2.1294217 3.799461 1.9698367 0.80248433 2.2569492 2.5157442 3.1866634
0.86818033 3.7843778 2.0648043 3.3222322 1.6020703 3.0881722

predAlpha/Mod_B0_L3/batchnorm/sub f4 [28]
00000000: 9971 12bf 308c 533d 8802 31bf d8c1 0fbe
00000010: d46e c9bf 10a4 9fbc 65eb c0be f629 d6be
00000020: fc9a f6be 5b53 13bd 10be 0ebe 0a53 08bf
00000030: 263a efbe 3320 aebf aeda fabf 53a3 e5bd
00000040: 2a44 cabe b73d 87bf 839c dfbe 3a24 0ebf
00000050: 3c20 bebd a84f 0abf f947 c2bd b460 a3be
00000060: 6cff 1cbf ec6d 78bf a613 9cbc aa13 2fbe
-0.57204586 0.051647365 -0.6914449 -0.1403879 -1.5736947 -0.01948741 -0.37679592 -0.4182889
-0.4816512 -0.035968166 -0.1393969 -0.5325171 -0.4672405 -1.3603576 -1.9597986 -0.11212792
-0.3950513 -1.0565709 -0.43674096 -0.5552403 -0.09283492 -0.54027796 -0.09486384 -0.31909716
-0.6132724 -0.9704273 -0.019052338 -0.17097345

predAlpha/Mod_B0_L3/batchnorm/mul f4 [28]
00000000: 89b1 2a3f f218 6040 a027 333f 9788 0540
00000010: dd71 803f a26d 3440 8e93 a43f e8d6 cd3f
00000020: 29ca c43f 5c38 3140 5624 2540 93fc e73e
00000030: fdab b83f 8a4d 9a3f 2c4c 0d40 b497 f73f
00000040: 19d8 4940 a448 1740 a54b 0940 f08b c63f
00000050: 09cf 5c40 bd00 723f d187 3840 c275 4540
00000060: 5f62 f13f 1ef1 0640 e3f7 6040 8e80 1d40
0.6667715 3.5015225 0.6998234 2.0864618 1.0034748 2.8191915 1.285753 1.6081209
1.5374194 2.769065 2.5803428 0.45309886 1.4427487 1.2054913 2.2077742 1.9343171
3.1538146 2.3638086 2.145242 1.5511456 3.4501364 0.94532377 2.8832896 3.0853124
1.8858145 2.1084666 3.5151298 2.4609714

predAlpha/Mod_B1_L0/BiasAdd/ReadVariableOp f4 [32]
00000000: 045d c73d de51 d43c e2b4 7ebd a739 183e
00000010: 8514 0ebd 45dd ac3d 01b8 b83d 1280 8b3d
00000020: 9208 db3d c9e8 173d 80a0 8d3d 63b5 60bd
00000030: 6445 cf3d d73e e63d 53cb 8bbd 75b4 943d
00000040: 1b9c 413d 0368 953d d362 553d 6a2b 363e
00000050: 8780 9b3d 1f44 973d 9ff6 983d b61e cb3c
00000060: b3b3 79bd 1ccc b73d 2c0c b63d e1ca 593d
00000070: 1da0 613d 2c3a af3b f928 e43c 576d 4bbd
0.09734538 0.025917944 -0.062184222 0.14865743 -0.034687538 0.08440641 0.09019471 0.06811537
0.10694994 0.037087236 0.069153786 -0.054860484 0.10120657 0.112424545 -0.068258904 0.07260982
0.047268014 0.07295229 0.0520962 0.17789999 0.07592874 0.0738604 0.07468914 0.024794918
-0.06096239 0.08974478 0.0888904 0.053171996 0.055084337 0.005347511 0.027851569 -0.04966482

predAlpha/Mod_B0_L5/BiasAdd/ReadVariableOp f4 [14]
00000000: e9d0 3b3d 1f05 793c e087 e6bc c3b4 39bd
00000010: 5e8d 78bc b4d3 bd3b 439a 86bd a0bf 79bd
00000020: 0ff6 be3c 087d 87bd df02 6ebc 8e3c 1ebd
00000030: 70aa d83c 0d54 f8bc
0.04585353 0.015198975 -0.028140962 -0.045338403 -0.015170423 0.0057930592 -0.06572392 -0.060973763
0.02331069 -0.06615645 -0.014527052 -0.03863197 0.026448458 -0.030313516

predAlpha/Mod_B0_L1/BiasAdd/ReadVariableOp f4 [28]
00000000: 7a04 a03c b299 2dbb 36ce aebb aa2a 703c
00000010: f3cc 80bd 865f dabc c8ac b0bc 9d30 313c
00000020: bfe8 c73b 8c4d 0bbb d232 193b b8fa b0bc
00000030: 6f26 4e3c 8da1 a6bc 8dcd 4a3c d837 763b
00000040: f0b7 a7bc e501 94bd e52f a53c 0abd 42bc
00000050: 7b32 3dbd ec9c 9f3c 16a3 543c 2916 abbd
00000060: 7aec ec3c 3462 ec3c b29f babb 91ee 46bc
0.019533385 -0.0026489315 -0.005334641 0.014658609 -0.06289091 -0.026656877 -0.021566764 0.010814813
0.0061007435 -0.0021255938 0.0023376239 -0.021603927 0.0125824055 -0.020340705 0.012378109 0.0037569907
-0.02047345 -0.07226924 0.02016444 -0.011885891 -0.04619072 0.019484006 0.012978336 -0.08353836
0.028921355 0.02885542 -0.0056953067 -0.01214184

predAlpha/Mod_B0_L1/Tensordot/MatMul1 i1 [28, 57] scale=0.003055995 zero_point=0
00000000: 5e1e ede6 21ab 9d08 160a f509 5213 07e2
00000010: 11ee f974 3b0d ef18 c622 e6eb 12f9 0db5
00000020: f4cc eef2 a813 f1ef 11e4 0e0e 27bc f60d
00000030: ff0c eaa2 4800 e9b6 d013 f418 dbde c419
00000040: 0c17 0630 e038 1b1a 34a5 53a9 b9e5 d2b0
00000050: 0144 cdfd 9648 25cf e335 34c1 1313 090b
00000060: 04e2 1ecb dd35 f2c2 e217 dd02 d737 c116
00000070: ec62 f7c0 1d11 49d3 91f3 182f 1418 9dd9
00000080: d6f7 db18 3001 3926 3cce cd65 d908 e3da
00000090: e93b 08b1 2c24 a9ba 26bd b2b9 ccda eb65
000000a0: 0b61 edeb 02c5 e35b 5146 df00 18ea e900
000000b0: d3d9 18da dfd2 00d0 e02d 0ad2 07d5 f01a
000000c0: 0001 0000 0000 0908 15fe 000e 00da 0400
000000d0: 0000 0000 00bd c100 1afe fb18 01ff d509
000000e0: ee00 dc2a c63e 5514 aaca 60d9 26f5 01f5
000000f0: cfc4 f727 002d dd12 e6e8 3116 cf21 1a3d
0.28726354 0.091679856 -0.058063906 -0.079455875 0.10084784 -0.25975958 -0.30254352 0.02444796
0.06723189 0.030559951 -0.033615947 0.027503956 0.2505916 0.058063906 0.021391965 -0.091679856
0.051951915 -0.055007912 -0.021391965 0.35449544 0.18030371 0.039727937 -0.051951915 0.07334388
-0.17724772 0.10390383 -0.079455875 -0.0641759 0.055007912 -0.021391965 0.039727937 -0.22919963
-0.03667194 -0.15891175 -0.055007912 -0.04278393 -0.26892757 0.058063906 -0.045839928 -0.051951915
0.051951915 -0.08556786 0.04278393 0.04278393 0.11918381 -0.20780766 -0.030559951 0.039727937
-0.003055995 0.03667194 -0.06723189 -0.28726354 0.22003165 0.0 -0.07028789 -0.22614364
-0.14668776 0.058063906 -0.03667194 0.07334388 -0.11307182 -0.10390383 -0.18335971 0.07639988
0.03667194 0.07028789 0.01833597 0.14668776 -0.09779184 0.17113572 0.082511865 0.079455875
0.15891175 -0.27809554 0.2536476 -0.26587158 -0.21697566 -0.082511865 -0.14057578 -0.24447961
0.003055995 0.20780766 -0.15585575 -0.009167985 -0.32393548 0.22003165 0.11307182 -0.14974377
-0.08862386 0.16196774 0.15891175 -0.1925277 0.058063906 0.058063906 0.027503956 0.033615947
0.01222398 -0.091679856 0.091679856 -0.16196774 -0.10695983 0.16196774 -0.04278393 -0.18947169
-0.091679856 0.07028789 -0.10695983 0.00611199 -0.1252958 0.16807973 -0.1925277 0.06723189
-0.061119903 0.29948753 -0.027503956 -0.19558369 0.08862386 0.051951915 0.22308764 -0.13751978
-0.33921546 -0.039727937 0.07334388 0.14363177 0.061119903 0.07334388 -0.30254352 -0.11918381
-0.1283518 -0.027503956 -0.11307182 0.07334388 0.14668776 0.003055995 0.17419171 0.11612781
0.18335971 -0.15279976 -0.15585575 0.3086555 -0.11918381 0.02444796 -0.08862386 -0.11612781
-0.07028789 0.18030371 0.02444796 -0.2414236 0.13446379 0.110015824 -0.26587158 -0.21391965
0.11612781 -0.20475167 -0.23836762 -0.21697566 -0.15891175 -0.11612781 -0.0641759 0.3086555
0.033615947 0.2964315 -0.058063906 -0.0641759 0.00611199 -0.18030371 -0.08862386 0.27809554
0.2475356 0.21391965 -0.10084784 0.0 0.07334388 -0.06723189 -0.07028789 0.0
-0.13751978 -0.11918381 0.07334388 -0.11612781 -0.10084784 -0.14057578 0.0 -0.14668776
-0.09779184 0.13751978 0.030559951 -0.14057578 0.021391965 -0.13140778 -0.04889592 0.079455875
0.0 0.003055995 0.0 0.0 0.0 0.0 0.027503956 0.02444796
0.0641759 -0.00611199 0.0 0.04278393 0.0 -0.11612781 0.01222398 0.0
0.0 0.0 0.0 0.0 0.0 -0.20475167 -0.1925277 0.0
0.079455875 -0.00611199 -0.015279976 0.07334388 0.003055995 -0.003055995 -0.13140778 0.027503956
-0.055007912 0.0 -0.110015824 0.1283518 -0.17724772 0.18947169 0.25975958 0.061119903
-0.26281556 -0.16502373 0.29337552 -0.11918381 0.11612781 -0.033615947 0.003055995 -0.033615947
-0.14974377 -0.18335971 -0.027503956 0.11918381 0.0 0.13751978 -0.10695983 0.055007912
-0.079455875 -0.07334388 0.14974377 0.06723189 -0.14974377 0.10084784 0.079455875 0.1864157
