Project/Models/Alphabets/K.tflite (tflite, 15504 bytes, 11 tensors)

predAlpha/Mod_B3_Lo/MatMul f4 [1, 32]
0.20615648 -0.42702058 0.012354611 -0.10228517 0.23680499 -0.5278014 -0.28603524 0.46582463
0.17406403 -0.056204148 0.2067975 -0.18600187 -0.24018744 -0.2014581 -0.31218356 -0.009952754
-0.14354372 -0.31089684 0.3284212 0.54074925 -0.48148763 -0.28700283 -0.023405999 -0.20634042
0.122164376 0.24217734 -0.094560154 0.022580685 0.5939574 -0.10434705 -0.34609342 0.48545632
00000000: af1a 533e 71a2 dabe ff6a 4a3c e37a d1bd
00000010: 027d 723e fe1d 07bf 3673 92be 9180 ee3e
00000020: d73d 323e 5236 66bd b9c2 533e 4677 3ebe
00000030: b2f3 75be 084b 4ebe 86d6 9fbe e010 23bc
00000040: 20fd 12be df2d 9fbe d326 a83e 8b6e 0a3f
00000050: 8c85 f6be 09f2 92be f0bd bfbc e74a 53be
00000060: 5131 fa3d 56fd 773e c1a8 c1bd 21fb b83c
00000070: 980d 183f e8b3 d5bd 2833 b1be bb8d f83e

predAlpha/Mod_B1_L0/MatMul f4 [32, 28]
0.07382833 -0.054520596 0.27613375 -0.33430716 0.085492246 -0.12929274 0.13778841 -0.22451645
-0.16510496 -0.09151698 0.15616527 -0.18017231 -0.2787802 -0.20450786 -0.1967271 -0.22121316
0.09760664 0.14417255 0.0067862007 0.24206433 -0.003336415 0.299326 -0.32233873 0.29317954
-0.32912818 -0.057915423 -0.084685 0.17874826 0.43904752 0.20201322 -0.19466767 -0.039295956
0.28099966 0.038949467 0.10282224 0.038863268 -0.36250654 -0.21419963 -0.18660732 0.21284786
0.21616052 -0.3747878 -0.37601605 0.40888155 0.050296407 -0.41195944 0.20302884 0.29630724
0.41393238 -0.14284268 0.19476236 0.13330516 -0.055991966 -0.032323886 0.092719026 -0.4675695
0.14049272 -0.33913583 -0.03933346 -0.027227584 -0.13036536 0.09066708 0.022773538 0.14916316
-0.033225756 -0.1297665 0.091103315 -0.04450751 0.159276 -0.07966057 -0.20824163 0.24565719
0.10705208 0.32129374 0.0024707129 -0.079620935 -0.08181486 -0.019325996 -0.04405104 0.15090379
0.1336485 0.09812504 -0.000104168495 0.06706917 -0.42523387 0.089984134 -0.2452135 -0.05591889
-0.13709609 0.11635027 0.31755576 -0.39757988 -0.11237495 0.30434108 -0.06877706 0.0029867839
0.24826151 0.03584636 0.035776373 0.35997686 -0.5342384 -0.19132897 0.024322968 0.08545491
0.20552507 -0.10741374 -0.033027045 -0.09012077 0.32074994 -0.17623603 -0.16491155 0.18022212
-0.06607088 0.030827204 0.104794554 0.09632426 0.026689565 -0.39925647 0.015539616 -0.2262507
-0.007007361 0.17710592 0.009012333 0.0493659 -0.043115165 -0.21808934 0.028486382 -0.06949246
0.18150833 -0.21133208 -0.02998632 -0.1348372 0.25271544 0.13681819 -0.10283407 -0.13023764
-0.3176676 -0.30715826 0.008439682 0.4519356 -0.15507303 -0.29476917 -0.030845575 -0.28766295
0.3931061 0.14964715 0.08858155 0.16879301 -0.10874566 -0.28753927 -0.12914562 0.20519024
-0.19074105 0.075819716 0.31024638 -0.31996444 0.3536091 -0.38818836 0.05656695 -0.20132023
-0.14159413 -0.043364886 0.4532824 -0.17161208 0.107815154 0.38344535 0.24810421 -0.121343754
-0.31980985 -0.10716806 -0.18362375 -0.1355804 -0.40601787 0.3238112 0.19940689 -0.39640516
-0.18432301 0.15833881 0.08636556 -0.114172205 0.24343783 0.16233304 0.082952775 0.32493302
-0.07315153 -0.17265815 0.31934616 -0.1077367 0.2518819 -0.027485443 -0.15975162 0.056466084
0.3775912 -0.25962195 -0.24453644 -0.5003533 0.020258553 -0.13367169 0.19219372 -0.107382014
0.12721473 -0.2497148 -0.0292665 -0.17432004 -0.30917722 -0.29104894 0.16705766 -0.21778157
-0.15977982 -0.006388956 0.23598553 0.2762482 0.1235564 0.11355609 0.03362218 0.10331229
-0.072902225 0.098406225 0.072777696 0.25533998 0.058984123 -0.046090946 -0.09861105 0.20115113
0.04967085 -0.08909155 0.023400728 -0.41630918 -0.26518384 -0.06671149 0.046343356 -0.09216477
-0.13267009 -0.15343322 0.011794754 -0.144651 0.0681496 0.28087956 0.112877995 -0.084739566
0.19789219 0.5385628 -0.13320018 0.2368435 -0.1281576 0.029258722 -0.0030121603 0.11140507
-0.17903729 0.1487154 -0.31084096 0.31215706 0.0059440294 -0.20454012 -0.08875874 -0.20920606
00000000: 4f33 973d fd50 5fbd 6761 8d3e 4f2a abbe
00000010: 8f16 af3d 5165 04be 6818 0d3e a4e7 65be
00000020: 4611 29be 416d bbbd cae9 1f3e 177f 38be
00000030: 47bc 8ebe 826a 51be d472 49be b485 62be
00000040: fde5 c73d f8a1 133e c75e de3b b6df 773e
00000050: c1a7 5abb 4241 993e 9509 a5be a11b 963e
00000060: 7d83 a8be b938 6dbd 546f adbd c909 373e
00000070: d6ca e03e 8edc 4e3e f656 47be ccf4 20bd
00000080: 30df 8f3e 7a89 1f3d 7794 d23d 172f 1f3d
00000090: 759a b9be 2657 5bbe fd15 3fbe caf4 593e
000000a0: 2f59 5d3e 30e4 bfbe 2d85 c0be ec58 d13e
000000b0: 9b03 4e3d 59ec d2be cbe6 4f3e 95b5 973e
000000c0: f2ee d33e 5a45 12be c96f 473e 2681 083e
000000d0: d557 65bd 0d66 04bd 79e3 bd3d 4565 efbe
000000e0: 53dd 0f3e 36a3 adbe 1f1c 21bd 620c dfbc
000000f0: 7f7e 05be a9af b93d 928f ba3c 3abe 183e
00000100: bb17 08bd 82e1 04be 6094 ba3d 824d 36bd
00000110: 3f19 233e 1525 a3bd 4b3d 55be 8f8d 7b3e
00000120: 1f3e db3d 9d80 a43e afeb 213b 4d10 a3bd
00000130: 8d8e a7bd 8d51 9ebc dd6e 34bd 8686 1a3e
00000140: 27db 083e c8f5 c83d 0975 dab8 905b 893d
00000150: 41b8 d9be 9a49 b83d 3f19 7bbe 350b 65bd
00000160: eb62 0cbe 0d49 ee3d ab96 a23e 978f cbbe
00000170: d624 e6bd 98d2 9b3e fdda 8cbd ebbd 433b
00000180: 4438 7e3e a2d3 123d 3f8a 123d e34e b83e
00000190: d9c3 08bf beeb 43be f640 c73c fc02 af3d
000001a0: 2a75 523e bcfb dbbd 5e47 07bd 3d91 b8bd
000001b0: 5639 a43e 3877 34be 93de 28be 268c 383e
000001c0: 2b50 87bd 5589 fc3c 879e d63d a745 c53d
000001d0: 13a4 da3c 586b ccbe e099 7e3c 43ae 67be
000001e0: 019e e5bb 415b 353e 77a8 133c e633 4a3d
000001f0: 8799 30bd d052 5fbe 465c e93c 1052 8ebd
00000200: 52dd 393e 7067 58be dfa5 f5bc c312 0abe
00000210: eb63 813e 111a 0c3e ab9a d2bd 045d 05be
00000220: 54a5 a2be d943 9dbe 9846 0a3c 1a64 e73e
00000230: 77cb 1ebe fceb 96be dcaf fcbc 8f48 93be
00000240: 3445 c93e 1a3d 193e 3e6a b53d 13d8 2c3e
00000250: 0bb6 debd 5938 93be c03e 04be 641d 523e
00000260: 9f51 43be 5e47 9b3d 9dd8 9e3e 61d2 a3be
00000270: 410c b53e a0c0 c6be bfb2 673d e426 4ebe
00000280: 0dfe 10be 619f 31bd a114 e83e 14bb 2fbe
00000290: 31ce dc3d f352 c43e 080f 7e3e 1383 f8bd
000002a0: 1ebe a3be ee7a dbbd dd07 3cbe 97d5 0abe
000002b0: 93e1 cfbe 95ca a53e 5231 4c3e 9ef5 cabe
000002c0: 2cbf 3cbe 9223 223e 6de0 b03d 1ed3 e9bd
000002d0: c447 793e a23a 263e 25e3 a93d 9f5d a63e
000002e0: 78d0 95bd 4ccd 30be 5781 a33e 0fa5 dcbd
000002f0: aaf6 803e 2729 e1bc ee95 23be fb48 673d
00000300: a253 c13e 2bed 84be c367 7abe 2717 00bf
00000310: 44f5 a53c 3be1 08be 6ece 443e 1aeb dbbd
00000320: 9444 023e 3db5 7fbe 4dc0 efbc f480 32be
00000330: 7a4c 9ebe 5e04 95be 2a11 2b3e 2202 5fbe
00000340: 529d 23be 735a d1bb 31a6 713e 6770 8d3e
00000350: 230b fd3d 1890 e83d 69b7 093d 6595 d33d
00000360: c34d 95bd 3489 c93d 790c 953d ecbb 823e
00000370: 5699 713d dcc9 3cbd 97f4 c9bd 90fa 4d3e
00000380: a973 4b3d a175 b6bd e2b2 bf3c 7a26 d5be
00000390: 2dc6 87be 09a0 88bd 88d2 3d3d e2c0 bcbd
000003a0: abda 07be 991d 1dbe c93e 413c 641f 14be
000003b0: 0492 8b3d 72cf 8f3e 942c e73d f08b adbd
000003c0: 40a4 4a3e 40df 093f a165 08be 1a87 723e
000003d0: bf3b 03be fdaf ef3c aa67 45bb 5728 e43d
000003e0: 8d55 37be da48 183e 8c26 9fbe 0dd3 9f3e
000003f0: 22c6 c23b f772 51be 24c7 b5bd 1d3a 56be

predAlpha/Mod_B0_L5/Tensordot/MatMul f4 [14, 28]
-0.0896662 -0.30506414 0.08979618 0.16785075 -0.056278013 -0.2658184 -0.09877341 0.09493564
0.06533208 0.21511088 -0.19798248 -0.08276201 -0.047412332 0.3478804 -0.16238436 0.2651632
-0.0030571807 0.18483442 -0.23139906 0.20708193 -0.16650765 0.28202564 0.18400595 -0.09465929
-0.27920157 -0.14709617 -0.24726671 0.1895409 -0.12536778 -0.27685267 -0.041987184 0.26164547
-0.0044349628 -0.41043583 0.03802257 0.0074657695 -0.008764312 0.027461454 -0.008118132 -0.11067567
0.011939569 0.26280493 -0.17432223 -0.26170596 -0.24370572 -0.23357165 0.14604683 0.01726525
0.10571991 -0.12906632 0.012802528 0.11922122 0.23849429 -0.14481458 0.23064612 -0.0085452525
-0.033794515 -0.2189863 0.076295495 -0.062698364 -0.049286935 -0.068401024 -0.0720464 -0.02655833
-0.4153253 0.010418056 -0.30125606 -0.21892332 0.13394108 0.27577704 -0.17293964 0.19629614
-0.022891695 -0.09680998 -0.18736742 0.29833993 0.17936835 0.35216758 0.14831689 0.07257565
-0.2413721 0.022573054 0.03008091 0.39429325 0.053419683 -0.42264315 0.18402618 0.20823716
-0.07434549 -0.11763946 -0.1357252 0.24912357 0.12942027 0.30875754 0.008242558 -0.21251258
-0.30827448 0.06399629 -0.006353109 -0.08120136 0.3327216 -0.059443396 0.07939342 -0.11413678
-0.36810026 -0.072523 0.10552899 0.047389433 -0.32234028 -0.100169525 0.02413856 0.15404832
-0.10455589 0.30850655 -0.20522453 -0.13848549 0.0014787654 0.23725264 -0.06518063 -0.03456696
-0.3961127 0.13995476 -0.16015768 0.17659396 0.04974139 -0.18791121 -0.2742338 -0.101455316
-0.30840126 -0.18464394 -0.31668833 -0.29702926 0.2052922 0.14651549 0.2570903 -0.4587782
-0.19897336 -0.4661094 0.31427258 0.020061482 0.1989008 -0.21811949 0.18804745 -0.19534796
-0.08052134 -0.12248448 0.023242922 -0.019448264 0.09837792 -0.14683108 -0.49841604 -0.13364783
-0.3459515 -0.09041658 -0.0035117231 0.29511395 0.22403958 0.06353007 0.26568857 0.16793811
0.34691417 -0.23750284 0.11660851 0.12082673 -0.079899415 0.0041914517 -0.38737297 -0.30364338
-0.14671709 -0.2590784 -4.837766e-07 -0.09762295 4.3105567e-05 0.079286546 -0.0034492 -0.26660255
0.1574032 -0.05976406 0.12960519 -0.03541001 0.42727828 0.0622388 -0.015230416 0.16956009
-0.11242505 0.15574978 0.16437973 -0.103877865 -0.06734965 0.023778036 0.10033867 0.40237883
0.041242488 0.041048624 0.14551558 -0.047003835 0.084341735 -0.081343055 0.07761119 -0.10747714
-9.347265e-05 0.12779978 0.36779547 0.32456058 -0.23903668 -0.05657873 -0.37999025 0.18108132
-0.108808294 0.115431845 -0.31979522 0.005245694 0.248428 0.122831374 -0.15522844 0.0881961
0.072673745 0.19607112 -0.40328264 -0.3525914 0.27762344 -0.07506805 0.28197283 0.11690876
-0.095302 0.07563069 -0.0004798786 -0.31700164 -0.0843722 0.002864481 0.19859836 0.24924509
-0.47668076 0.057654615 -0.08322699 0.06284608 0.1426341 -0.5291403 0.49998933 0.15021363
0.06274288 -0.12598285 -0.032950796 0.05847884 -0.25540942 -0.101965964 -0.35040948 -0.24158189
0.39931932 -0.18484792 -0.067225434 0.2900865 0.3139296 -0.17062406 0.1707398 0.061081465
00000000: eaa2 b7bd 5e31 9cbe 0fe7 b73d 11e1 2b3e
00000010: c683 66bd 5919 88be b749 cabd 9e6d c23d
00000020: d3cc 853d 0746 5c3e ebbb 4abe 217f a9bd
00000030: 6f33 42bd 611d b23e 1648 26be 79c3 873e
00000040: fb5a 48bb 3c45 3d3e e0f3 6cbe 490d 543e
00000050: fb80 2abe aa65 903e 0e6c 3c3e bbdc c1bd
00000060: 82f3 8ebe 61a0 16be 7c33 7dbe 0217 423e
00000070: 6960 00be a2bf 8dbe c1fa 2bbd 65f6 853e
00000080: 2a53 91bb a524 d2be 8ebd 1b3d 6aa3 f43b
00000090: 3098 0fbc d8f6 e03c ea01 05bc eda9 e2bd
000000a0: 2f9e 433c 5e8e 863e 8781 32be 53fe 85be
000000b0: fe8d 79be 682d 6fbe 4d8d 153e db6f 8d3c
000000c0: ae83 d83d f629 04be b2c1 513c 412a f43d
000000d0: d937 743e 464a 14be 7f2e 6c3e 6301 0cbc
000000e0: 1e6c 0abd f23d 60be d040 9c3d 0068 80bd
000000f0: 19e1 49bd d615 8cbd 108d 93bd db90 d9bc
00000100: 85a5 d4be 7eb0 2a3c 3c3e 9abe 6f2d 60be
00000110: da27 093e a632 8d3e 1717 31be db01 493e
00000120: 5d87 bbbc 5044 c6bd 3fdd 3fbe 03c0 983e
00000130: 56ac 373e 4f4f b43e 62e0 173e 8ba2 943d
00000140: 3f2a 77be 20eb b83c 3e6c f63c cee0 c93e
00000150: 99ce 5a3d af64 d8be 5c71 3c3e 1f3c 553e
00000160: 7342 98bd f5ec f0bd 8cfb 0abe 401a 7f3e
00000170: bf86 043e 7815 9e3e cb0b 073c e69c 59be
00000180: 27d6 9dbe 7d10 833d be2d d0bb e64c a6bd
00000190: 7c5a aa3e eb7a 73bd 0499 a23d 8bc0 e9bd
000001a0: a377 bcbe f086 94bd 951f d83d 6c1b 423d
000001b0: c909 a5be ae25 cdbd 3bbe c53c d8be 1d3e
000001c0: 6621 d6bd 92f4 9d3e 6126 52be 24cf 0dbe
000001d0: 22d3 c13a 5bf2 723e 6c7d 85bd 1696 0dbd
000001e0: 49cf cabe 4d50 0f3e 6000 24be 0cd5 343e
000001f0: a1bd 4b3d cc6b 40be 5f68 8cbe cec7 cfbd
00000200: c5e6 9dbe 4d13 3dbe f924 a2be 3814 98be
00000210: 1e38 523e 2808 163e 57a1 833e fae4 eabe
00000220: acbf 4bbe e4a5 eebe 56e8 a03e fa57 a43c
00000230: a7ac 4b3e b75a 5fbe 838f 403e 4c09 48be
00000240: 5fe8 a4bd 25d9 fabd f167 be3c f751 9fbc
00000250: 5d7a c93d e35a 16be 6330 ffbe fada 08be
00000260: 8e20 b1be 542c b9bd f024 66bb 2d19 973e
00000270: a26a 653e 0e1c 823d 5508 883e f8f7 2b3e
00000280: bc9e b13e f233 73be 71d0 ee3d 0174 f73d
00000290: 4ea2 a3bd 7258 893b c055 c6be 2577 9bbe
000002a0: 013d 16be eda5 84be e0dc 01b5 8bee c7bd
000002b0: 40cc 3438 fc60 a23d f90b 62bb 2180 88be
000002c0: 4e2e 213e 29cb 74bd 39b7 043e 160a 11bd
000002d0: 38c4 da3e 1dee 7e3d ff88 79bc 29a1 2d3e
000002e0: 1b3f e6bd df7c 1f3e 2953 283e ebbd d4bd
000002f0: 9dee 89bd 28ca c23c 5c7e cd3d 9904 ce3e
00000300: e2ed 283d 9a22 283d 0902 153e 1887 40bd
00000310: 5cbb ac3d 3097 a6bd 9ef2 9e3d fa1c dcbd
00000320: bf06 c4b8 f2dd 023e b04f bc3e ce2c a63e
00000330: 08c6 74be 19bf 67bd 158e c2be 626d 393e
00000340: e2d6 debd 8867 ec3d 33bc a3be 12e4 ab3b
00000350: e963 7e3e 048f fb3d 34f4 1ebe 28a0 b43d
00000360: f9d5 943d dec6 483e 107b cebe dc86 b4be
00000370: a924 8e3e 47bd 99bd be5e 903e dc6d ef3d
00000380: b22d c3bd 43e4 9a3d 3798 fbb9 0a4e a2be
00000390: 55cb acbd 04ba 3b3b 5e5d 4b3e 1b3a 7f3e
000003a0: 800f f4be 3f27 6c3d ea72 aabd 72b5 803d
000003b0: ac0e 123e bd75 07bf 9afe ff3e 9ad1 193e
000003c0: 577f 803d a601 01be 6af7 06bd 8287 6f3d
000003d0: 06c5 82be 88d3 d0bd df68 b3be 3e61 77be
000003e0: 9573 cc3e c648 3dbe 7dad 89bd 3886 943e
000003f0: 61bb a03e 13b8 2ebe 6ad6 2e3e 8f30 7a3d

predAlpha/Mod_B0_L7/batchnorm/sub f4 [14]
-1.2400888 -0.8762169 -1.1361997 -0.99244 -0.77340734 -0.3278539 -0.41123685 -0.67975384
-0.9555911 -0.3172269 -0.9127096 -0.69778913 -0.64244276 -0.47642094
00000000: 3bbb 9ebf c04f 60bf fe6e 91bf 8c10 7ebf
00000010: 06fe 45bf 77dc a7be a38d d2be 5904 2ebf
00000020: 9ea1 74bf 906b a2be 56a7 69bf 4fa2 32bf
00000030: 2177 24bf 72ed f3be

predAlpha/Mod_B0_L7/batchnorm/mul f4 [14]
2.6900826 3.2822344 4.5352025 4.886446 3.0763667 1.8060864 0.97343135 1.1767291
1.6124375 5.9447017 2.5544019 2.5870993 4.2430305 6.371803
00000000: 502a 2c40 2110 5240 6120 9140 c45d 9c40
00000010: 31e3 4440 d72d e73f cc32 793f 0f9f 963f
00000020: 5a64 ce3f ff3a be40 527b 2340 0993 2540
00000030: e8c6 8740 cfe5 cb40

predAlpha/Mod_B0_L3/batchnorm/sub f4 [28]
-0.601811 -0.7206527 -0.08476488 -0.17439309 0.033408314 -0.07839674 -0.20893285 -0.61974514
-0.9256567 -0.4367797 -0.7374855 -0.36504117 -0.6052455 -2.457177 -0.07495905 -0.28643212
-1.1403381 -0.43857345 -0.51579696 -0.087312125 -0.5961135 -1.085655 -0.056936547 -0.48440775
-1.4231257 -0.14562698 -0.5281044 -0.69857335
00000000: 4910 1abf b27c 38bf 3699 adbd 1a94 32be
00000010: 28d7 083d 788e a0bd 7ef2 55be 9ea7 1ebf
00000020: d6f7 6cbf 97a1 dfbe dacb 3cbf ade6 babe
00000030: 5ef1 1abf 6342 1dc0 2184 99bd 3ba7 92be
00000040: 99f6 91bf b38c e0be 450b 04bf b3d0 b2bd
00000050: e59a 18bf bef6 8abf 4c36 69bd 4b04 f8be
00000060: fc28 b6bf 3d1f 15be da31 07bf b4d5 32bf

predAlpha/Mod_B0_L3/batchnorm/mul f4 [28]
1.471004 3.9373515 7.877445 3.7404273 7.969519 7.521585 3.7347906 4.525205
5.5142694 4.9677377 0.9822184 3.7975135 1.8477263 3.5842414 6.5731454 2.083886
1.9655023 0.67030424 0.67685276 7.835873 1.7249949 2.831319 5.9901137 0.7164998
1.7258135 3.544563 0.88564676 5.276669
00000000: dc49 bc3f 91fd 7b40 0814 fc40 2963 6f40
00000010: 4d06 ff40 d3b0 f040 cf06 6f40 7bce 9040
00000020: e574 b040 b5f7 9e40 aa72 7b3f 760a 7340
00000030: 4c82 ec3f 3664 6540 3557 d240 635e 0540
00000040: 9495 fb3f 0f99 2b3f 3946 2d3f 79bf fa40
00000050: a2cc dc3f 5534 3540 03af bf40 886c 373f
00000060: 75e7 dc3f 1fda 6240 bfb9 623f 79da a840

predAlpha/Mod_B1_L0/BiasAdd/ReadVariableOp f4 [32]
-0.0022177813 0.11581841 -0.03582414 0.14604178 -0.037307862 0.09648545 0.12347458 -0.027039777
0.023662511 0.09540397 -0.005239502 0.072476976 0.10731944 0.08680642 0.11222617 -0.022319023
0.1744728 0.08934076 -0.062063977 -0.010809451 0.09478894 0.11433538 -0.036180265 0.1241247
-0.003920055 0.014561982 0.20507146 -0.028179418 -0.0025748576 0.14030157 0.0986529 -0.032653306
00000000: 3258 11bb 3432 ed3d 55bc 12bd fa8b 153e
00000010: 21d0 18bd 2a9a c53d 3ee0 fc3d 8682 ddbc
00000020: e2d7 c13c 2863 c33d 21b0 abbb cf6e 943d
00000030: 4bca db3d 90c7 b13d d6d6 e53d 62d6 b6bc
00000040: ffa8 323e 4af8 b63d cc36 7ebd 201a 31bc
00000050: b420 c23d ab28 ea3d c231 14bd 1735 fe3d
00000060: ce73 80bb 6195 6e3c 41fe 513e 86d8 e6bc
00000070: f1be 28bb 37ab 0f3e 880a ca3d 79bf 05bd

predAlpha/Mod_B0_L5/BiasAdd/ReadVariableOp f4 [14]
-0.03791475 0.0059610857 -0.07678773 0.013783976 0.032192048 0.0749361 -0.075888164 0.026451137
0.029807303 -0.09245222 0.04071696 0.0018183306 -0.030046131 -0.05096828
00000000: 7f4c 1bbd 3655 c33b e342 9dbd 30d6 613c
00000010: cfdb 033d 1978 993d 416b 9bbd 0eb0 d83c
00000020: 722e f43c 9757 bdbd d4c6 263d 0d55 ee3a
00000030: 4e23 f6bc 1dc4 50bd

predAlpha/Mod_B0_L1/BiasAdd/ReadVariableOp f4 [28]
-0.0020814263 -0.049430806 -0.019602465 0.0156386 -0.007626021 -0.027403528 0.020770796 0.009025788
-0.005008688 0.013666271 0.0074843494 -0.04638143 -0.027048457 -0.002561359 -0.00927313 0.037318476
0.024270445 0.005588735 0.01246225 -0.039846767 0.02692902 0.020583728 -0.009287093 0.011834205
0.06386171 0.027528383 0.03286213 0.0059100874
00000000: 8a68 08bb f577 4abd 5995 a0bc 851c 803c
00000010: b3e3 f9bb 5d7d e0bc 8427 aa3c e6e0 133c
00000020: ec1f a4bb 7fe8 5f3c 463f f53b 74fa 3dbd
00000030: ba94 ddbc 79dc 27bb 54ee 17bc 42db 183d
00000040: d0d2 c63c b521 b73b 772e 4c3c 5d36 23bd
00000050: 409a dc3c 359f a83c e428 18bc 41e4 413c
00000060: eec9 823d 3483 e13c 719a 063d 68a9 c13b

predAlpha/Mod_B0_L1/Tensordot/MatMul1 i1 [28, 57] scale=0.003302205 zero_point=0
0.099066146 -0.18822567 0.056137484 0.23445655 0.056137484 -0.08915953 0.20473671 0.02641764
0.16511025 -0.092461735 -0.0660441 -0.092461735 0.029719844 -0.11887938 0.07264851 0.05943969
-0.128786 0.10567056 0.03302205 0.29059404 0.029719844 0.046230868 0.03302205 0.31040725
-0.099066146 -0.1353904 -0.01320882 -0.056137484 -0.0660441 0.07925291 -0.029719844 -0.03302205
-0.2674786 -0.06274189 0.15850583 -0.016511025 -0.03302205 -0.11887938 -0.042928662 -0.10897276
0.08915953 -0.095763944 -0.19813229 0.19813229 -0.3236161 -0.29389623 0.023115434 -0.07595071
0.092461735 0.095763944 -0.019813228 -0.20473671 -0.042928662 0.095763944 0.042928662 -0.20473671
-0.11557717 0.12218158 -0.0693463 0.029719844 0.21794552 -0.28729182 -0.10567056 0.25096756
-0.11227497 0.102368355 0.046230868 0.07925291 -0.15190142 0.07595071 0.08915953 -0.22785214
-0.036324255 0.07925291 0.06274189 -0.35663813 0.016511025 0.029719844 0.0693463 0.16841245
-0.049533073 -0.07595071 -0.056137484 0.30380285 0.12218158 0.22124773 0.049533073 -0.16511025
-0.05943969 0.23445655 0.19152789 0.05283528 -0.19813229 0.22124773 0.042928662 0.029719844
-0.049533073 0.08255512 -0.049533073 0.036324255 0.102368355 -0.128786 0.30710506 0.01320882
0.128786 0.009906614 -0.19483009 0.05283528 -0.29059404 0.27408302 0.15520363 -0.29719844
-0.31040725 0.023115434 0.16841245 0.07925291 -0.009906614 -0.06274189 -0.009906614 -0.009906614
-0.01320882 -0.009906614 -0.009906614 -0.009906614 -0.009906614 0.019813228 -0.009906614 -0.009906614
-0.036324255 0.00660441 -0.05943969 -0.009906614 0.102368355 -0.009906614 -0.10567056 0.029719844
0.11887938 0.046230868 0.2014345 -0.01320882 0.049533073 -0.0693463 0.009906614 0.009906614
0.009906614 -0.16841245 0.01320882 0.009906614 0.095763944 0.056137484 -0.20473671 0.01320882
-0.11227497 -0.049533073 0.0660441 0.092461735 0.003302205 -0.009906614 -0.16841245 -0.016511025
-0.009906614 -0.009906614 -0.01320882 -0.009906614 0.003302205 -0.046230868 -0.009906614 -0.01320882
-0.016511025 -0.11227497 0.036324255 -0.099066146 -0.1320882 -0.24436316 0.092461735 0.17831907
-0.18162127 -0.23115434 -0.08915953 0.19483009 -0.10897276 0.003302205 -0.30710506 0.05283528
0.23115434 0.095763944 -0.0693463 0.12548378 -0.23445655 -0.21134111 0.19152789 0.06274189
0.10897276 -0.009906614 -0.0660441 0.00660441 0.102368355 0.049533073 0.07264851 -0.056137484
0.01320882 -0.02641764 -0.009906614 -0.029719844 -0.009906614 0.095763944 -0.22785214 0.00660441
0.14529702 0.02641764 0.24106096 -0.17501687 0.036324255 0.01320882 -0.12548378 0.009906614
0.095763944 -0.16511025 -0.01320882 0.009906614 0.128786 0.003302205 0.24106096 0.16511025
0.046230868 0.095763944 -0.056137484 0.22454993 -0.003302205 0.0 -0.19483009 -0.092461735
-0.07925291 0.003302205 0.029719844 -0.003302205 -0.0660441 -0.06274189 -0.19152789 0.15850583
-0.15850583 0.05943969 -0.16180804 0.128786 0.15850583 0.11227497 0.07264851 0.18492347
0.10897276 0.0 -0.023115434 0.039626457 0.036324255 -0.019813228 0.1320882 0.0
00000000: 1ec7 1147 11e5 3e08 32e4 ece4 09dc 1612
00000010: d920 0a58 090e 0a5e e2d7 fcef ec18 f7f6
00000020: afed 30fb f6dc f3df 1be3 c43c 9ea7 07e9
00000030: 1c1d fac2 f31d 0dc2 dd25 eb09 42a9 e04c
00000040: de1f 0e18 d217 1bbb f518 1394 0509 1533
00000050: f1e9 ef5c 2543 0fce ee47 3a10 c443 0d09
00000060: f119 f10b 1fd9 5d04 2703 c510 a853 2fa6
00000070: a207 3318 fded fdfd fcfd fdfd fd06 fdfd
00000080: f502 eefd 1ffd e009 240e 3dfc 0feb 0303
00000090: 03cd 0403 1d11 c204 def1 141c 01fd cdfb
000000a0: fdfd fcfd 01f2 fdfc fbde 0be2 d8b6 1c36
000000b0: c9ba e53b df01 a310 461d eb26 b9c0 3a13
000000c0: 21fd ec02 1f0f 16ef 04f8 fdf7 fd1d bb02
000000d0: 2c08 49cb 0b04 da03 1dce fc03 2701 4932
000000e0: 0e1d ef44 ff00 c5e4 e801 09ff eced c630
000000f0: d012 cf27 3022 1638 2100 f90c 0bfa 2800
