Project/Models/Alphabets/M.tflite (tflite, 15504 bytes, 11 tensors)

predAlpha/Mod_B3_Lo/MatMul f4 [1, 32]
00000000: 5a30 12bf 2a38 d3be 8874 f4be 6857 f63e
00000010: 9cee c6be 6b7e a3be 3561 4b3e e691 b0be
00000020: 1ffc 273f 35d6 a1be bd70 863d fb87 543e
00000030: 8c35 643d 5836 1abe d6dd 8bbe 0ce4 d2be
00000040: a394 4c3e 986c d1be c528 0f3e d13f 3fbe
00000050: 2cff 91be a664 343e 5d1f a2be 377e 51be
00000060: 4b7c fc3d 9cd3 de3e 43e0 52be 764d 9fbe
00000070: 6986 c73a 76d1 9a3e df78 b6bd 1f35 13bb
-0.5710503 -0.41253787 -0.47745156 0.4811356 -0.3885392 -0.31932387 0.198613 -0.34486312
0.6561908 -0.3160874 0.06564472 0.20754997 0.05571513 -0.15059793 -0.27317685 -0.4118961
0.19978575 -0.40903163 0.13980396 -0.18676688 -0.28514993 0.1761652 -0.31664553 -0.20458303
0.123283945 0.4352082 -0.20593362 -0.31113786 0.0015222552 0.3023793 -0.08909773 -0.0022462083

predAlpha/Mod_B1_L0/MatMul f4 [32, 28]
00000000: db78 be3e 0f7f 903e e37a 673e cdcf dbbe
00000010: 8e43 c53e d8a8 d8bc 5d4e 0bbe 2722 9b3e
00000020: d5b2 9dbe c3e4 6ebe ecce 653e 1832 9ebe
00000030: 30c0 74be dfad a2bd 155c 633d ca74 b3bd
00000040: 5beb 5abe 67d1 f0bd a410 81bd ded7 e5be
00000050: 5182 8f3b 1d2c a53e c8a4 3abe cf0c 04be
00000060: e9f6 423e 5cc8 923d 7f21 babe 9c1c 35be
00000070: ae93 b3be 3887 063e 29d9 e53e 12d1 ea3e
00000080: c5ac b13c 44ca 633e cfaf 093e 1b06 193e
00000090: 3541 c53e aacd ab3d 29f3 f2bc be1c 893e
000000a0: 8d81 a03e 972a 59be 74b4 82be 705f afbe
000000b0: b21a a2be 3cdd 2d3e d94d 0fbe 0fd1 0a3e
000000c0: 2aca 4639 4458 643d c762 6b3e ebb0 fa3d
000000d0: 1480 2cbe bc31 613e 01e4 913e 706f 15bd
000000e0: b1b5 fd3e bd1d ee3b b712 be3e afcf fcbb
000000f0: 5449 013f 8280 dc3d af9d 353d b0a7 7b3e
00000100: 0c47 5dbc 1bab 1a3e e25c ed3b 9b2b b2bd
00000110: 059c 5d3e 22a1 603d 2ef2 ae3e 34f1 043e
00000120: 71b0 98be 0a35 83be 6027 a4bd 1562 1abd
00000130: e5de 1b3c 5487 8b3d 068e 4dbe 01a5 14be
00000140: 3397 1bbe 5cc4 483b ed44 9ebe 8bb0 ddbd
00000150: 215c 1d3d 5b24 963d e7f3 f2bd cbc8 7b3e
00000160: 5e96 c6be 6a76 b4bd 8c70 95bc 3642 d0be
00000170: 21df 55be 5d97 373e 39c9 35be c9ea 1abe
00000180: 7792 fd3d 5840 513e ef75 ccbe d137 d03d
00000190: add8 1ebd c428 e33d b00e 5bbe d73c bdbe
000001a0: 76e4 97bd 84e8 9bbe 1ba1 ff3d 7906 89be
000001b0: 37c7 e6be ebf2 61be 27d3 d7be 130e ba3e
000001c0: 7d19 22bc 06d7 7b3e 4686 9dbc 297e 7d3e
000001d0: 7a6c 643e 7aeb 353b cf16 c33e 9d88 65bd
000001e0: 2111 183e b4c5 413e ae7c b93e 241c c23d
000001f0: 223b 4d3e d3c3 263d b3de c9be 5268 e0bd
00000200: 2d67 323e 2971 2b3e c174 a7be 480b c43e
00000210: 3ed1 3b3e fa30 66bd eda1 89be 1c51 b03e
00000220: e9af 163e 2512 883e 75f0 89be c125 df3d
00000230: cd23 323d 1c08 653e bcb8 cd3e 0a92 3c3d
00000240: 5c44 a53e b265 de3e 4143 4f3e e873 a1be
00000250: 29a8 423e 7254 4d3e e598 dfb9 7749 d9bd
00000260: 0aa4 a93c d8ee 493d 8e57 cebe 6d01 1b3e
00000270: 463e 35be dc39 a63e 21d9 90be 995e 383c
00000280: e2d0 c53e 4684 6abe 1298 e9bd f4f2 913d
00000290: 6663 c13e 2e55 323e 8ccf ffbb e6c9 8bbd
000002a0: f23e 8d3e 1e26 58bd d166 813d 910a 2d3d
000002b0: a947 c5be 4a28 263e 1942 c13d 4191 82bd
000002c0: 3237 373e 42ee 4dbe 98f9 78be 1c14 a2bc
000002d0: 3218 4bbd 2e0f ea3d 3d68 9abe c96c 153e
000002e0: 9a70 cebd d4d7 8dbe 5628 b33c 59d7 43be
000002f0: dacb 6ebd af3c 113e 52ef 443d 4d1d c6bb
00000300: 0ce8 5dbe 5860 95bd 7363 0fbe bedd adbd
00000310: b69f 69bd 6706 b3bd 788e df3e 3f4e ba3e
00000320: 8d09 173c fa37 c93c c277 523e ddb0 62bd
00000330: 7981 c13d 200c 833e 8ebe a23d b7c9 fe3d
00000340: 467c 763e ddba ed3c 6ebb b03e d126 9f3e
00000350: f9e6 8dbe d26b 543e 20d2 9abe a438 51bd
00000360: 430c 913e 04be fb3d b1b1 6bbe a530 24bd
00000370: 2eaf 303e add9 883e 4ad1 043e 3137 523e
00000380: 6ddb a7be 1498 3ebe e994 d53b f483 5b3d
00000390: 3552 3abe 22e8 5dbe 57b4 3bbe 31f4 f0be
000003a0: 2a71 453d 3de4 3d3d d3ca eb3d 0270 b0be
000003b0: f8e4 83bd e27e ae3e ac12 f4be 2770 433c
000003c0: fefb 2d3e e0b8 1e3e 0be3 c3be ba74 0dbe
000003d0: 638e 03be 2c62 88be 62e6 703e b339 99be
000003e0: 5ccb 7bbe 2e66 b7be eaf3 6ebe 9785 0c3e
000003f0: 0368 ac3e 3f7d 743d bd71 1cbe 2387 ffbe
0.3720158 0.28221938 0.22605471 -0.42931977 0.38528103 -0.026447698 -0.13604112 0.30299494
-0.308005 -0.23329453 0.22442216 -0.30897593 -0.23901439 -0.079433195 0.05550774 -0.0876251
-0.21378843 -0.1175869 -0.06302002 -0.44891256 0.0043795486 0.32260218 -0.18226922 -0.12895511
0.19039501 0.07167122 -0.3635368 -0.17686695 -0.35073608 0.1313752 0.44892243 0.45862633
0.021688828 0.22245127 0.13445972 0.14943735 0.38526312 0.08388837 -0.029656963 0.2677974
0.3134884 -0.21207653 -0.255283 -0.342525 -0.31660992 0.16978925 -0.1399454 0.13556312
0.00018958063 0.05574824 0.229869 0.12240776 -0.16845733 0.21991628 0.28494266 -0.03648323
0.49552682 0.0072667287 0.37123653 -0.0077151875 0.50502515 0.107666984 0.044339832 0.24575686
-0.013505708 0.15104334 0.0072437385 -0.08699723 0.21641548 0.05484117 0.34169143 0.12982637
-0.29822114 -0.25626403 -0.08015323 -0.037691195 0.009513591 0.06812921 -0.20073709 -0.14516069
-0.15194397 0.0030634617 -0.3091196 -0.108246885 0.03841794 0.07331153 -0.11862927 0.24588315
-0.38786596 -0.08811648 -0.018242143 -0.40675515 -0.20885898 0.17928834 -0.17752542 -0.15128626
0.123814516 0.20434701 -0.39933726 0.10166896 -0.038780857 0.1109176 -0.21392322 -0.3696048
-0.07416622 -0.30450833 0.124819 -0.2676275 -0.45073864 -0.22065322 -0.42153284 0.36338863
-0.009893772 0.24593744 -0.019229066 0.24755158 0.22307006 0.0027758763 0.3810334 -0.056038488
0.14850284 0.18923074 0.36227936 0.09478024 0.20042089 0.040714096 -0.3942772 -0.109573975
0.17422171 0.16742386 -0.32706264 0.38289857 0.18341538 -0.05619905 -0.26881352 0.34436882
0.14715542 0.26576343 -0.26941267 0.10895873 0.043491174 0.22366375 0.40180004 0.04603771
0.32278717 0.43436962 0.20240499 -0.31533742 0.1900946 0.20051745 -0.0004264779 -0.106097154
0.020708103 0.049300045 -0.40301174 0.15137263 -0.17699537 0.32466018 -0.28290656 0.011253023
0.38635927 -0.22902021 -0.11405958 0.07126418 0.37771147 0.17415306 -0.007806724 -0.068256184
0.27587086 -0.052770726 0.06318439 0.042246405 -0.38531235 0.16226307 0.09436435 -0.06375361
0.17892149 -0.2011042 -0.24313962 -0.01978498 -0.04958362 0.114286765 -0.30157652 0.1459228
-0.10080071 -0.27703726 0.02186982 -0.19125117 -0.058299877 0.14183305 0.048079796 -0.0060459734
-0.2167055 -0.07293767 -0.1400278 -0.084895596 -0.057037078 -0.087414555 0.43663383 0.36387822
0.009218586 0.024562825 0.20553496 -0.05534445 0.09448523 0.25595188 0.07946502 0.12440818
0.24070844 0.029019767 0.34517998 0.31084302 -0.2771528 0.20744255 -0.30238438 -0.051079407
0.28329667 0.12292102 -0.23017003 -0.040085454 0.17254326 0.26728573 0.12970462 0.20528866
-0.32784596 -0.186127 0.0065179956 0.053592637 -0.18195422 -0.21670583 -0.18330513 -0.47061303
0.048203625 0.046360243 0.11513295 -0.34460455 -0.06440157 0.3408118 -0.47670496 0.011928595
0.16990659 0.15500212 -0.38259158 -0.13814059 -0.12847285 -0.266374 0.23525384 -0.29926834
-0.24589294 -0.35820144 -0.23335233 0.13722835 0.33673105 0.059689756 -0.15277763 -0.4990779

predAlpha/Mod_B0_L5/Tensordot/MatMul f4 [14, 28]
00000000: f217 c93d 5fb8 51be 48ec 763e 13ab 103e
00000010: f78c ebbd bfe2 ccbd 080c 843e b371 f6bd
00000020: 11e4 5ebc 0a7e 683e a92f 93be a58f 4ebd
00000030: ce4b 783d b910 ffbb 33c4 4dbe 0ce3 4fbe
00000040: 7146 c53d ff69 8a3e cc1b 3d3e 1672 a0be
00000050: 1293 333e c402 833d ada5 50be 4678 6f3c
00000060: 3b39 62be f924 be3d 6dbf 2bbe 3af0 883d
00000070: 906c b53e 58fb b53c ebe7 b53c c0a7 773e
00000080: 73b4 393e ca16 0cbd f370 073d 932f 023e
00000090: 55e3 b5be 37aa 97be ff28 89bd cdb1 b1be
000000a0: 6ccb babd 95d2 02be 6f55 89be e689 903e
000000b0: ef29 21bd fb4f f43d 98e6 32be c7ba abbe
000000c0: f85c c6be 3d6b fb3c cf4c f2bd aadb 43be
000000d0: c75e 2cbd cddb 0f3e 65b7 a3bd 0bc2 323e
000000e0: dc7a 793c 83b3 94bd 37ba 843e 1390 753e
000000f0: 63f1 95be 1d12 aebd 0eb4 133d 50bf 223c
00000100: 2252 143e 5279 a43e 90b0 1e3b c2c0 4c3e
00000110: ad82 85bb 1b23 f63d d149 8ebd 43a6 773e
00000120: 31f9 cabd af22 10be ade5 ac3b 40e2 053e
00000130: 3580 423d 74dd dcbe 993f 34be a5d7 2bbe
00000140: 27b8 85bd 42aa 553e 5307 dbbd be4b 0e3e
00000150: 6b13 953d 3521 db3e e41a 1a3e 13c5 013e
00000160: 6a28 bcbe 3e83 9f3e baa5 04bf 9f2d 22be
00000170: 0393 29be 0f35 eb3c 03d4 eabe 110a 9c3c
00000180: fb3d 08be 001c ae3c 14e8 ce3b 1334 cf3e
00000190: 4895 bbbd cecd 71bd 4b48 c3bd 959e 5b3e
000001a0: 492a 933d 913d d03e d745 afbd 51a3 b23e
000001b0: dcc6 a33d 48c1 64be 0fd8 3f3e ddf6 303e
000001c0: 0ca2 8b3c 0ac9 f8be 0ad0 7d3e cc0f 90be
000001d0: a097 b83d 59fa 90be 15a9 b33e 6d92 d5be
000001e0: 11c4 cebc 4cb9 493e ad22 d1bd 03d6 283e
000001f0: 7415 613c 9b45 f03d 7953 72be d8a0 09bd
00000200: 566f 343e 6ace 513e 11b8 3c3e 22ee c9bd
00000210: addd 7c3d 6330 88be f23b c5bb 50f7 f1be
00000220: 2b4e 0ebe 26cf 073e 4a5d 793d 7cee 0b3e
00000230: db19 5f3e d73c 1dbe f3e4 08be 123b cbbc
00000240: 42f6 183e 3477 acbe 363d 1bbe 2056 b73d
00000250: fbd9 053e bd45 00bd 2296 6f3d 91e4 82be
00000260: 669e 053e 9b3d ce3c f5c1 3a3d 4579 6c3e
00000270: 6d32 303e d3e9 fbbd 18d5 1bbe e88f 6ebd
00000280: a327 4d3e d935 a6be 447c 48be fa5d 16be
00000290: c174 d43e b729 c5bd fd10 05bc 9df4 86bd
000002a0: a35b 73bd 2417 da3b d306 d13d 9408 ac3e
000002b0: dff6 1cbe ab1d 7abe 9fb7 ef3c fabb da3d
000002c0: 403a 513e 3154 de3d 694e 97bc 30ee be3d
000002d0: 0173 a53d b599 223b 2e48 d63b 3da4 ca3e
000002e0: a404 36bc 4147 21be 8659 d7bc 7d6b 433e
000002f0: 4385 fd3c cf7e 0abe be31 9dbd a37c a2be
00000300: 1c4d 4fbc 7b0b 8e3e c637 b6bb 0424 5fbe
00000310: 54ce fe3d 7137 03be 0195 f33e c844 ae3e
00000320: 3322 f0bd fe54 3ebe a37b 903e 5775 123e
00000330: ee6c 3fbe 5ba6 3cbe 9d4e 313d 7e03 e9be
00000340: 07d5 8ebe caed 8d3e 41f8 47ba 89aa f13d
00000350: ed54 40be 9fb3 553e 1006 dd3d 0ff5 cdbc
00000360: 2347 a0bd 4943 b93d b235 7a3e e233 36be
00000370: 59f4 3dbe 678c 973e 51fc 9fbe dae9 0cbe
00000380: 7b7c a03a c654 a53d 7975 3c3e fe07 c2bb
00000390: a39e 713e 45a1 0c3e 97fd 66be 5fc2 b6be
000003a0: 7efc da3e 1658 d83b 02b8 89bd 91c5 d4bc
000003b0: 9dbb 9bbe 1cc0 7dbd 27ac 87be a351 0a3e
000003c0: e165 87be 7c09 003e de8a a33d e687 bebd
000003d0: ede5 cebc 2ab5 8dbd 4232 1c3e 9cc7 d3bd
000003e0: a8d1 94be dacf 853e ea19 0cbe b4af 5dbe
000003f0: bf45 9d3c 0fce 1d3e 8436 783e 3403 fb3d
0.0981902 -0.20480488 0.24113572 0.1412776 -0.11501496 -0.10004186 0.2579043 -0.12033405
-0.01360418 0.2270433 -0.287473 -0.05042996 0.060619168 -0.007783976 -0.20094375 -0.20301455
0.09632576 0.27033994 0.18467635 -0.3133704 0.17536572 0.06397012 -0.203757 0.014616078
-0.22092144 0.09284396 -0.16772242 0.066864446 0.3543439 0.022214577 0.022205314 0.24185085
0.18135242 -0.03420142 0.0330667 0.1271346 -0.35525003 -0.2962205 -0.066972725 -0.34705964
-0.09120831 -0.12775643 -0.26822993 0.28230208 -0.03934663 0.119293176 -0.17470777 -0.33540937
-0.38742805 0.030690784 -0.11831056 -0.19126764 -0.042082574 0.14048691 -0.07993964 0.17456834
0.015227046 -0.07260802 0.2592332 0.23980741 -0.29285726 -0.084995486 0.036060385 0.009933308
0.14484456 0.3212381 0.0024214126 0.19995406 -0.0040744157 0.120184146 -0.06947673 0.24184518
-0.09910811 -0.1407573 0.005276403 0.13074589 0.04748555 -0.43137705 -0.17602386 -0.1678148
-0.06529265 0.2086573 -0.10694756 0.13896081 0.07279094 0.42798772 0.1504932 0.12672834
-0.36749583 0.31154817 -0.5181538 -0.15837716 -0.16559987 0.028711824 -0.45864877 0.019047769
-0.13304894 0.021253586 0.006314287 0.40469417 -0.091593325 -0.05903416 -0.09535273 0.21447213
0.071858 0.4067197 -0.08558243 0.34890226 0.07996914 -0.22339356 0.18734764 0.17281671
0.017045043 -0.4859088 0.24786392 -0.28137052 0.09013295 -0.28316 0.35089937 -0.41713277
-0.025239976 0.19699591 -0.10211692 0.16487889 0.013738025 0.11732026 -0.23664655 -0.03360066
0.17620596 0.20488897 0.18429591 -0.09859873 0.061734844 -0.26599416 -0.006019109 -0.47258997
-0.13897006 0.13262615 0.060879983 0.13665193 0.21787207 -0.1535524 -0.13368587 -0.02480844
0.1493769 -0.33684695 -0.15160069 0.08951974 0.13071434 -0.031316508 0.058492787 -0.25565007
0.13048705 0.02517586 0.045595128 0.23093136 0.17206736 -0.12300458 -0.15218008 -0.05824271
0.20034651 -0.32462958 -0.19578654 -0.14684287 0.41495326 -0.09627097 -0.008121726 -0.06589625
-0.059413563 0.0066555906 0.1020638 0.33600295 -0.15328549 -0.2442538 0.029262362 0.10680385
0.20432377 0.10855902 -0.018470006 0.093227744 0.08078576 0.0024810855 0.006539366 0.3957843
-0.011109505 -0.15749837 -0.026287805 0.19083972 0.030947333 -0.13524936 -0.07675503 -0.31735715
-0.012652662 0.27743134 -0.005560848 -0.21791083 0.12441698 -0.12814118 0.47574618 0.3403685
-0.11725273 -0.1858711 0.28219327 0.14302574 -0.18693897 -0.18422835 0.043287862 -0.45510477
-0.27896902 0.2772048 -0.000762824 0.11800105 -0.18782397 0.20869301 0.10792172 -0.025141267
-0.07826068 0.09046037 0.24434546 -0.17793229 -0.18550242 0.29599306 -0.3124719 -0.13761082
0.0012244129 0.0807281 0.18404187 -0.005921363 0.23595671 0.13733394 -0.22557674 -0.35695168
0.4277076 0.0066022975 -0.0672455 -0.025973113 -0.30416575 -0.061950788 -0.2649853 0.13507704
-0.26444915 0.12503618 0.07985471 -0.09303264 -0.025256122 -0.0691932 0.15253547 -0.10340807
-0.29066205 0.2613514 -0.1368176 -0.21649057 0.019198297 0.15410636 0.24239546 0.1225647

predAlpha/Mod_B0_L7/batchnorm/sub f4 [14]
00000000: ce87 73bf 057a 40bf 6063 34bf 5b4a 61bf
00000010: 79d6 8ebf 048e f5be b863 43bf 7498 34bf
00000020: f6c9 f6bf 8b4a 32bf 853c 76be 3431 4cbf
00000030: 45c3 3ebf 558a 1ebf
-0.95129097 -0.7518619 -0.70464134 -0.8800408 -1.1159202 -0.47959912 -0.76324034 -0.70545125
-1.9280384 -0.69644994 -0.24046524 -0.7976258 -0.7451671 -0.6192983

predAlpha/Mod_B0_L7/batchnorm/mul f4 [14]
00000000: 9edf 0b41 b21f 3540 fd52 1b41 f886 2341
00000010: 3708 ad40 4b23 d43f 9aae b13f 452f 2e40
00000020: 3206 8140 206d a63f 4902 aa41 2fcf b640
00000030: 3079 b83f 22c5 1241
8.742094 2.8300595 9.707761 10.220451 5.407253 1.657327 1.3881409 2.721635
4.0320063 1.3002052 21.251116 5.712791 1.4411983 9.173128

predAlpha/Mod_B0_L3/batchnorm/sub f4 [28]
00000000: f934 9fbd 2bb9 70bf aa8c 01bf 33b4 c1bf
00000010: df0d 60bf dfdf 50bf cf7d 00bf 29ca d4bf
00000020: 04c1 2fbf 08b3 a7bf e1d7 9abf fb67 0dbf
00000030: 862c 71be d55e 9fbe dd0a 24be e655 02bf
00000040: cfee 43bf 8a02 f0be 3f53 80bf 7883 c3bf
00000050: afee 32bf f0d3 04c0 31e3 abbf 6541 99bf
00000060: eab7 37bf 8c19 e9be bf1d 0ebf 4dba dbbf
-0.077737756 -0.94032544 -0.5060526 -1.5133117 -0.87521166 -0.815916 -0.5019197 -1.6624194
-0.68653893 -1.3101511 -1.2097131 -0.55236787 -0.2355214 -0.3112704 -0.16019769 -0.5091232
-0.7653627 -0.46876937 -1.0025405 -1.5274496 -0.6989545 -2.0754356 -1.3428708 -1.1973082
-0.71765006 -0.45527303 -0.5551414 -1.716623

predAlpha/Mod_B0_L3/batchnorm/mul f4 [28]
00000000: 4881 f541 aafa 953f 86e7 2c3f 2dfd ad3f
00000010: b702 d740 6b27 2741 da07 4640 0bd6 c73f
00000020: 428e 6d40 761f ca40 112b c53f 4fe0 bd3f
00000030: 70e5 2340 e28a 1241 583b 4140 8675 f43f
00000040: 7060 dd40 30b4 8d3f 05d8 7c40 26b2 cf3f
00000050: 5ef9 0540 6810 a440 83d2 2240 b619 f840
00000060: 6a6e 963f 8b71 be3f 6cb3 bc3f 718f aa3f
30.688126 1.1717122 0.67540777 1.3592888 6.7190814 10.447124 3.0942292 1.5612196
3.7118077 6.3163404 1.5403768 1.4834079 2.5608788 9.158907 3.019247 1.9098365
6.918022 1.1070614 3.9506848 1.6226242 2.0933452 5.1270027 2.5440986 7.7531385
1.1752446 1.48784 1.4742255 1.3325025

predAlpha/Mod_B1_L0/BiasAdd/ReadVariableOp f4 [32]
00000000: d7ff a93d 4aa4 913d e440 f13d 32ab 093d
00000010: 0e6b e53d 2b47 fa3d c964 2bbd 0777 ac3d
00000020: 6cfa 093d f9c0 9d3d 7ffe febc 7693 f03c
00000030: 3894 91bd 1be4 333e fba6 ac3d eed2 ff3d
00000040: 15ac 02bd 7e1d 093e 0407 bfbc ef13 fc3d
00000050: c4d1 3a3e 3682 933d 0acc b73d b47c f33d
00000060: 48a8 703d 3d7a 99ba 9c4c 153e 4402 853d
00000070: 0b49 04bd 575f 0f3e 38f6 893d fffb 39bd
0.08300751 0.07111414 0.11779955 0.03361053 0.1120206 0.122206055 -0.041844163 0.0842114
0.033686087 0.07702822 -0.031127213 0.02936719 -0.071083486 0.17567484 0.084302865 0.124914035
-0.03190239 0.13390157 -0.023318775 0.123084895 0.18244082 0.0720257 0.08974464 0.118890196
0.058754236 -0.0011709403 0.14580005 0.06494573 -0.03229622 0.14001213 0.067364156 -0.045406338

predAlpha/Mod_B0_L5/BiasAdd/ReadVariableOp f4 [14]
00000000: f448 d6bc 51be d33d bfe9 0bbe 5247 90bc
00000010: 3772 e53c 5430 0f3d 8b6e c63d cedd afbb
00000020: b03c 003e a01f 1d3d 0377 a2bd 7e95 8abd
00000030: 6c20 04bd 6ec9 d7bd
-0.026157834 0.10339034 -0.13663386 -0.017612133 0.028008563 0.0349582 0.09689053 -0.0053670174
0.1252315 0.038360238 -0.07932856 -0.067667946 -0.032257482 -0.105364665

predAlpha/Mod_B0_L1/BiasAdd/ReadVariableOp f4 [28]
00000000: e87c 99bc a650 2c3d 4096 a5bb aed7 e83c
00000010: adfa 223d db90 09bd 7370 74bd bb79 703c
00000020: b7a5 4b3c e9cd 6cbd ec1b 17bd 5b46 73bd
00000030: 70f8 7ebc eb45 fdbc 1c66 debc 8777 6abd
00000040: b890 9b3b cfa3 ba3b 0974 de3b 66c7 9d3c
00000050: f168 c4bd a6c7 99bd c60d 40bd 45d1 d2bc
00000060: 76e7 303c dc22 5cbd 2577 dd3c d0e9 343d
-0.018736318 0.0420691 -0.0050533116 0.028423157 0.039789844 -0.03358541 -0.059677552 0.01467746
0.012429646 -0.05781356 -0.036891863 -0.059393268 -0.015562162 -0.030917129 -0.027148299 -0.057242896
0.0047474764 0.005695797 0.006788735 0.01926012 -0.095903285 -0.07508783 -0.046888135 -0.025734553
0.010797372 -0.053744182 0.027034352 0.044168293

predAlpha/Mod_B0_L1/Tensordot/MatMul1 i1 [28, 57] scale=0.003265792 zero_point=0
00000000: e140 ecf2 002a edff 0900 f519 19f3 c525
00000010: d6df 39f7 f0e5 ddef f42d 4d00 3702 02ef
00000020: 1022 3bf1 0800 c1c0 dff5 c7da ea30 1e00
00000030: 24fe 2afc 0400 dbea 3eee f834 e61a 023e
00000040: 0f00 2ae9 15f3 14cc e7f0 50e4 1248 f7cb
00000050: 4ed3 0b3f 12b0 03cc 3ddb 2f16 eab8 02ed
00000060: e1ab 2afe fcc4 43c5 1202 0646 e40e 1f09
00000070: ebe7 0133 fe32 1627 162f 4ae1 a94a f6dc
00000080: fef7 35e5 26ed e9ef 09c8 f405 1f1b b252
00000090: 39c7 c500 f51c bedb ccb8 e7ff dbe1 45d9
000000a0: c129 1f20 f607 0120 ed02 0e68 dfc1 0f35
000000b0: 4801 0302 c5ad bff4 0d3c c8df c7d1 0d12
000000c0: 4a16 d021 c9fe 3804 3cef fb21 06b3 b051
000000d0: d53f 31fc 1167 0f03 3232 f545 1514 982a
000000e0: f4e1 32b8 27fe 0751 04b2 0d3a db01 14ba
000000f0: 1e36 55f4 5bd9 1a26 c7c8 daa3 3502 3209
-0.101239555 0.20901069 -0.06531584 -0.045721088 0.0 0.13716327 -0.06205005 -0.003265792
0.029392129 0.0 -0.035923712 0.0816448 0.0816448 -0.042455297 -0.19268173 0.120834306
-0.13716327 -0.107771136 0.18615015 -0.029392129 -0.052252673 -0.088176385 -0.114302725 -0.055518463
-0.039189503 0.14696065 0.25146598 0.0 0.17961857 0.006531584 0.006531584 -0.055518463
0.052252673 0.11103693 0.19268173 -0.048986882 0.026126336 0.0 -0.20574489 -0.20901069
-0.107771136 -0.035923712 -0.18615015 -0.1241001 -0.071847424 0.15675801 0.097973764 0.0
0.117568515 -0.006531584 0.13716327 -0.013063168 0.013063168 0.0 -0.120834306 -0.071847424
0.20247911 -0.058784258 -0.026126336 0.16982119 -0.084910594 0.084910594 0.006531584 0.20247911
0.048986882 0.0 0.13716327 -0.075113215 0.06858163 -0.042455297 0.06531584 -0.16982119
-0.0816448 -0.052252673 0.26126337 -0.091442175 0.058784258 0.23513703 -0.029392129 -0.17308697
0.25473177 -0.14696065 0.035923712 0.20574489 0.058784258 -0.26126337 0.009797376 -0.16982119
0.19921331 -0.120834306 0.15349223 0.071847424 -0.071847424 -0.23513703 0.006531584 -0.06205005
-0.101239555 -0.27759233 0.13716327 -0.006531584 -0.013063168 -0.19594753 0.21880807 -0.19268173
0.058784258 0.006531584 0.019594751 0.22860545 -0.091442175 0.045721088 0.101239555 0.029392129
-0.06858163 -0.0816448 0.003265792 0.16655539 -0.006531584 0.1632896 0.071847424 0.12736589
0.071847424 0.15349223 0.24166861 -0.101239555 -0.2841239 0.24166861 -0.03265792 -0.117568515
-0.006531584 -0.029392129 0.17308697 -0.088176385 0.1241001 -0.06205005 -0.075113215 -0.055518463
0.029392129 -0.18288435 -0.039189503 0.01632896 0.101239555 0.088176385 -0.25473177 0.26779494
0.18615015 -0.18615015 -0.19268173 0.0 -0.035923712 0.091442175 -0.21554227 -0.120834306
-0.16982119 -0.23513703 -0.0816448 -0.003265792 -0.120834306 -0.101239555 0.22533965 -0.12736589
-0.20574489 0.13389747 0.101239555 0.104505345 -0.03265792 0.022860544 0.003265792 0.104505345
-0.06205005 0.006531584 0.045721088 0.33964238 -0.107771136 -0.20574489 0.048986882 0.17308697
0.23513703 0.003265792 0.009797376 0.006531584 -0.19268173 -0.27106073 -0.21227649 -0.039189503
0.042455297 0.19594753 -0.18288435 -0.107771136 -0.18615015 -0.15349223 0.042455297 0.058784258
0.24166861 0.071847424 -0.15675801 0.107771136 -0.17961857 -0.006531584 0.18288435 0.013063168
0.19594753 -0.055518463 -0.01632896 0.107771136 0.019594751 -0.25146598 -0.26126337 0.26452917
-0.14042906 0.20574489 0.16002381 -0.013063168 0.055518463 0.33637658 0.048986882 0.009797376
0.1632896 0.1632896 -0.035923712 0.22533965 0.06858163 0.06531584 -0.33964238 0.13716327
-0.039189503 -0.101239555 0.1632896 -0.23513703 0.12736589 -0.006531584 0.022860544 0.26452917
0.013063168 -0.25473177 0.042455297 0.18941593 -0.120834306 0.003265792 0.06531584 -0.22860545
0.097973764 0.17635277 0.27759233 -0.039189503 0.2971871 -0.12736589 0.084910594 0.1241001
-0.18615015 -0.18288435 -0.1241001 -0.30371866 0.17308697 0.006531584 0.1632896 0.029392129
