Project/Models/Alphabets/O.tflite (tflite, 15504 bytes, 11 tensors)

predAlpha/Mod_B3_Lo/MatMul f4 [1, 32]
000000 ae 49 1b bf 1f 62 9f 3e 4e d4 b7 bc 24 ad 5c 3e
       -0.606593 0.31129548 -0.022440102 0.21550423
000010 d4 37 c4 be ef ea 03 3f d7 b4 8e be 2e ad b9 3d
       -0.38323843 0.51530355 -0.27872345 0.090662345
000020 4a 38 17 bf c3 2b 93 3e 98 48 fb bc 70 ec 24 3e
       -0.59070265 0.28744325 -0.030674264 0.16105819
000030 07 77 00 bf c3 19 b3 be 2d 69 be 3e 66 30 a0 be
       -0.5018162 -0.34980592 0.37189618 -0.31286925
000040 4e 47 0f be d6 69 0c 3f 5c 4c 8d 3e 30 5f 1e 3e
       -0.13992044 0.5484899 0.2759732 0.15465999
000050 71 58 21 bd f3 16 4c 3e 3a 19 58 3e 10 56 be 3e
       -0.039390985 0.1993063 0.21103373 0.37175035
000060 2b 9a dd be 78 fc a8 be 1e 3a ed bc b8 98 4d be
       -0.43281683 -0.33005118 -0.028958376 -0.20077789
000070 5e a5 ac 3e 0d 58 5c be bd f8 11 bf f8 c4 15 bf
       0.33719915 -0.21517964 -0.5702017 -0.58503675

predAlpha/Mod_B1_L0/MatMul f4 [32, 28]
000000 9e cc 94 3e 06 31 12 bd df 75 b6 bd 67 1c 8b be
       0.2906236 -0.035691284 -0.08909201 -0.27170107
000010 c8 fb be 3e 78 72 97 bc a4 f9 83 3b 38 c2 7a be
       0.3730147 -0.0184872 0.004027562 -0.24488151
000020 a3 b9 06 3e 91 e2 ae 3e c1 2d c8 3d ba d1 3e 3d
       0.13156752 0.3415723 0.09774352 0.04658673
000030 a8 21 75 3e 59 f3 b0 bd 05 71 a3 be a7 93 d7 bc
       0.2393862 -0.08640165 -0.31922165 -0.026315523
000040 44 e1 91 be 83 10 b6 bd f6 99 44 3e f0 ab 16 3e
       -0.28492177 -0.08889868 0.19199356 0.14714026
000050 25 f2 5c 3d da 25 61 3e 9b 8e 4e 3e d1 a8 84 3c
       0.053941865 0.21987095 0.20171587 0.01619378
000060 53 49 bc be f3 3c 72 be 86 f1 9e be 05 1a 0f 3e
       -0.36774692 -0.23656063 -0.31043643 0.1397477
000070 6b 06 9d 3b b7 c2 a7 bd 13 55 4a 3e 27 1a b0 be
       0.004792025 -0.08191436 0.19759016 -0.34394953
000080 1d 4d 2d 3d b9 36 a0 3e 32 ae c4 be 1e d8 d4 3d
       0.04230987 0.3129175 -0.3841415 0.103927836
000090 cb 80 85 3d 74 e6 5a be a1 08 3a 3e 2d d5 aa bc
       0.06518706 -0.21376973 0.18167354 -0.020853603
0000a0 48 6d 3b 3e 14 b8 cc bc 65 9c b5 be 1b b4 2f 3e
       0.18303406 -0.024990119 -0.35470882 0.17158549
0000b0 89 d0 ad bd 30 bd f9 bc f2 f7 3c be 12 55 00 3d
       -0.084870405 -0.03048572 -0.18453959 0.03133113
0000c0 2f d5 fc be dd 5a 07 bd 71 74 8d be e2 51 4b be
       -0.49381396 -0.03304564 -0.276279 -0.19855455
0000d0 73 40 73 3e 24 c6 83 3d a6 45 d8 3d b2 29 c2 be
       0.23755054 0.06434277 0.105601594 -0.37922436
0000e0 fa 98 a5 bc 8e aa 6d 3d ca ea 00 be fd 54 01 3a
       -0.020214546 0.05802398 -0.12589565 0.0004933624
0000f0 b9 02 14 b9 e9 f1 0d be ce e3 1d b8 01 6d 2c 3d
       -0.00014115394 -0.13861813 -3.7643877e-05 0.04209614
000100 8b d9 78 bd 80 94 4b bd a2 5c 5f 3d d1 11 1d 3d
       -0.06075434 -0.049702168 0.0545317 0.03834707
000110 6d 76 00 bd a2 4b da 38 0d 80 15 bc f2 84 fc bd
       -0.03136294 0.00010409138 -0.009124768 -0.12330045
000120 a6 f3 14 be ab 0d 2f 3e 9e 17 c3 bc da 9a 9b bd
       -0.1454607 0.17095058 -0.023814972 -0.07597895
000130 25 7d 36 3e 02 27 8b 3d 51 2d 44 3d 3c e6 88 3d
       0.17821176 0.067945495 0.04789478 0.06684539
000140 b5 6b 03 3e f6 9e 56 bd 93 ec 5a bd 7a 4d 90 3d
       0.12834056 -0.05239769 -0.05344827 0.070460275
000150 c7 2c 0d be 27 65 b4 be f9 01 cf 3d eb 4d 06 3e
       -0.13786612 -0.35233423 0.10107798 0.13115661
000160 e9 9a 87 be 97 3a 6e bd 6a 8c 71 be ad 93 37 be
       -0.26485375 -0.058161344 -0.2358872 -0.17927428
000170 43 00 2c 3b 9b b7 80 be f8 4f 8e bc 0f c3 29 3e
       0.0026245273 -0.2514008 -0.017372116 0.16578315
000180 6e 30 b3 b9 85 ea 6f 3d 73 7b 40 3e 74 54 8d 3e
       -0.00034177623 0.058573265 0.18797092 0.27603495
000190 7e 1f ca bd 3f 3c 6d bd 3e d2 49 be e8 9c 3b be
       -0.09869288 -0.057918783 -0.19709107 -0.18321574
0001a0 af 54 67 be a8 3d e9 bd 8f 6a b3 be 0b 1e d0 3d
       -0.22590898 -0.11388713 -0.35042235 0.1016198
0001b0 78 9f c5 bc 49 6c 7e 3e 02 1b cd bd f0 a7 87 bd
       -0.024123892 0.24845995 -0.10014917 -0.066238284
0001c0 12 9b b6 bc b4 45 44 3d 82 8d 4f be d2 6f 40 be
       -0.02229074 0.047918037 -0.20268825 -0.18792656
0001d0 c6 a5 3a 3e 8f 6f 81 be 68 58 aa 3d be 19 38 be
       0.182273 -0.25280425 0.083176434 -0.1797857
0001e0 88 84 1f 3c 59 19 85 3e 1c a7 a0 3d 87 fb 66 be
       0.009736188 0.259959 0.078443736 -0.22556888
0001f0 c5 54 1e 3e cb 72 ec 3d b5 2c 83 be 1b 5b 5c 3e
       0.15462025 0.115453325 -0.25620046 0.21519129
000200 78 68 31 be d1 d5 41 3c f6 cd 56 3e 2c 5a a0 3d
       -0.17325008 0.011830763 0.20977005 0.07829699
000210 e0 f5 bf 3e ba b8 3e 3e 75 4d 2d 3e 71 4e 57 be
       0.37492275 0.18625155 0.16924079 -0.21026017
000220 27 84 a3 bd dc 40 d9 be b0 03 00 bf a7 99 51 be
       -0.079841904 -0.42432296 -0.50005627 -0.2046877
000230 04 30 3e be 1a 86 d1 be 03 2b 3b 3d b7 dd 23 bd
       -0.18573004 -0.40922624 0.045695316 -0.040006366
000240 09 9e 2a be 69 85 25 3e 74 7d 0b be 7c 5b 6d be
       -0.16661848 0.16164173 -0.13622075 -0.2317943
000250 fd 20 dd be e6 3b 05 3e 66 6f 89 be 0f 0a 2b 3e
       -0.4318923 0.1301113 -0.26842803 0.16703056
000260 28 39 96 3e 60 de 38 3e a8 04 f7 3c 62 fa 89 3e
       0.29340482 0.1805358 0.030153587 0.2694884
000270 28 9d b0 be 7b 20 c3 3e 6e 25 b5 be 70 67 d3 be
       -0.344949 0.38110718 -0.3538012 -0.41289854
000280 95 da ac be 0f 4d 17 3e 68 11 14 3e 5b 2b 94 be
       -0.33760515 0.1477549 0.14459765 -0.28939328
000290 32 42 ae 3e 03 33 82 3e bb f7 1b 3e f2 ad 0e be
       0.34034878 0.25429544 0.1523122 -0.13933542
0002a0 13 7d 18 3e e7 9d 8b be 00 e6 9e 3d db bd 0a be
       0.14891462 -0.27268907 0.07758713 -0.13548987
0002b0 dd 68 70 bd a9 f4 9a bd 93 a1 cb 3d 4c e7 53 bd
       -0.058693755 -0.075661965 0.09942927 -0.051734254
0002c0 d4 0d a1 3d c6 60 fe 3e 90 3d 9b be 23 ec b4 3d
       0.07863966 0.49683207 -0.30320406 0.08834102
0002d0 07 7b 7e be 4f 9c 11 3d ec 6b 82 bc b9 ce 9a be
       -0.24851619 0.035549458 -0.015920602 -0.30235842
0002e0 65 7f 2d 3e 5d a0 48 3c f3 7d 93 be 29 96 ad be
       0.16943128 0.012245265 -0.2880703 -0.33903626
0002f0 3b d5 12 3e 27 f0 a8 3e cd 96 25 be 0c 93 80 be
       0.14339153 0.32995722 -0.16170807 -0.25112188
000300 5b 16 b0 3d 70 1b 8b be 81 eb 21 be 41 8e c0 ba
       0.08598014 -0.2716937 -0.15812494 -0.0014690832
000310 b7 64 2a 3e 2b 35 9d 3c e0 48 5d bd 5d 2a 44 3e
       0.16639982 0.019190392 -0.054024577 0.19156785
000320 53 8f aa 3d be 41 84 be 93 2f 3b be af f5 f1 bd
       0.08328118 -0.25831407 -0.18279867 -0.118144386
000330 0c 3a cd bd 7e 8e 3b be 99 76 61 be c1 16 86 3e
       -0.10020837 -0.18316075 -0.22017898 0.26189235
000340 28 a5 a8 be dc b8 7f bd 05 65 19 be ff a2 6c 3d
       -0.32938504 -0.062432155 -0.14979942 0.057772633
000350 5e 4f d9 3c dc 65 36 3e 32 f8 1f 3d ac 80 aa be
       0.026527103 0.17812294 0.039055057 -0.33301294
000360 fc 85 89 bd 92 b8 81 3e 6c 05 3d be ab d5 96 bd
       -0.067150086 0.25336128 -0.184591 -0.07364973
000370 06 55 65 3e 47 47 86 be 97 ff 1b 3c e5 1f 1c 3e
       0.22395715 -0.26226255 0.009521387 0.15246542
000380 e0 9a a5 be 51 61 8e be 35 b7 8d be d8 3b 8e be
       -0.32344723 -0.27808622 -0.27678838 -0.27780032
000390 85 ce 0a be 29 74 9b be 4c fb 96 bd e0 f4 c7 bd
       -0.13555343 -0.3036206 -0.0737215 -0.09763503
0003a0 27 27 a4 bc cb a4 2e be e5 a6 74 bd 25 47 b9 bd
       -0.0200382 -0.17055051 -0.059729476 -0.09046773
0003b0 20 f0 0b be 1d 53 4c bd 6d 98 01 3e 88 85 7a be
       -0.13665819 -0.04988395 0.12655802 -0.24465
0003c0 a3 dd f0 bd 16 e2 65 bd cd 8b 0b 3e 5c a1 9b bc
       -0.11761024 -0.056123815 0.13627549 -0.01899784
0003d0 12 6f f0 3e 94 7e 9b 3d 01 50 fc bd ab eb e0 be
       0.4695974 0.07592502 -0.12319947 -0.439298
0003e0 54 42 42 be 42 e3 06 3e 9c b1 82 3d 0f f0 fd 3e
       -0.18970615 0.1317263 0.063815325 0.49597213
0003f0 4e 22 41 3e 68 e2 aa 3d c5 91 a6 bd 33 c5 a9 be
       0.18860742 0.08343965 -0.08133272 -0.33158264

predAlpha/Mod_B0_L5/Tensordot/MatMul f4 [14, 28]
000000 87 f8 77 3e ce c1 d5 3b 53 7d ac be 78 fc d3 bd
       0.242159 0.0065233475 -0.33689365 -0.10350889
000010 9c c5 75 3e ce 08 db 39 c2 4e 2d be 09 59 08 bc
       0.24001163 0.00041777495 -0.16924575 -0.008322009
000020 53 35 11 3b e7 7f db 3e 6d ec 92 bc 85 ec 29 3e
       0.0022157028 0.4287102 -0.017935002 0.16594131
000030 1d 20 83 3b 30 08 df bd af c7 84 3e f6 a8 72 be
       0.004001631 -0.108902335 0.25933596 -0.23697266
000040 d0 7f e6 bd bc af 75 3e 7c bd fd bb e5 7d 6f 3d
       -0.11254847 0.23992819 -0.0077435356 0.05846967
000050 4f bb 88 be 3c be ed 3d 9a 75 64 3e f5 aa 4e 3c
       -0.26705405 0.1160855 0.22310486 0.0126140015
000060 f5 e0 6e 3a 99 53 7e 3e 68 92 7f 3e c3 cf 37 be
       0.00091125007 0.24836577 0.24958193 -0.17950349
000070 a8 1d 75 be 9b 8c 3e bd 5b 11 63 be 79 36 a7 3d
       -0.23937094 -0.04652081 -0.2217459 0.08164687
000080 96 06 e3 bd 04 b4 89 bd 0d dd f8 3d f4 1e e0 bd
       -0.110852405 -0.067237884 0.12151537 -0.10943404
000090 81 55 99 bd c8 87 88 be 4e 93 dc 3c bb 4f ee bd
       -0.07487012 -0.26666093 0.02692571 -0.11636301
0000a0 be 72 86 3c ee 4e 61 3e ca 44 71 be 7f d3 bb 3d
       0.016412135 0.22002766 -0.23561397 0.09171199
0000b0 eb 2e a7 3e 21 69 39 be b3 98 65 bd 35 9b 93 be
       0.32652983 -0.1810651 -0.05605383 -0.2882935
0000c0 51 8b 15 3e 71 16 96 be ec 6c 37 3d 47 17 3d 3e
       0.14603926 -0.29313996 0.04478161 0.18465911
0000d0 c2 58 3e bb 28 2d 34 bd 26 a5 ac bd 94 7f 81 3e
       -0.0029044603 -0.043988377 -0.08429937 0.25292647
0000e0 69 a9 c6 3e 6d 74 09 3e 5a 83 43 3e 03 c1 d5 3c
       0.38801125 0.13423319 0.19093075 0.026093012
0000f0 6c df 1c 3d 82 54 1d bd 20 cc 0c bc 67 c4 19 3e
       0.03829901 -0.03841067 -0.008593589 0.15016328
000100 ef 6e 2b 3d f0 1d 47 be f8 a2 16 be 61 52 de bd
       0.04185384 -0.19445014 -0.14710605 -0.10855556
000110 09 b4 bd bd 51 cf 76 bc 56 8f b6 bd 6a 1a 41 bc
       -0.092628546 -0.0150640765 -0.08914058 -0.011786083
000120 95 ba e9 3d b7 57 57 bc 0a 9a 33 be d0 15 55 3d
       0.11412541 -0.013143471 -0.1753923 0.052022755
000130 ae 05 e4 bd 9f 12 37 be df 70 85 3e 56 89 0d be
       -0.11133896 -0.17878197 0.26062676 -0.13821921
000140 e7 7c 46 bd 0b 6d 35 3e d8 b2 b9 3a 2c 76 63 3d
       -0.04845896 0.17717378 0.001416768 0.05553262
000150 c6 e7 24 3e ed e2 d9 3e 10 d6 be bc 60 4b 49 3e
       0.1610404 0.42555943 -0.023295432 0.1965766
000160 db f6 9d 3b 45 a5 0a 3b 3d 53 6b 3d c0 2b 44 be
       0.004820687 0.0021155637 0.05745243 -0.19157314
000170 ad 06 34 be 11 56 00 3e f4 14 3c bd 9a d6 c2 3d
       -0.17580672 0.12532832 -0.04591842 0.09513588
000180 d1 0f ea b9 2f 4c b9 3e 13 01 2a bc 2d 71 98 3d
       -0.00044643742 0.36190936 -0.010376233 0.074434616
000190 82 10 2f 3e 04 a9 0f 3d 98 d2 94 3d c4 77 9e 3e
       0.17096141 0.035073295 0.0726673 0.3095075
0001a0 36 a7 9a be 83 f6 07 be 5c 09 bf 3e de 1e b2 3a
       -0.30205697 -0.1327763 0.37311828 0.0013589521
0001b0 19 b2 9e 3a e5 d8 16 be eb 3d c4 bb 96 10 46 be
       0.0012107521 -0.14731176 -0.0059888265 -0.19342265
0001c0 1f eb f2 bc a1 a0 dd 3c 6b 14 4a be 14 e9 3f 3e
       -0.02965313 0.027054133 -0.19734351 0.18741256
0001d0 9e 87 37 3e db b1 63 be a0 7f cc bc ba 90 01 3e
       0.17922828 -0.22235815 -0.0249632 0.12652865
0001e0 50 64 98 be 86 e9 63 bd b9 36 41 3e 23 1a d5 be
       -0.29764032 -0.055642627 0.18868531 -0.41621503
0001f0 fc 5e 93 be d1 51 70 be fd c7 dd bd 3d 84 8d be
       -0.28783405 -0.2346871 -0.1082916 -0.27639952
000200 94 4e 81 3d 43 c4 64 be 44 cd b3 3d 12 ff 37 3e
       0.06313816 -0.22340493 0.08779386 0.17968395
000210 54 81 db be f9 62 e4 3e ca 6a c6 bc 45 9c 9c be
       -0.42872107 0.4460676 -0.024220843 -0.30587974
000220 6f 8c 7c be 08 6d 3d 3e f5 3e 27 3e 05 24 74 be
       -0.24662946 0.18498623 0.1633261 -0.23841865
000230 79 25 9b 3e 8b 85 b6 bc cb a2 9d 3d 4e 2f 22 3e
       0.30302027 -0.022280475 0.07697066 0.15838358
000240 76 26 c9 3d 13 1f e2 ba 50 bd ed 3d bb a0 2e be
       0.09821789 -0.0017251692 0.11608374 -0.17053501
000250 aa 8a b7 ba 66 c0 35 be 11 75 ca 3e 72 65 39 be
       -0.0014003117 -0.17749175 0.3954244 -0.18105105
000260 a6 87 92 bd 02 7d 88 3c d6 23 a8 3d 32 65 dd 3d
       -0.07154779 0.01666117 0.0820996 0.10810317
000270 ff 1a 0d bc 72 f5 9a 3e 08 aa 18 bd 90 4e 6e 3d
       -0.008612393 0.30265385 -0.03727153 0.05818039
000280 70 ab 2e bd c1 9b b1 bd 68 ba c1 3d 36 af 20 be
       -0.042643964 -0.08672286 0.09459382 -0.15691838
000290 e0 10 d8 ba ad a9 fe bd 31 23 12 be ba 15 22 be
       -0.0016484521 -0.12434707 -0.14271237 -0.158286
0002a0 e5 b7 8d be e4 13 75 3e a8 25 ab 3e aa 18 c0 bd
       -0.27679363 0.23933369 0.33427167 -0.09379704
0002b0 5e 56 ac 3d 09 c4 31 3c e5 16 d2 3e 1d 8a 8f 3e
       0.08414911 0.010849961 0.41033092 0.2803506
0002c0 d2 39 2f 3e d9 68 f7 bc 51 63 95 bd 88 b3 8e 3c
       0.171119 -0.030201362 -0.07294334 0.017419592
0002d0 8c 36 03 3c 3a 89 fe be e8 fc 1f bd bf 9d c4 3c
       0.00800861 -0.4971407 -0.03905955 0.024001
0002e0 0b 63 a9 3d 30 41 20 be 68 3c b0 3d 35 1e 99 bd
       0.08270844 -0.15649867 0.086052716 -0.07476465
0002f0 a2 90 9c 3d 73 0d 04 bd c8 c4 ac be c8 fe 24 be
       0.07644774 -0.03223939 -0.33743882 -0.16112816
000300 bb c7 6e 3c 4b a2 53 3e 9a 61 18 3d ec c8 36 bb
       0.014573987 0.20667379 0.037202455 -0.0027890755
000310 5e 8f 03 3e ee 3f 2c 3d 59 8b 4b be 60 5f 5a 3c
       0.12847659 0.042053156 -0.19877376 0.013328403
000320 54 02 5b 3e 90 19 38 b8 38 e6 0e bd b4 6f df 3d
       0.21387607 -4.3892825e-05 -0.034887522 0.109099776
000330 1a 20 48 3d f2 09 85 3e 89 7a a5 3e f0 6b e9 3d
       0.04885874 0.2598415 0.3232005 0.113975406
000340 22 08 b5 39 7c ad e1 be a2 d0 5e be e0 a4 6f 3c
       0.0003452907 -0.4407767 -0.21759275 0.014626712
000350 e4 0a a7 be c6 8f 6f be fa 64 ce bd 35 27 f9 3e
       -0.32625496 -0.23394689 -0.100778535 0.48662725
000360 82 35 1e 3e 8e f4 01 3e ae f6 6f 3d c1 46 22 be
       0.15450099 0.12690946 0.05858486 -0.15847303
000370 7e 26 d8 38 9e 81 e3 bc 1e 8c cd 3d eb 93 88 3d
       0.00010306852 -0.027771767 0.10036491 0.06668838
000380 3e 78 f1 be 5c e8 63 bb 24 96 ae 3e 49 f5 5a 3c
       -0.4716205 -0.0034775948 0.34098923 0.013364145
000390 42 37 7e 3e ed 7d 54 bb e0 a5 19 bd b7 33 74 be
       0.24825767 -0.003242369 -0.037511706 -0.23847853
0003a0 af b7 d5 bd 04 04 b3 3e cf d3 e9 bd ab 11 62 be
       -0.104354255 0.34964 -0.114173524 -0.22077052
0003b0 0d 0e 90 bb e2 90 da 3e e9 1e 09 3c 51 c8 21 3e
       -0.0043962062 0.42688662 0.008369186 0.15799071
0003c0 2a 45 d2 3e 9c 6e 14 be de 63 f8 3d 04 7f 35 be
       0.41068393 -0.14495319 0.12128423 -0.17724234
0003d0 47 1c ca be 13 99 70 3d dd a5 cd be 8d d0 1c be
       -0.394747 0.058739733 -0.40165606 -0.15313931
0003e0 56 65 3c bb 80 1a 38 3e 7e 05 47 3e 8c 09 ac bd
       -0.0028746924 0.17978859 0.19435689 -0.084002584
0003f0 df 62 ab bd 95 63 62 3e d2 07 c9 3d bd 6b b8 bc
       -0.083684675 0.221083 0.09815945 -0.022512311

predAlpha/Mod_B0_L7/batchnorm/sub f4 [14]
000000 9f fc 35 bf 30 85 9b bf 00 f1 56 bf 4e 8c 30 bf
       -0.71088594 -1.2150021 -0.83961487 -0.6896409
000010 ae c2 e6 be 02 a6 1f bf 41 f6 2e bf d8 9c c5 be
       -0.45070404 -0.6236268 -0.68344504 -0.38596225
000020 39 ac 61 bf b0 86 28 bf f2 14 7d bf 76 de 8f bf
       -0.88153416 -0.65830517 -0.98860085 -1.1239765
000030 e3 9e 88 bf 91 95 1b bf
       -1.0673488 -0.60775095

predAlpha/Mod_B0_L7/batchnorm/mul f4 [14]
000000 89 62 97 40 49 61 0c 41 e8 f5 d6 40 0f 56 ef 40
       4.730778 8.773751 6.717518 7.479255
000010 38 76 b9 40 f9 9a e9 40 c1 0c 44 40 e8 0f 97 3f
       5.795681 7.3001676 3.0632784 1.1801729
000020 fa e8 4a 40 83 e3 09 41 c2 83 1a 41 ee 45 18 40
       3.1704698 8.618045 9.657167 2.3792682
000030 df 99 a8 40 a4 5d 76 40
       5.268783 3.8494654

predAlpha/Mod_B0_L3/batchnorm/sub f4 [28]
000000 84 37 a1 bf f0 86 a5 bf 08 9b 1b bf d2 74 ac bf
       -1.2595067 -1.2931805 -0.60783434 -1.3473151
000010 40 50 2f bf bb be de 3c 89 1a c1 bf 1c 26 c0 bf
       -0.68481827 0.027190557 -1.5086223 -1.501163
000020 f4 6d 12 3d 24 c4 0f bf d5 76 07 bf 12 dc 2b bf
       0.03574939 -0.5615866 -0.529157 -0.67132676
000030 72 cf 26 3d 2e 98 5a bf da 0d fa 3c ff 61 a9 bf
       0.04072518 -0.8538846 0.030524183 -1.3233031
000040 c6 ef 2c bf 93 b4 ad bf 24 80 0c be 74 ae 46 be
       -0.67553365 -1.3570732 -0.13720757 -0.19402486
000050 e1 2d 1f bf b3 ce 30 c0 18 6b 3b bf c4 87 f6 bf
       -0.6217938 -2.762616 -0.7321029 -1.9260182
000060 03 43 e8 3c 76 69 ad bf 8c 43 b0 be d8 93 61 bf
       0.028352266 -1.3547809 -0.34426534 -0.88116217

predAlpha/Mod_B0_L3/batchnorm/mul f4 [28]
000000 82 e3 18 41 47 cb 23 3f 9b af b1 40 e8 41 dd 3f
       9.555544 0.6398205 5.552686 1.7285738
000010 23 8e c3 3f 24 f3 f7 41 e6 11 86 40 e5 e4 c1 40
       1.5277752 30.993721 4.189685 6.059191
000020 ab 92 f9 41 39 3f bd 3f 31 e0 d7 40 20 75 8b 3f
       31.196615 1.4784919 6.746117 1.0895119
000030 a5 3c f8 41 9f 15 5a 41 59 74 f9 41 7c 76 4b 3f
       31.029612 13.630279 31.18181 0.7947767
000040 30 bd 4d 40 5d f4 2d 40 dc ba b0 3f c5 6c 88 40
       3.214672 2.7180398 1.3807025 4.2632775
000050 0c 01 9c 3f b7 53 94 40 b7 c5 cf 3f 50 ad 87 3f
       1.218782 4.635219 1.6232213 1.0599766
000060 6b 46 fb 41 d3 8e fd 3e 2d 57 87 41 88 0c b4 40
       31.409384 0.4952303 16.917566 5.6265297

predAlpha/Mod_B1_L0/BiasAdd/ReadVariableOp f4 [32]
000000 64 de 31 3e 63 61 93 3d 74 5c 43 bd 4e 91 f0 3c
       0.17369992 0.071963094 -0.047695592 0.029366162
000010 98 dc e3 3d 25 fd 6a 3d 2c 8d 0e 3e 5e c5 9c bd
       0.11126059 0.057370324 0.1392104 -0.07654832
000020 70 94 2f 3e 0c d4 d8 3a df 80 ea 3c ed 61 02 3e
       0.17146468 0.0016542687 0.028625904 0.12732668
000030 74 06 3b 3e 52 fd 6b 3e 5f d1 8f ba f1 e7 05 3e
       0.1826418 0.23045853 -0.0010972432 0.1307676
000040 0e 68 8f 3e 04 9e 59 3d 27 49 76 3c 1e 0e 19 3d
       0.28009075 0.05312921 0.015032089 0.03736698
000050 ad a3 7f bc fa af 04 3d a5 7c 64 3d 68 67 5d bd
       -0.015602988 0.032394387 0.055782933 -0.054053694
000060 63 2c 20 3e fc 43 02 3e 53 9f 8a ba 77 eb 2f 3e
       0.15641932 0.12721246 -0.0010576047 0.17179666
000070 7f 3a 88 bd 61 34 c2 3d 2c 43 17 3e 74 1b 85 3e
       -0.06651782 0.09482647 0.14771718 0.25997508

predAlpha/Mod_B0_L5/BiasAdd/ReadVariableOp f4 [14]
000000 c0 43 81 bd 33 95 5b bc 1a c7 19 be 3a 65 9e bd
       -0.063117504 -0.013402271 -0.15017357 -0.07734151
000010 ce 99 ca bc 79 de 0b be 94 d9 f3 3d be 57 25 bd
       -0.024731543 -0.13659085 0.11906734 -0.04036688
000020 6f 81 1b bd 77 7a 8a bd 92 7d 18 bd a4 e0 05 bd
       -0.037965234 -0.067616396 -0.03722913 -0.032684937
000030 88 35 9f bc 23 57 50 bd
       -0.019434705 -0.05086435

predAlpha/Mod_B0_L1/BiasAdd/ReadVariableOp f4 [28]
000000 3d 2d 8b 3d 30 d3 72 3c a8 5f 50 3d fe f3 2d bd
       0.06795738 0.014820859 0.050872475 -0.042469017
000010 cf de be 3c e5 9e 8b bc ab 43 85 3d 0b 15 be 3b
       0.023299603 -0.01704354 0.06507047 0.0058008484
000020 22 16 66 bc 14 41 36 3d 27 b0 11 3c 0f dc 91 3c
       -0.014043363 0.044495657 0.008892096 0.017805127
000030 5e 3e b9 bc 82 25 38 bd 03 f8 5d bb 14 a5 34 3c
       -0.022612747 -0.044957645 -0.003386975 0.011025686
000040 32 02 31 3c 7f ce 3a 3d 38 78 01 3d f6 8f a2 3c
       0.010803746 0.045607086 0.03160879 0.019844037
000050 db ef c5 3c f8 03 9f bd 8d da 83 bc d6 1d 0d 3c
       0.024162224 -0.07764429 -0.016095424 0.0086130705
000060 54 c5 c4 bb 11 ad 11 3c ba 97 87 bb c5 08 af bb
       -0.0060049687 0.00889136 -0.0041379603 -0.0053416216

predAlpha/Mod_B0_L1/Tensordot/MatMul1 i1 [28, 57] scale=0.0031972658 zero_point=0
000000 e3 29 dc 2b 7c c8 aa e7 ea f5 12 ba 50 06 0a 70
       -0.09272071 0.1310879 -0.11510157 0.13748243 0.39646095 -0.17904688 -0.27496487 -0.07993165 -0.07033984 -0.03516992 0.057550784 -0.2238086 0.25578126 0.019183595 0.031972658 0.35809377
000010 7f 0d a8 cd d7 3c ee 3d a8 66 f4 a7 d6 0a e5 f9
       0.40605277 0.041564457 -0.28135937 -0.16306056 -0.1310879 0.19183594 -0.057550784 0.19503321 -0.28135937 0.32612112 -0.03836719 -0.28455666 -0.13428517 0.031972658 -0.086326174 -0.02238086
000020 dc 2d 39 97 2b 02 06 1d fa d9 e0 d3 9b eb 1c d2
       -0.11510157 0.14387695 0.18224415 -0.3357129 0.13748243 0.0063945316 0.019183595 0.09272071 -0.019183595 -0.124693364 -0.102312505 -0.14387695 -0.32292384 -0.06714258 0.08952344 -0.14707422
000030 51 ff d3 31 15 d2 0d f2 f8 0a 14 f1 ee cb e2 0d
       0.25897852 -0.0031972658 -0.14387695 0.15666603 0.06714258 -0.14707422 0.041564457 -0.04476172 -0.025578126 0.031972658 0.063945316 -0.047958985 -0.057550784 -0.16945508 -0.09591797 0.041564457
000040 e3 27 1a f5 08 3c 3b ff c1 ee 28 fe fd 0d 18 de
       -0.09272071 0.124693364 0.083128914 -0.03516992 0.025578126 0.19183594 0.18863869 -0.0031972658 -0.20142774 -0.057550784 0.12789063 -0.0063945316 -0.009591797 0.041564457 0.07673438 -0.10870704
000050 13 df b7 13 bc f6 0b fb 23 0a 15 01 b5 f5 da c2
       0.060748048 -0.10550977 -0.2334004 0.060748048 -0.21741408 -0.031972658 0.03516992 -0.015986329 0.1119043 0.031972658 0.06714258 0.0031972658 -0.23979494 -0.03516992 -0.121496096 -0.19823048
000060 39 07 c3 18 10 5c b8 ff 38 d4 27 b4 52 09 f7 1a
       0.18224415 0.02238086 -0.19503321 0.07673438 0.051156253 0.29414845 -0.23020314 -0.0031972658 0.17904688 -0.14067969 0.124693364 -0.24299219 0.2621758 0.028775392 -0.028775392 0.083128914
000070 e2 10 b7 da f0 01 e4 02 09 11 1f da 0f 14 0c 34
       -0.09591797 0.051156253 -0.2334004 -0.121496096 -0.051156253 0.0031972658 -0.08952344 0.0063945316 0.028775392 0.05435352 0.09911524 -0.121496096 0.047958985 0.063945316 0.03836719 0.16625783
000080 37 48 dd 18 44 30 fe cf ff b9 d4 c6 56 1e cb f1
       0.17584962 0.23020314 -0.1119043 0.07673438 0.21741408 0.15346876 -0.0063945316 -0.15666603 -0.0031972658 -0.22700587 -0.14067969 -0.18544142 0.27496487 0.09591797 -0.16945508 -0.047958985
000090 fb 0e 03 12 f0 46 71 43 3b 25 e3 d9 19 2b b4 d7
       -0.015986329 0.04476172 0.009591797 0.057550784 -0.051156253 0.2238086 0.36129102 0.21421681 0.18863869 0.118298836 -0.09272071 -0.124693364 0.07993165 0.13748243 -0.24299219 -0.1310879
0000a0 09 24 c9 46 d8 eb d4 dc ff 26 04 3c c8 12 d3 ac
       0.028775392 0.11510157 -0.17584962 0.2238086 -0.12789063 -0.06714258 -0.14067969 -0.11510157 -0.0031972658 0.121496096 0.012789063 0.19183594 -0.17904688 0.057550784 -0.14387695 -0.26857033
0000b0 b8 ea 37 53 c5 22 0d 3b e3 34 22 d3 57 fe cc 29
       -0.23020314 -0.07033984 0.17584962 0.26537305 -0.18863869 0.10870704 0.041564457 0.18863869 -0.09272071 0.16625783 0.10870704 -0.14387695 0.27816212 -0.0063945316 -0.16625783 0.1310879
0000c0 b5 c4 f0 b7 ed 55 10 00 d8 c9 e5 24 ff 50 3f 0d
       -0.23979494 -0.19183594 -0.051156253 -0.2334004 -0.060748048 0.2717676 0.051156253 0.0 -0.12789063 -0.17584962 -0.086326174 0.11510157 -0.0031972658 0.25578126 0.20142774 0.041564457
0000d0 06 e6 39 d6 dc d9 c5 eb 1e 51 fc ef f8 c7 eb 09
       0.019183595 -0.083128914 0.18224415 -0.13428517 -0.11510157 -0.124693364 -0.18863869 -0.06714258 0.09591797 0.25897852 -0.012789063 -0.05435352 -0.025578126 -0.18224415 -0.06714258 0.028775392
0000e0 f9 20 e5 fb 1f 2a ee 24 4e 23 e6 26 ad 2f f1 01
       -0.02238086 0.102312505 -0.086326174 -0.015986329 0.09911524 0.13428517 -0.057550784 0.11510157 0.24938673 0.1119043 -0.083128914 0.121496096 -0.26537305 0.15027149 -0.047958985 0.0031972658
0000f0 b4 0b c9 dd d4 07 f1 b9 ff 4a 0e 17 03 f5 45 2a
       -0.24299219 0.03516992 -0.17584962 -0.1119043 -0.14067969 0.02238086 -0.047958985 -0.22700587 -0.0031972658 0.23659767 0.04476172 0.07353711 0.009591797 -0.03516992 0.22061133 0.13428517
