Project/Models/Alphabets/P.tflite (tflite, 15504 bytes, 11 tensors)

predAlpha/Mod_B3_Lo/MatMul f4 [1, 32]
0	0xbddb2f7e	-0.10702418
1	0x3e8f4b8b	0.27987322
2	0x3e5cf6ad	0.21578474
3	0x3e9b3f07	0.30321524
4	0xbe56adec	-0.20964783
5	0xbf1e9cd4	-0.6195805
6	0x3d70619a	0.05868683
7	0xbe7ddf1b	-0.24792139
8	0x3e95fc8b	0.29294237
9	0xbebaa2f6	-0.36452454
10	0xbe03e200	-0.12879181
11	0xbecd0d15	-0.40049043
12	0xbeda3aab	-0.42622885
13	0xbf066e41	-0.52511984
14	0xbd0e4705	-0.0347357
15	0x3efaad70	0.48960447
16	0x3ec803a2	0.39065272
17	0xbeb591c7	-0.35462782
18	0xbe69a703	-0.22817616
19	0xbeb1ee2e	-0.3475203
20	0xbe9e0f7f	-0.30871198
21	0x3e0ec951	0.13943984
22	0xbf040c0a	-0.5158087
23	0xbf108205	-0.56448394
24	0xbe84e034	-0.25952303
25	0xbec73d02	-0.38913733
26	0x3e910357	0.2832286
27	0xbbe12f24	-0.0068720747
28	0xbec51f3a	-0.38500386
29	0xbedf773e	-0.43645662
30	0x3edd46e9	0.43218163
31	0xbe9f0567	-0.3105881

predAlpha/Mod_B1_L0/MatMul f4 [32, 28]
0	0xbd4c5d87	-0.049893882
1	0xbca68e6a	-0.02033158
2	0xbe9d9ab7	-0.307821
3	0x3df8543f	0.12125444
4	0x3b2bfe73	0.0026244193
5	0x3e93b109	0.28846005
6	0xbcacf1eb	-0.02111145
7	0x3dd7af6e	0.105315074
8	0x3e7b6e4a	0.2455379
9	0xbdfdb49f	-0.12387966
10	0x3db04ad1	0.0860802
11	0xbb285e7a	-0.0025691078
12	0x3c95c7fa	0.018283833
13	0x3e1b1a08	0.15146649
14	0xbe91ae62	-0.28453356
15	0xbd5d3c86	-0.054012798
16	0x3d569fd1	0.052398507
17	0xbb5c1abc	-0.003358527
18	0x3cd66565	0.026171396
19	0x3dc427da	0.095779136
20	0x3d72ac49	0.059246335
21	0x3dca1adc	0.09868404
22	0xbe98ccb2	-0.2984367
23	0xbe5c9cf7	-0.21544252
24	0x3ec3ad51	0.38218167
25	0x3ee02740	0.43779945
26	0xbe212eaa	-0.15740457
27	0xbe4db298	-0.2008766
28	0xbe6c9031	-0.2310188
29	0xbe653b7b	-0.22385971
30	0x3d9d9281	0.07693959
31	0x3d01fb89	0.031734023
32	0x3e77868c	0.2417242
33	0x3deab46e	0.114601955
34	0x3cb8e9a0	0.022572339
35	0xbd0d77bb	-0.034538012
36	0xbe13a90b	-0.14419954
37	0x3dd45115	0.10367028
38	0xbc2907ea	-0.010316828
39	0xbe318905	-0.17337425
40	0x3e43e2cd	0.19129486
41	0x3db9daa1	0.09074903
42	0x3e4a8b8e	0.19779798
43	0xbe474279	-0.19458951
44	0x3e139a6f	0.1441438
45	0xbeacdcaf	-0.33762118
46	0xbcceafca	-0.025230307
47	0xbb813804	-0.003943445
48	0xbe624c5d	-0.22099443
49	0x3e1c0174	0.1523493
50	0xbd260731	-0.040534202
51	0x3e58d5db	0.2117533
52	0xbea01fc5	-0.31274238
53	0xbe55e4df	-0.20888089
54	0xbe804eb9	-0.2506006
55	0x3df8cb0b	0.121481024
56	0x3cffac98	0.031210229
57	0xbea4a549	-0.32157353
58	0x3d2c91b5	0.042131145
59	0xbd37f968	-0.044915587
60	0x3e4f612a	0.20251909
61	0x3db4df97	0.08831709
62	0xbdd3bf69	-0.10339243
63	0x3e93b46e	0.28848594
64	0xbeca2127	-0.39478418
65	0xbda235f8	-0.0792045
66	0x3e066a2c	0.13126439
67	0xbd0df88b	-0.034660857
68	0xbdca47e0	-0.0987699
69	0xbe25f76b	-0.16207664
70	0x3d277e2d	0.040891815
71	0xbdae2a2d	-0.08504138
72	0xbedb094a	-0.42780524
73	0xbe836d7c	-0.25669467
74	0xbe5634dd	-0.20918603
75	0x3ee5ada5	0.44859043
76	0x3e1508a0	0.14554071
77	0x3e5a3e8e	0.21312925
78	0x3e40f955	0.18845113
79	0xbe8ba19d	-0.2727174
80	0xbeb5058e	-0.353558
81	0xbe892bb6	-0.2679116
82	0xbe3d1588	-0.18465245
83	0xbd9fd654	-0.07804552
84	0xbe795fc5	-0.2435294
85	0xbe86a826	-0.26300162
86	0x3e77386e	0.2414262
87	0xbeeb62e2	-0.4597388
88	0x3d3c2bd5	0.04594024
89	0x3e1f8a30	0.15580058
90	0xbdbf47ad	-0.09339843
91	0x3ea7ce4f	0.32774588
92	0xbd80639c	-0.06268999
93	0xbe3b9914	-0.18320113
94	0xbddb5965	-0.1071041
95	0x3cf7cc45	0.03024877
96	0x3e808941	0.25104716
97	0xbe982542	-0.29715925
98	0xbd3f7d36	-0.04675027
99	0x3d057856	0.032585464
100	0xbe12ace0	-0.14323759
101	0xbe6eeb90	-0.23332047
102	0x3cce265d	0.025164777
103	0x3cd4a1f2	0.025956128
104	0x3da3966f	0.07987677
105	0x3ee647fe	0.449768
106	0x3d0b0766	0.033942603
107	0x3db6a0be	0.08917378
108	0xbef8a5da	-0.48564035
109	0xbebdd61d	-0.37077418
110	0xbe97d143	-0.29651842
111	0x3dc0f3a8	0.09421474
112	0x3e8b1ef6	0.2717206
113	0xbbe112f0	-0.0068687126
114	0x3eb52dae	0.35386413
115	0xbea06bf9	-0.31332377
116	0xbda98926	-0.08278112
117	0xbea73319	-0.32656172
118	0xbe985324	-0.2975093
119	0xbd2f4f7c	-0.04280041
120	0xbee4cba8	-0.44686627
121	0x3cdc5b0d	0.026898885
122	0xbe025671	-0.12728287
123	0x3ea98a8f	0.33113524
124	0xbd903e9f	-0.07043194
125	0xbe921c04	-0.28537
126	0x3e5c9e91	0.21544863
127	0x3d9899dc	0.07451221
128	0x3e645326	0.22297344
129	0x3e049cdf	0.12950467
130	0x3e88e584	0.26737607
131	0xbe2eb5b2	-0.17061499
132	0xbe6b2e1e	-0.22966811
133	0x3cdc65e9	0.026904063
134	0xbef0fc19	-0.47067335
135	0x3e8d8b10	0.2764516
136	0x3e1e068f	0.1543219
137	0x3e27dc2d	0.16392584
138	0xbe4337ab	-0.19064204
139	0xbd7f88e9	-0.062386427
140	0x3e455951	0.19272353
141	0xbdd09462	-0.10184552
142	0x3e702842	0.23452857
143	0x3ca986da	0.020694185
144	0x3e69be28	0.22826445
145	0xbe936e17	-0.2879493
146	0xbcc15518	-0.023600146
147	0xbe87fc81	-0.26559833
148	0xbda43990	-0.08018792
149	0x3d095859	0.03353152
150	0xbeab25cf	-0.33427283
151	0x3d7504f2	0.05981917
152	0xbe664680	-0.22487831
153	0xbee50076	-0.44726914
154	0x3e605414	0.21907073
155	0x3ed34daf	0.41270205
156	0x3e9ddd54	0.30832922
157	0x3ed9b84d	0.42523423
158	0xbbd872c4	-0.006605478
159	0xbe442844	-0.19155985
160	0xbdcad3d0	-0.09903681
161	0x3c58a9ca	0.013224075
162	0x3dff6497	0.12470358
163	0xbe96c272	-0.29445225
164	0x3da36427	0.07978087
165	0xbdd6c3ca	-0.104865626
166	0xbe0e1e75	-0.13878806
167	0xbea03b32	-0.31295162
168	0xbc2c0ff9	-0.010501855
169	0xbd9db93d	-0.07701347
170	0xbe51c6af	-0.20485948
171	0xbde54232	-0.111942664
172	0x3e10e31b	0.14149134
173	0xbcf574d8	-0.029962942
174	0xbb53539f	-0.0032245887
175	0x3e155f54	0.14587146
176	0x3cc2e06d	0.023788655
177	0xbd573294	-0.05253847
178	0x3cc3b80c	0.023891471
179	0xbb83b59a	-0.0040194513
180	0xbe159c3e	-0.14610383
181	0xbdef8c7c	-0.11696717
182	0xbd953616	-0.07285707
183	0xbd1611f9	-0.036638234
184	0xbe8ce406	-0.27517718
185	0x3cf74a85	0.0301869
186	0x3bae5879	0.0053206054
187	0x3d97766f	0.07395636
188	0x3b238c37	0.00249554
189	0x3cc41842	0.023937348
190	0x3db1ca6f	0.08681189
191	0xbde4991b	-0.11162015
192	0xbd348aaa	-0.044077553
193	0xbe3d888a	-0.18509117
194	0xbc64bd21	-0.0139611075
195	0xbd26ba4f	-0.04070502
196	0x3e3ae1cd	0.18250199
197	0xbc743c26	-0.014906919
198	0xbcdb8250	-0.026795536
199	0xbea5a99e	-0.3235597
200	0x3e15d4ff	0.14632033
201	0xbe719e9a	-0.23595658
202	0x3e0fc533	0.1404007
203	0xbeb97b5d	-0.3622693
204	0x3d20e8be	0.03928446
205	0xbcf7bbd2	-0.030240927
206	0xbef6f520	-0.4823389
207	0xbd62c7f4	-0.05536647
208	0x3e1dfa11	0.15427424
209	0x3e8048a3	0.25055417
210	0x3e621ef6	0.22082123
211	0xbe687f1c	-0.22704738
212	0x3e266a06	0.16251382
213	0x3d2c695c	0.042092666
214	0x3e67b056	0.2262586
215	0x3e122ec7	0.14275657
216	0xbdd12697	-0.102124386
217	0x3e544d1f	0.20732544
218	0xbe808a6a	-0.25105602
219	0xbe7aee2f	-0.24504922
220	0xbe017e41	-0.12645818
221	0x3bdc9559	0.006731671
222	0xbe952caa	-0.29135638
223	0x3d2fd742	0.042929895
224	0xbe997b1f	-0.29976746
225	0xbe430f3b	-0.19048779
226	0xbd7e586f	-0.062096056
227	0xbdcb17d2	-0.09916653
228	0x3e19dec9	0.15026392
229	0xbdfec0c2	-0.124391094
230	0x3e0a9af3	0.13535671
231	0xbde65a0e	-0.11247645
232	0xbea832f3	-0.3285137
233	0xbeb06b57	-0.34456894
234	0x3d3db59a	0.046315767
235	0x3da703c9	0.08155019
236	0xbea66c9b	-0.32504734
237	0xbe422063	-0.18957667
238	0x3dae21ac	0.08502516
239	0xbd9d914b	-0.07693728
240	0x3d44ee46	0.048078798
241	0x3de59a66	0.1121109
242	0xbe889110	-0.26673174
243	0x3ee6f079	0.4510534
244	0x3d2fe3ee	0.04294198
245	0x3df8cc2f	0.1214832
246	0x3dea6fe0	0.1144712
247	0x3d6aaa72	0.057291456
248	0xbe9996b6	-0.29997796
249	0xbbf73285	-0.007543864
250	0x3e4951c8	0.19660103
251	0x3d106dab	0.035260838
252	0x3d89a032	0.06720008
253	0xbd3c01c5	-0.045900125
254	0x3bcf8244	0.0063326675
255	0xbe3cb54f	-0.18428539

predAlpha/Mod_B0_L5/Tensordot/MatMul f4 [14, 28]
0	0x3e547033	0.20745926
1	0xbeb49bbf	-0.35275075
2	0xbd8d95f8	-0.0691337
3	0x3deae146	0.11468749
4	0xba478516	-0.0007611079
5	0x3d4f66be	0.050635092
6	0xbe027f05	-0.12743767
7	0xbcb713c0	-0.022348285
8	0x3de7c6d3	0.113172196
9	0xbe342aeb	-0.17594497
10	0x3cc7e69a	0.024401952
11	0x3e34a24e	0.1764004
12	0xbdfe0074	-0.1240243
13	0xbe00b791	-0.12570025
14	0x3e5a9d44	0.21349055
15	0x3d9d1c5a	0.07671423
16	0x3d93cbdd	0.07216618
17	0xbe3a2f33	-0.18182068
18	0x3dc2062b	0.09473833
19	0xbe993645	-0.29924217
20	0xbe81d055	-0.25354257
21	0x3d7dde3d	0.06197952
22	0xbec0bbb7	-0.37643215
23	0xbea2eae2	-0.31819826
24	0xbd78b266	-0.06071701
25	0x3ccb8ffb	0.024848929
26	0xbd2bde54	-0.041960075
27	0x3e8f047f	0.27933118
28	0x3e538aa1	0.20658351
29	0x3ed64610	0.41850328
30	0xbe4888e6	-0.19583473
31	0xbdaf81e5	-0.08569697
32	0xbe69a09b	-0.22815172
33	0xbd0344cd	-0.032048035
34	0x3c85e237	0.01634322
35	0x3e67a4eb	0.22621505
36	0xbd971153	-0.07376351
37	0xbdc68ef5	-0.09695236
38	0x3bf7c14b	0.007560884
39	0xbdcdf3b7	-0.100562505
40	0x3c70bf27	0.014694012
41	0x3e0c350f	0.13692115
42	0xbe276e66	-0.16350707
43	0xbe8bd9f8	-0.27314734
44	0x3d921e6a	0.07134707
45	0xbebb514c	-0.36585462
46	0x3c9bab99	0.019002723
47	0xbeccc35b	-0.39992794
48	0xbe2262b9	-0.15857972
49	0xbd97256e	-0.07380186
50	0xbd6e4f31	-0.05818099
51	0xbce49bec	-0.02790638
52	0x3d8a2fac	0.06747374
53	0x3d8dd7f1	0.06925953
54	0x3ec9133f	0.39272496
55	0xbe090a8d	-0.13382931
56	0xbe2f406c	-0.17114419
57	0xbe0b5f27	-0.13610516
58	0xbe18c44a	-0.14918628
59	0x3b23e72f	0.0025009622
60	0xbca030f3	-0.01955459
61	0xbed17d27	-0.40915796
62	0x3ea36aae	0.31917328
63	0xbe61a98f	-0.22037338
64	0x3db7d656	0.08976428
65	0x3de40e85	0.11135582
66	0xbdfefe1c	-0.12450811
67	0xbe29ea86	-0.1659337
68	0x3d834b8f	0.06410896
69	0x3d83cc07	0.064353995
70	0x3cd56d29	0.026053028
71	0x3de7f4d2	0.11325993
72	0x3e9dbb24	0.3080684
73	0x3e0be8a4	0.13662964
74	0xbd9cb08d	-0.07650862
75	0x3e8ad1d6	0.27113217
76	0xbeca19e5	-0.3947288
77	0x3eb45c34	0.35226595
78	0xbd9f33e6	-0.07773571
79	0xbd25258a	-0.040319003
80	0x3c527a6c	0.01284657
81	0x3dac5a48	0.08415657
82	0x3db4d41b	0.088295184
83	0xbeecec68	-0.46274114
84	0x3d835150	0.064119935
85	0xbedccb68	-0.43123937
86	0xbd911100	-0.070833206
87	0xbe12ed14	-0.1434825
88	0xbba897d2	-0.0051450515
89	0xbc7bf09a	-0.015377188
90	0x3e559e01	0.20861055
91	0xbe868fe5	-0.26281658
92	0xbde966bc	-0.11396548
93	0xbe822082	-0.25415426
94	0x3e329871	0.17440964
95	0xbdfe4daa	-0.12417157
96	0x3dc5a460	0.09650493
97	0x3e19540f	0.14973472
98	0xbe0d154c	-0.13777655
99	0xbdcc9131	-0.099886306
100	0x3ed158ab	0.4088796
101	0x3e8cd712	0.27507836
102	0xbe169596	-0.147055
103	0xbdffd439	-0.1249165
104	0x3eba1dae	0.3635077
105	0x3ed6b218	0.4193275
106	0xbea8e196	-0.32984608
107	0xbdfe4231	-0.12414969
108	0x3d408612	0.04700286
109	0xbe3470e0	-0.17621183
110	0xbdc892e3	-0.097936414
111	0x3d0fd06b	0.035110872
112	0x3e0c3bc2	0.13694671
113	0xbe72bfb2	-0.23705938
114	0xbe3d103b	-0.18463223
115	0xbe37e83b	-0.17959683
116	0x3e5a93df	0.21345471
117	0x3e00f27e	0.12592503
118	0xbd492013	-0.049102854
119	0xbe74095e	-0.23831698
120	0xbb259a51	-0.0025268982
121	0x3e86e194	0.26343977
122	0x3d8407d7	0.06446808
123	0x3e3a71c8	0.18207467
124	0xbd26dd9a	-0.04073868
125	0xbd17c40c	-0.0370522
126	0xbe7da131	-0.24768521
127	0x3e18f860	0.14938498
128	0xbe869e56	-0.26292676
129	0x3ec38e90	0.38194704
130	0xbec4db22	-0.38448435
131	0x3d0bf30a	0.034167327
132	0xbdbb87cc	-0.091567606
133	0x3e582d94	0.21111137
134	0xbe37e189	-0.17957129
135	0x3e0c0bc6	0.13676366
136	0x3cad2894	0.021137513
137	0x3df00c2f	0.11721074
138	0x3d29734d	0.041369725
139	0x3e9a512c	0.30140054
140	0x3e714569	0.23561634
141	0xbccae439	-0.024767028
142	0xbe232a56	-0.15934119
143	0xbe9df4bd	-0.30850783
144	0x3dcb84a7	0.09937411
145	0x3df4d136	0.11953966
146	0x3d35d8e7	0.044396307
147	0xbd356458	-0.04428515
148	0xbdcbb59f	-0.09946751
149	0x3c8b437d	0.016999954
150	0x3e7d8bff	0.24760436
151	0xbe00f58c	-0.12593669
152	0x3e3205c1	0.17385007
153	0xbdc3c71e	-0.09559463
154	0xbed19496	-0.40933675
155	0xbe93183d	-0.2872943
156	0xbecefa76	-0.40425462
157	0xbacaec10	-0.0015481729
158	0x3d5a19e4	0.053247347
159	0x3d14d5b6	0.036336623
160	0x3d5770f1	0.052597944
161	0x3e16bfd0	0.14721608
162	0x3c2926ae	0.010324163
163	0x3e09fdc0	0.13475704
164	0xbe0d38c2	-0.13791183
165	0xbe588b64	-0.21146923
166	0x3a0da806	0.00054037606
167	0x3da1994d	0.07890568
168	0xbd97fde9	-0.074214764
169	0x3e8ec332	0.27883297
170	0x3b200a3c	0.0024420163
171	0xbe499fd7	-0.1968988
172	0xbdeaccbf	-0.114648335
173	0x3e0b2e71	0.13591935
174	0xbdeb4e94	-0.11489597
175	0x3ea150e7	0.31507036
176	0x3d01c80e	0.031684928
177	0xbe6d729e	-0.23188254
178	0x3ed57378	0.41689658
179	0xbe6449da	-0.22293797
180	0xbe9fb4bb	-0.31192574
181	0xbea58f58	-0.32335925
182	0xbdd17ec0	-0.10229254
183	0xbe2acfcf	-0.16680835
184	0x3dee2301	0.1162777
185	0x3db52ec0	0.088468075
186	0xbdbc4d7a	-0.09194465
187	0x3e3163ad	0.1732318
188	0x3e3bb24f	0.18329738
189	0xbd8a9e11	-0.0676843
190	0xbe4dfd93	-0.20116262
191	0x3ec182a9	0.37794998
192	0xbe9c325b	-0.30507168
193	0xbd9c973e	-0.07646035
194	0x3e8d4106	0.2758867
195	0xbe338241	-0.17530157
196	0x3eaaca88	0.33357644
197	0xbd68c15b	-0.056825023
198	0xbef8cda1	-0.48594382
199	0xbec59dbe	-0.3859691
200	0x3dadf8c6	0.084947154
201	0x3e8a37f3	0.2699581
202	0xbea4bac3	-0.32173738
203	0xbe197557	-0.14986168
204	0x3db9065b	0.09034415
205	0x3d9a2563	0.07526662
206	0xbec07c96	-0.37595052
207	0x3d86ab24	0.06575611
208	0x3d728ae8	0.059214503
209	0xbed9b925	-0.42524067
210	0xbeab7a7e	-0.33491892
211	0xbbaa3198	-0.0051939003
212	0x3cd5b27f	0.02608609
213	0x3db84ffb	0.0899963
214	0x3d856b76	0.06514637
215	0x3dda9f3d	0.106749035
216	0xbd00d908	-0.031456977
217	0xbd1e8f75	-0.03871103
218	0x3ddbaab5	0.10725919
219	0xbceda769	-0.029010491
220	0x3df17219	0.117893405
221	0x3e739ecf	0.2379105
222	0x3e5cc9c9	0.2156135
223	0x3e9eae16	0.30992192
224	0x3e678e43	0.22612862
225	0x3e6410cb	0.22272031
226	0x3dac0e12	0.08401121
227	0x3e16a279	0.14710416
228	0x3e8252c3	0.25453767
229	0xbe408a4a	-0.18802753
230	0x3caa41fb	0.020783415
231	0x3de399d3	0.11113324
232	0x3e8cae4c	0.27476728
233	0xbd248db3	-0.040174197
234	0xbe3d00fe	-0.1845741
235	0x3c9a006f	0.018799035
236	0xbec43526	-0.383218
237	0xbe91ee1e	-0.28501981
238	0x3c06909f	0.008213191
239	0xbcb0d595	-0.021586219
240	0xbeb8ba44	-0.3607961
241	0xbe9bd2dd	-0.30434313
242	0x3d8df1c0	0.06930876
243	0x3e380a95	0.17972787
244	0x3e0d76a0	0.13814783
245	0xbe87215e	-0.26392645
246	0xbe9ed66a	-0.3102296
247	0xbe0b520c	-0.13605517
248	0xbe4a0b76	-0.19730935
249	0x3e34faf9	0.17673863
250	0x3e07d51f	0.13264893
251	0xbc7a7b5e	-0.015288202
252	0xbe962d43	-0.29331407
253	0x3e87921c	0.2647866
254	0x3e1e4886	0.15457353
255	0x3d865715	0.06559578

predAlpha/Mod_B0_L7/batchnorm/sub f4 [14]
0	0xbec01537	-0.37516186
1	0xbf232318	-0.63725424
2	0xbf0841cf	-0.53225416
3	0xbef01c8e	-0.46896785
4	0xbf9c8581	-1.2228242
5	0xbf82438d	-1.0176865
6	0xbeee86b9	-0.4658716
7	0xbf9ce29b	-1.2256655
8	0xbf171646	-0.5901836
9	0xbf2deb27	-0.6793694
10	0xbf1d52d4	-0.6145451
11	0xbf2c5d58	-0.6732993
12	0xbed4f76f	-0.41595027
13	0xbf4ebbc2	-0.80755246

predAlpha/Mod_B0_L7/batchnorm/mul f4 [14]
0	0x40ba8abf	5.829437
1	0x40a1bdf4	5.0544376
2	0x4101ae9c	8.105129
3	0x407bfd8b	3.93735
4	0x40386f22	2.881783
5	0x40976346	4.7308683
6	0x4059135f	3.3918073
7	0x408bc326	4.367572
8	0x40d87766	6.764575
9	0x3f83191e	1.024204
10	0x410b8ef3	8.7224
11	0x409e9d4e	4.956702
12	0x3f5dbfd4	0.8662083
13	0x400ad89e	2.1694713

predAlpha/Mod_B0_L3/batchnorm/sub f4 [28]
0	0xc03e684f	-2.9751165
1	0xbefb8906	-0.49127978
2	0xbf17ce97	-0.59299606
3	0xbdca96ff	-0.098920815
4	0xbf9d1451	-1.2271825
5	0xbf533e13	-0.8251659
6	0xbf15200d	-0.5825203
7	0xbf0a3b32	-0.53996575
8	0xbf428171	-0.7597876
9	0xbd3d5bb2	-0.046230026
10	0xbe956af4	-0.2918316
11	0xbdc201c2	-0.094729915
12	0xbf14a459	-0.58063275
13	0xbd1dc38a	-0.03851656
14	0xbf1ed2e7	-0.6204056
15	0xbfdf1799	-1.7429076
16	0xbfcc77b4	-1.597403
17	0xc05db23b	-3.4640033
18	0xbeafbe62	-0.34324938
19	0xbf062969	-0.52406937
20	0xbd8e42da	-0.06946345
21	0xbe340d26	-0.1758314
22	0xbf2651e9	-0.64968735
23	0xbf6ad408	-0.91729784
24	0xbf38882e	-0.72082794
25	0xbe2a07bd	-0.16604514
26	0xbd455071	-0.048172418
27	0xbf0165d2	-0.5054599

predAlpha/Mod_B0_L3/batchnorm/mul f4 [28]
0	0x40d521dd	6.6603837
1	0x3f881fa4	1.0634656
2	0x3ef40dd9	0.47666815
3	0x412cf2fe	10.809324
4	0x401bfd90	2.4373512
5	0x3ead1b93	0.338101
6	0x3fdd03f1	1.7266828
7	0x4093525e	4.6038046
8	0x3f9fd728	1.2487535
9	0x404ba5a5	3.1819851
10	0x3fe63ae6	1.7986724
11	0x4008e2df	2.138847
12	0x3fbc47c1	1.4709398
13	0x40f39104	7.611452
14	0x3f8f6f31	1.1205808
15	0x3fbfa4f3	1.4972214
16	0x4088bffa	4.2734346
17	0x4020e392	2.5138898
18	0x40ed6ca6	7.4195127
19	0x3f55e138	0.8354678
20	0x40690354	3.6408281
21	0x404f0c43	3.2351234
22	0x4048de4c	3.138568
23	0x3fe820b0	1.8134975
24	0x403bc404	2.9338388
25	0x40256bfe	2.5847163
26	0x41152ea0	9.323883
27	0x3fb71c56	1.4305522

predAlpha/Mod_B1_L0/BiasAdd/ReadVariableOp f4 [32]
0	0x3db8be89	0.09020717
1	0x3aae55a7	0.0013300673
2	0x3db4e9aa	0.088336304
3	0x3d349605	0.044088382
4	0x3e45c83a	0.19314662
5	0x3e0c1265	0.13678892
6	0xbc6309c8	-0.0138573125
7	0x3db8ecf2	0.09029569
8	0x3ba2114f	0.004945911
9	0x3e0a02fc	0.13477701
10	0x3e05b035	0.13055499
11	0x3db0af2d	0.08627162
12	0x3e1426c6	0.14467916
13	0x3e3d742d	0.18501349
14	0x3c92fde8	0.017943338
15	0x3d48a778	0.048987836
16	0x3db0b82a	0.086288765
17	0x3e0b504a	0.13604847
18	0x3dd9681f	0.10615563
19	0x3e27732a	0.16352525
20	0x3d542561	0.05179346
21	0xbda4d5d2	-0.080485955
22	0x3dc3c3b9	0.095588155
23	0x3e00d542	0.12581351
24	0x3e82ece1	0.2557135
25	0x3dc8445f	0.09778666
26	0x3ca0eea9	0.019645052
27	0xbd22557b	-0.0396323
28	0x3e0db3a1	0.13838054
29	0x3e024e02	0.1272507
30	0x3d0a1a52	0.033716507
31	0x3dc71b32	0.09721984

predAlpha/Mod_B0_L5/BiasAdd/ReadVariableOp f4 [14]
0	0xbdb70aa4	-0.089375764
1	0xbd086e4d	-0.033308316
2	0xbd325034	-0.04353352
3	0xbdf3a263	-0.11896207
4	0xbcd3bb78	-0.025846228
5	0xbd7352a1	-0.059404973
6	0xbb8a2786	-0.0042161373
7	0xbd22f5cb	-0.039785188
8	0xbd706c22	-0.058696873
9	0xbd6e72ae	-0.058214836
10	0xbd30f7d4	-0.043205097
11	0xbda164c8	-0.078805506
12	0x3c68c88c	0.01420797
13	0xbc42a00f	-0.011878981

predAlpha/Mod_B0_L1/BiasAdd/ReadVariableOp f4 [28]
0	0x3c8cfc99	0.017210292
1	0xbcba374c	-0.022731446
2	0xbcc9dbbd	-0.024640912
3	0x3bb2e6ed	0.0054596574
4	0x3c7e733e	0.015530406
5	0x3cc9a3b7	0.024614198
6	0xbcbb7173	-0.022881245
7	0xbc66ce44	-0.0140872635
8	0x3c1120d6	0.008857926
9	0xbc0c274f	-0.008554294
10	0xbc0d3a11	-0.008619801
11	0xbcf4dd10	-0.029890567
12	0x3cd3f877	0.025875313
13	0xbd26830d	-0.040652324
14	0xbc9412cc	-0.01807537
15	0xbd0f1138	-0.03492853
16	0x3c87f622	0.016596857
17	0x3c9baa74	0.019002177
18	0x3b83c355	0.004021088
19	0xbc866574	-0.016405798
20	0x3bab3aa4	0.0052254964
21	0x3d0d6314	0.034518316
22	0x3b9730ea	0.0046139853
23	0x3d51c744	0.051215425
24	0xbcc65c44	-0.024213918
25	0xbc02be48	-0.007979937
26	0xbc63d8f1	-0.013906703
27	0x3c16ea69	0.009211161

predAlpha/Mod_B0_L1/Tensordot/MatMul1 i1 [28, 57] scale=0.003398974 zero_point=0
0	0x01	0.003398974
1	0x08	0.027191792
2	0x58	0.2991097
3	0xed	-0.06458051
4	0x24	0.12236306
5	0x21	0.112166144
6	0xb7	-0.2481251
7	0xcc	-0.17674665
8	0xdf	-0.112166144
9	0x3e	0.21073638
10	0x20	0.10876717
11	0x0c	0.04078769
12	0x34	0.17674665
13	0xdc	-0.12236306
14	0xf2	-0.047585636
15	0xc4	-0.20393844
16	0x51	0.2753169
17	0x01	0.003398974
18	0xf4	-0.04078769
19	0xf0	-0.054383583
20	0x03	0.010196922
21	0x5f	0.32290253
22	0x42	0.22433229
23	0xe1	-0.10536819
24	0x12	0.06118153
25	0x25	0.12576203
26	0xfd	-0.010196922
27	0xef	-0.057782557
28	0x32	0.1699487
29	0x04	0.013595896
30	0xb2	-0.26511997
31	0x00	0.0
32	0xfc	-0.013595896
33	0xf4	-0.04078769
34	0xd0	-0.16315076
35	0xb8	-0.24472612
36	0xa8	-0.2991097
37	0x37	0.18694356
38	0x10	0.054383583
39	0x03	0.010196922
40	0x10	0.054383583
41	0xf4	-0.04078769
42	0x34	0.17674665
43	0xce	-0.1699487
44	0x49	0.2481251
45	0x04	0.013595896
46	0x12	0.06118153
47	0x7f	0.43166968
48	0xee	-0.06118153
49	0xf8	-0.027191792
50	0xe9	-0.0781764
51	0x39	0.19374152
52	0xd6	-0.14275691
53	0x04	0.013595896
54	0xf6	-0.03398974
55	0xee	-0.06118153
56	0x09	0.030590765
57	0x2f	0.15975177
58	0xfa	-0.020393845
59	0x1c	0.09517127
60	0x26	0.12916102
61	0xe0	-0.10876717
62	0xd8	-0.13595895
63	0x42	0.22433229
64	0x3f	0.21413536
65	0xd6	-0.14275691
66	0xc6	-0.19714049
67	0x12	0.06118153
68	0xf7	-0.030590765
69	0x14	0.06797948
70	0x1d	0.09857024
71	0xad	-0.28211483
72	0xe1	-0.10536819
73	0x20	0.10876717
74	0x00	0.0
75	0xd4	-0.14955485
76	0x18	0.08157538
77	0xc3	-0.20733741
78	0xd8	-0.13595895
79	0xe5	-0.091772296
80	0xed	-0.06458051
81	0x06	0.020393845
82	0xdb	-0.12576203
83	0xd4	-0.14955485
84	0xf0	-0.054383583
85	0x10	0.054383583
86	0x1b	0.091772296
87	0xfd	-0.010196922
88	0x1c	0.09517127
89	0x44	0.23113023
90	0xda	-0.12916102
91	0xc6	-0.19714049
92	0xef	-0.057782557
93	0xcd	-0.17334767
94	0x20	0.10876717
95	0xf7	-0.030590765
96	0x08	0.027191792
97	0xc8	-0.19034255
98	0x14	0.06797948
99	0xf7	-0.030590765
100	0x47	0.24132715
101	0xd9	-0.13255998
102	0x00	0.0
103	0x0a	0.03398974
104	0x11	0.057782557
105	0x4f	0.26851895
106	0xe5	-0.091772296
107	0xb8	-0.24472612
108	0x26	0.12916102
109	0xfe	-0.006797948
110	0xe2	-0.10196922
111	0x3b	0.20053947
112	0x1d	0.09857024
113	0x1a	0.088373326
114	0x9c	-0.3398974
115	0xe1	-0.10536819
116	0xf7	-0.030590765
117	0x10	0.054383583
118	0x32	0.1699487
119	0x32	0.1699487
120	0xfa	-0.020393845
121	0xe6	-0.088373326
122	0xda	-0.12916102
123	0x09	0.030590765
124	0x05	0.01699487
125	0x12	0.06118153
126	0x64	0.3398974
127	0x14	0.06797948
128	0x3d	0.20733741
129	0xca	-0.18354459
130	0x07	0.023792818
131	0x53	0.28211483
132	0x5d	0.3161046
133	0xd1	-0.15975177
134	0x35	0.18014562
135	0x36	0.18354459
136	0xd6	-0.14275691
137	0x4b	0.25492305
138	0xb0	-0.2719179
139	0x08	0.027191792
140	0xb3	-0.261721
141	0xff	-0.003398974
142	0xcb	-0.18014562
143	0xee	-0.06118153
144	0x9f	-0.32970047
145	0x07	0.023792818
146	0x41	0.2209333
147	0xe8	-0.08157538
148	0xa4	-0.3127056
149	0xa4	-0.3127056
150	0x02	0.006797948
151	0xfd	-0.010196922
152	0x18	0.08157538
153	0xf4	-0.04078769
154	0xe1	-0.10536819
155	0x04	0.013595896
156	0x18	0.08157538
157	0x33	0.17334767
158	0x32	0.1699487
159	0xdd	-0.11896409
160	0x33	0.17334767
161	0x9b	-0.34329638
162	0xf9	-0.023792818
163	0x4b	0.25492305
164	0xfe	-0.006797948
165	0xbf	-0.2209333
166	0x28	0.13595895
167	0x02	0.006797948
168	0x23	0.11896409
169	0xe8	-0.08157538
170	0xf8	-0.027191792
171	0xdc	-0.12236306
172	0x05	0.01699487
173	0x16	0.074777424
174	0xd2	-0.1563528
175	0x9e	-0.33309945
176	0xce	-0.1699487
177	0x4e	0.26511997
178	0x45	0.2345292
179	0xff	-0.003398974
180	0x30	0.16315076
181	0xb0	-0.2719179
182	0xfd	-0.010196922
183	0x26	0.12916102
184	0x18	0.08157538
185	0x06	0.020393845
186	0xf1	-0.05098461
187	0xda	-0.12916102
188	0x59	0.30250868
189	0x18	0.08157538
190	0xbc	-0.23113023
191	0x19	0.08497435
192	0xe6	-0.088373326
193	0xf1	-0.05098461
194	0x3a	0.19714049
195	0x23	0.11896409
196	0x3d	0.20733741
197	0x00	0.0
198	0x04	0.013595896
199	0xe5	-0.091772296
200	0x5e	0.31950355
201	0xa0	-0.32630152
202	0xe0	-0.10876717
203	0x14	0.06797948
204	0x1a	0.088373326
205	0x0d	0.044186663
206	0x14	0.06797948
207	0x11	0.057782557
208	0x38	0.19034255
209	0xe3	-0.09857024
210	0xf1	-0.05098461
211	0xde	-0.11556511
212	0xcd	-0.17334767
213	0x4f	0.26851895
214	0xb1	-0.26851895
215	0xd7	-0.13935794
216	0x00	0.0
217	0x1d	0.09857024
218	0x20	0.10876717
219	0xbb	-0.2345292
220	0xff	-0.003398974
221	0x16	0.074777424
222	0x1a	0.088373326
223	0x0a	0.03398974
224	0xb5	-0.25492305
225	0x30	0.16315076
226	0xb4	-0.25832203
227	0x01	0.003398974
228	0x2f	0.15975177
229	0x25	0.12576203
230	0x50	0.2719179
231	0xd5	-0.14615588
232	0x50	0.2719179
233	0x1a	0.088373326
234	0x10	0.054383583
235	0xd6	-0.14275691
236	0x18	0.08157538
237	0xe0	-0.10876717
238	0xa4	-0.3127056
239	0x36	0.18354459
240	0xdf	-0.112166144
241	0xe3	-0.09857024
242	0xfd	-0.010196922
243	0x51	0.2753169
244	0x21	0.112166144
245	0xb4	-0.25832203
246	0x1e	0.10196922
247	0xfb	-0.01699487
248	0xdf	-0.112166144
249	0xc6	-0.19714049
250	0x0f	0.05098461
251	0x0c	0.04078769
252	0xfd	-0.010196922
253	0x25	0.12576203
254	0x22	0.11556511
255	0x08	0.027191792
