Project/Models/Alphabets/X.tflite (tflite, 15504 bytes, 11 tensors)

predAlpha/Mod_B3_Lo/MatMul f4 [1, 32]
000000 a1 fb d0 3e da 44 cc 3e 0d 87 14 bc 4a b2 e7 3d
       0.40816978 0.3989628 -0.009065402 0.11313303
000010 72 b2 03 bf 7a f7 d1 be 8f a1 6a be 69 f2 54 be
       -0.5144416 -0.41009122 -0.22913192 -0.20795597
000020 c1 9f 9f be ec e5 06 3f 9e 8d 73 be ba a4 7e be
       -0.3117657 0.5269458 -0.23784491 -0.24867526
000030 b2 7d d4 bd bc 07 4a be d6 0a b0 3e 73 9c e8 3e
       -0.10375537 -0.19729513 0.34383267 0.4543186
000040 58 b6 25 3e e5 e4 cf be 34 34 17 bf cd 2a 68 3e
       0.1618284 -0.4060432 -0.5906403 0.22672577
000050 57 7c 08 bc 47 4a 85 3e 72 b3 0c bd b6 79 cb 3d
       -0.008330426 0.26033232 -0.03435082 0.09935324
000060 d0 6a 29 bf 60 55 b9 be a2 70 b3 3d 99 0f ea 3d
       -0.6617861 -0.36197948 0.087617174 0.11428756
000070 68 d3 c6 be 6a 09 26 bf 90 74 f0 be 35 0d 39 3e
       -0.38833165 -0.64858115 -0.4696393 0.18071444

predAlpha/Mod_B1_L0/MatMul f4 [32, 28]
000000 e3 6b e7 bd 29 b6 2a be 98 e9 d5 bc 4d bb da 3d
       -0.11299875 -0.16671051 -0.026112363 0.10680256
000010 13 e4 52 ba a6 6a a8 be 58 3c 14 3d 43 3f ec 3d
       -0.000804485 -0.32893866 0.03619036 0.11535504
000020 48 fb ba 3d 55 69 dc be 71 d2 c9 be be 4b 30 be
       0.09129959 -0.43049112 -0.39418367 -0.17216393
000030 cc 8b 34 3e 68 20 90 bd 14 21 0b 3e 75 3f 73 3e
       0.17631453 -0.07037431 0.13586837 0.23754676
000040 37 a2 9e 3e 43 04 27 3e 24 b2 97 be 67 d0 23 3e
       0.30983135 0.1631022 -0.29628098 0.15997468
000050 8f 24 6c 3e 8a c3 b4 3d eb a7 b9 bd a8 ec b9 3d
       0.23060821 0.088263586 -0.09065231 0.09078342
000060 09 41 97 bd be 02 3c be ae 9f d3 bc 93 65 c7 bb
       -0.07385451 -0.18360421 -0.025832977 -0.0060851066
000070 f1 2b 9a be c2 05 8b bd 3e a4 fe 3d c0 bc 16 3d
       -0.3011165 -0.067882076 0.124336705 0.0368011
000080 87 64 c2 3c 3f 27 ce bd 20 8f 84 3c c8 fe 0c bd
       0.023729576 -0.10066079 0.016181529 -0.034422666
000090 5d 12 20 be bb a6 14 3d 71 af 48 be 73 c6 c0 bd
       -0.15632005 0.03629182 -0.19598176 -0.09412851
0000a0 5b 1c a3 3e 49 63 08 be c6 46 f5 3d 1c 2e b3 3d
       0.3185757 -0.13319124 0.119763896 0.08749029
0000b0 f2 4b 48 bd c3 a8 fa 3d d9 b1 28 be c2 8d 80 3e
       -0.048900552 0.1223922 -0.16474093 0.25108153
0000c0 96 9e 03 3e 29 3a 86 3e ea 35 64 bd 46 64 75 3d
       0.12853464 0.26216248 -0.05571548 0.05991008
0000d0 3e 8a bb be 93 0b 8d bd f5 22 cc 3d cc aa d6 be
       -0.36628908 -0.06886973 0.09967605 -0.41927183
0000e0 ea 93 e5 3d 5d 5f f8 3c 0b 8d 2b bd 8c 34 78 3e
       0.11209853 0.03031891 -0.041882556 0.24238795
0000f0 ef 87 3b bc ea a5 16 3e d5 f2 3c bd 24 1d 8e 35
       -0.011445983 0.14711729 -0.04613002 1.0588305e-06
000100 8d 51 fe 3d ff 2c 3c 3d e1 69 8e bd d7 21 ac 3d
       0.12417898 0.04594135 -0.069537885 0.08404892
000110 84 dc 8e bc 38 29 ce 3d 0c 25 84 bd 1b b3 77 bc
       -0.017439134 0.100664556 -0.06452379 -0.015118386
000120 67 2a ff 3d 11 8a 85 3d 07 1a a0 bc 2f 81 af 3c
       0.124592595 0.06520475 -0.01954366 0.021423904
000130 fd 0e 21 bd ad 27 80 be b0 40 7c 3d 3e 4f 15 bd
       -0.039320935 -0.2503027 0.06158513 -0.036452524
000140 d3 2a 54 bd 56 74 5d 3d e2 67 25 be df 62 84 3e
       -0.051798653 0.054066025 -0.1615291 0.25856683
000150 76 0a d7 bc ae 77 19 bd 67 88 19 be ea d4 6c 3d
       -0.026250105 -0.03746765 -0.1499344 0.05782024
000160 fc 83 ce 3e 1b cf 2e be 9c ae bf bd 52 4c aa bd
       0.4033507 -0.17071192 -0.09359476 -0.08315338
000170 65 52 a1 be 15 25 da 3d 93 80 15 3e 5b 94 2c be
       -0.31508175 0.10651604 0.14599828 -0.16853468
000180 66 2f 5c 3e 9b 6d 1b 3e db 75 8e 3d 94 fe 9a 3e
       0.21502456 0.1517853 0.06956073 0.30272353
000190 bb 79 f9 3b f7 41 02 be a6 2e bc be 35 a7 04 bb
       0.0076133884 -0.12720476 -0.3675434 -0.0020241265
0001a0 55 67 13 3e 97 74 59 3e 3e a6 2e be 9c 27 fe 3d
       0.14394887 0.21235882 -0.17055604 0.12409899
0001b0 2e a9 0d be 96 b8 72 be fd a7 dd 3c 3d af 00 be
       -0.13834068 -0.23703226 0.027057642 -0.12566848
0001c0 8b 69 ae be aa 85 86 be b2 34 25 3d 5a 6d aa be
       -0.34064898 -0.26273853 0.040333457 -0.33286554
0001d0 e9 ba 01 bf 01 5d f9 bd a2 39 b7 bd 2b 40 7f 3e
       -0.5067583 -0.12175942 -0.089465395 0.24926822
0001e0 53 44 bc 3d 5f 1d 92 3e e2 55 36 3e a4 50 f7 be
       0.09192719 0.28538033 0.17806199 -0.4830371
0001f0 6a fd 84 3d 45 94 81 bd 71 b1 80 be 8e d6 15 be
       0.064936474 -0.06327108 -0.25135377 -0.14632627
000200 84 3d d4 be 2f cd 9b be 99 79 af bd ca be 1e be
       -0.41453183 -0.3042998 -0.08568115 -0.15502468
000210 ce ab 3c bd f2 ab b0 bd 9f 71 70 3e 7f e6 96 3e
       -0.046062283 -0.08626546 0.23480843 0.2947273
000220 4e 3c 4f 3e d8 98 80 3d 9c d9 09 bf 34 95 54 bd
       0.20237848 0.06279153 -0.5384767 -0.051900104
000230 dc b0 9c 3e 42 cd d5 be be 09 3a bd 89 a1 74 bd
       0.30603683 -0.41758162 -0.045419447 -0.059724364
000240 72 d5 8c 3d ea 1f de bd 75 2e 29 3d a9 a1 94 3e
       0.06876649 -0.10845931 0.04130407 0.29029587
000250 ec 82 48 3e 5f 1d 9f 3d 99 45 e6 3d 5b b5 91 3d
       0.19581193 0.07769274 0.112437434 0.07114669
000260 a0 a6 c1 be 8f 49 dd be 70 8f a6 3e 7c 42 26 be
       -0.37822437 -0.43220183 0.3253131 -0.162363
000270 a0 b7 92 3e a8 ac 3a 3d 8d 2c c9 3d 18 f5 b6 be
       0.2865572 0.045574814 0.098229505 -0.35733867
000280 32 a2 92 3e 53 ab e4 bd 38 5a 64 be 02 5f 23 be
       0.2863937 -0.1116549 -0.2230004 -0.15954211
000290 97 d7 6f 3e 26 89 2e be c1 7c 02 3e f7 71 1a 3e
       0.23422085 -0.17044505 0.12742902 0.15082537
0002a0 8a 0d cd 3d 63 0b 2a be f4 8d 82 bc 73 37 8f bd
       0.10012348 -0.16605906 -0.01593683 -0.06992998
0002b0 ca de 52 3d 3f b8 b7 3c c7 56 06 be d7 8c 41 be
       0.051482 0.022426723 -0.1311904 -0.18901382
0002c0 16 79 3e be f3 a0 cc 3d 45 da 7a be 27 52 ac 3d
       -0.18600878 0.09991636 -0.24497326 0.08414107
0002d0 bc 09 be be 0e fd 57 be f0 27 cf 3d 15 6d 18 be
       -0.37116802 -0.21092626 0.10115039 -0.14885361
0002e0 dd a7 32 3e f2 5b 04 bf 05 06 e5 3d d9 14 d6 be
       0.17446847 -0.517028 0.11182789 -0.4181278
0002f0 6b 2e 03 3e 75 da 38 3d 20 aa 0f be 0a d6 b8 be
       0.12810676 0.04513021 -0.14029741 -0.361008
000300 5a 70 54 bd 08 40 4d 3d 49 c7 ca 3d 66 cd fc 3e
       -0.05186496 0.050109893 0.09901292 0.49375457
000310 a4 20 b8 3e 01 55 79 3d 04 44 39 bd 51 ce 95 bc
       0.35962403 0.06087208 -0.04523088 -0.018286856
000320 da 97 bb 3d 6e 41 a1 be be 20 37 3d 9c 8e 81 bd
       0.09159823 -0.3149523 0.04470896 -0.06326029
000330 a0 2f a0 be 7e b8 17 be 01 bf 8e bd e1 5f 26 3e
       -0.31286335 -0.14816472 -0.06970025 0.16247512
000340 c8 fd 43 be c6 7c 83 bd 10 b4 1b bd dc f1 c6 be
       -0.19139779 -0.06420283 -0.038013518 -0.388564
000350 d4 fa e0 3c 74 bf 6e be c1 f5 d3 3e 37 27 06 3e
       0.027463354 -0.23315221 0.41398433 0.13100897
000360 6e 66 a4 be 69 e5 43 bd 20 12 e0 3c 5a fa 22 be
       -0.32109398 -0.047826204 0.027352393 -0.15915814
000370 f1 45 b0 bd b1 c0 e1 3e 13 8e 2f be 7c 91 b6 3e
       -0.0860709 0.44092324 -0.17144041 0.3565787
000380 49 8e 38 3e 66 c6 96 bd 8e e9 a1 bd 51 bd af bc
       0.18023027 -0.0736206 -0.07905875 -0.021452578
000390 97 b2 bb 3d 9f 81 a6 bd 36 15 5f be 71 5e ce bd
       0.09164923 -0.08130192 -0.21785435 -0.10076607
0003a0 d0 d4 c6 bb b3 c2 6f be fd c5 1f 3e 52 47 55 3c
       -0.0060678497 -0.23414116 0.1560287 0.013017492
0003b0 d5 90 a5 be a7 ab c3 be 34 f4 ff bd 9b 11 89 3d
       -0.3233706 -0.38216898 -0.1249775 0.06692811
0003c0 3f 13 6d 3e 64 fe 97 be 67 d3 27 3d 0a f6 1d be
       0.23151873 -0.29686272 0.040973093 -0.15425888
0003d0 34 67 9d bd 32 a0 ce be db f3 9b be 60 1f a4 bd
       -0.076857 -0.40356594 -0.30459484 -0.08013797
0003e0 95 c1 d0 3e f5 db c7 3e 5a dd c6 3e 37 a7 2c 3e
       0.4077269 0.39035 0.38840753 0.16860662
0003f0 f9 83 06 bc 77 9b 1c 3d d2 48 2c 3e a3 15 9f 3e
       -0.008210176 0.0382342 0.16824654 0.31071195

predAlpha/Mod_B0_L5/Tensordot/MatMul f4 [14, 28]
000000 af 96 a2 3e bf b3 3e bc 89 5c 85 bd 03 e7 24 be
       0.31755587 -0.0116395345 -0.0651179 -0.16103749
000010 89 7f 61 be 2c d2 31 3e 89 5f d6 3d a8 1d ef 3d
       -0.22021307 0.1736533 0.10467441 0.11675578
000020 22 cb 33 3e bd 67 64 3b ff e6 99 be 18 85 84 3d
       0.17557958 0.0034851872 -0.3005905 0.06470698
000030 af 63 27 be ea 6c 58 bd c8 63 a7 3c 91 03 38 3e
       -0.1634662 -0.052838244 0.020433322 0.1797011
000040 c3 24 84 3d 09 99 6a 3e 7c fd 91 3e 53 fa 90 bc
       0.06452324 0.22909941 0.28513706 -0.017697489
000050 fe 4f 7c 3e 13 fe 42 3a c9 30 5b 3e cc ed b2 3e
       0.2463989 0.00074383727 0.21405329 0.3494705
000060 be 00 11 bd f1 84 fb bc 97 f7 6d bd f9 4d 18 be
       -0.0354011 -0.03070304 -0.05809745 -0.14873494
000070 a1 6c a7 be 34 de fd 3d 16 6a 70 3d c0 55 8a 3e
       -0.32700065 0.123958975 0.05869492 0.27018547
000080 df 77 07 be f7 cd 83 3e 60 a6 0a 3e 64 c8 4e 3e
       -0.13229321 0.25743076 0.1354003 0.2019363
000090 4a 04 6a 3c a7 4c a3 3c 63 7f fa 3d da 5c 8e be
       0.014283249 0.019934012 0.12231328 -0.27805215
0000a0 a3 9f 3f bc 79 38 43 3e 00 df 58 3e 79 c3 df 3d
       -0.011695775 0.19064511 0.21178818 0.10925955
0000b0 22 57 20 be af 6e 0f 3e 0c 9b 90 3e 1b 7e af be
       -0.15658239 0.14007066 0.2824329 -0.34275898
0000c0 65 8c f8 bb d6 0e 5d be 41 b1 c1 bd 3b 8e 9e be
       -0.0075850957 -0.2158769 -0.094576366 -0.30967888
0000d0 a9 e6 8d be 0d 40 1e 3e 1b 87 ca 3e 75 7f c1 be
       -0.27715042 0.15454121 0.39556202 -0.37792554
0000e0 de ed 22 be fd d4 a6 3d 25 9f 44 3e 2d f4 68 bd
       -0.15911052 0.08146093 0.19201334 -0.05687349
0000f0 8c 73 15 be af f1 fa bd 21 0f db 3d b4 1b db 3c
       -0.14594859 -0.12253129 0.10696245 0.026746608
000100 b7 51 45 3d e5 65 bd 3d f1 ec 59 3e 83 58 4b be
       0.048173632 0.092479505 0.21281792 -0.19857983
000110 02 cc 1e be 35 c3 7d 3d d2 8e 07 bd 03 2e fb 3d
       -0.1550751 0.061953742 -0.03309519 0.122646354
000120 90 96 ef bd 0c fd 13 3e bb a6 9d bd 61 2c b2 bd
       -0.116986394 0.14451998 -0.07697817 -0.08699871
000130 4c d5 81 3e fd f5 01 3d f9 6c 2e bc 73 5f 7c bd
       0.25358045 0.031728733 -0.010646098 -0.061614465
000140 c8 c7 45 be 95 84 50 be 6d 17 8c 3e 3f dc 29 3e
       -0.19314492 -0.20363076 0.27361622 0.16587923
000150 9c fb a9 be 59 86 fb 3d d6 34 30 3d 04 8e f6 3d
       -0.33199775 0.12281484 0.04301914 0.12038806
000160 4a ec 17 bd c6 17 b4 bd 93 19 90 3d ee 1c 1e be
       -0.037090577 -0.08793597 0.07036128 -0.15440723
000170 36 ba ee bc f2 c9 05 3e ff 08 77 3e a8 66 c0 3d
       -0.029141527 0.13065317 0.24124525 0.0939458
000180 e6 4a 5c bd 09 02 00 be 24 43 38 3e 44 89 1d be
       -0.053782366 -0.12500776 0.17994362 -0.15384394
000190 cb a7 0b 3d e6 2d 0b be 81 ca a6 bd d6 98 26 bf
       0.034095567 -0.13591728 -0.08144093 -0.6507696
0001a0 06 5d 2d 3d b5 0e f2 3d 8f 94 81 3e 30 8b 7b bc
       0.042325042 0.118192114 0.25308654 -0.015353009
0001b0 91 1d 51 3e 28 22 be 3c ef dd 11 ba f3 1f 37 3e
       0.20421435 0.023209646 -0.0005564382 0.17883281
0001c0 84 77 9c bc 13 9e 10 3e 2b 66 9f be 57 e0 1d bd
       -0.019099958 0.141228 -0.31132635 -0.038544025
0001d0 f0 4a 21 3e d4 71 16 3d 51 9e 11 be 4c ca a3 3e
       0.15751243 0.03672965 -0.14220549 0.31990278
0001e0 96 62 96 bd bd 6a b0 3c 0f 02 c4 3d 73 fa fc be
       -0.073430225 0.021535272 0.09570705 -0.49409828
0001f0 27 e3 ae be bc f2 65 be 34 01 9c bd a5 a9 5e 3e
       -0.34157678 -0.22455877 -0.07617417 0.21744402
000200 15 25 68 3e ab 41 8d bd 81 e6 5c bd 44 61 b6 bc
       0.22670396 -0.06897291 -0.053930763 -0.022263177
000210 1e 90 ae 3e 8d dd 61 3e 10 64 a7 3e 46 f0 20 3d
       0.34094328 0.22057171 0.3269353 0.039291643
000220 94 2f 11 be 5f 0d f9 bd 93 8a 42 be 03 b7 92 3d
       -0.14178306 -0.121607535 -0.18998174 0.07163813
000230 9d fe b6 3d 84 cd 30 3b 4c ae 55 bc e2 dc 39 bd
       0.089352824 0.0026977966 -0.013042044 -0.045376666
000240 57 e0 b5 bd 3d 6e ef 3b 5c 8b 6b 3e 4b a1 3a 3e
       -0.0888068 0.0073068426 0.2300238 0.18225591
000250 3a f7 30 3e 3c 22 c8 3e f8 2e 92 bd 35 00 af 3e
       0.1728181 0.3908862 -0.07137865 0.34179845
000260 9c 12 85 be ce 14 7e be 64 23 02 be 99 88 62 3e
       -0.2599076 -0.24812624 -0.12708813 0.2212242
000270 68 c6 2c be 3f 3f f0 3d 5a d0 89 bc 28 09 5c 3e
       -0.16872561 0.11730813 -0.016822983 0.21487868
000280 df f5 dd bb d6 6f 31 3b e0 0a c5 3e 2d a8 95 be
       -0.006773695 0.0027074716 0.3848486 -0.2922987
000290 23 5c 30 3e de 51 9f 3c a3 e4 e2 bd 22 0d 9e bd
       0.17222647 0.019448217 -0.11078765 -0.07717349
0002a0 5c 08 96 3b a9 6f 0b 3b d7 70 e3 3e e8 4f 37 3e
       0.0045786332 0.0021276271 0.44422027 0.17901576
0002b0 31 e4 40 be 71 ee 96 bd 48 21 bd be 20 5e a7 bd
       -0.18837048 -0.07369698 -0.36939454 -0.0817225
0002c0 d9 b7 ad bd 43 eb e4 bc 3d 44 5f be ab 10 44 be
       -0.08482332 -0.027944213 -0.21803375 -0.19146983
0002d0 d6 b2 27 be a7 6d be 3e 04 e8 7e bc 46 e2 06 bd
       -0.16376814 0.37193033 -0.0155582465 -0.032930635
0002e0 ea 1f 19 bd 89 61 8d ba 40 53 b1 39 e3 eb 3e be
       -0.03738395 -0.0010786514 0.00033822097 -0.18644671
0002f0 2b 0d 1a 3e 54 b6 0b be c3 ca a1 3e f7 70 27 be
       0.15044086 -0.13643771 0.31600007 -0.16351686
000300 82 02 cc bd d3 dd 34 3e 95 18 26 3d 32 26 31 3e
       -0.09961416 0.17662744 0.040550787 0.17299727
000310 8b ec 86 be 4c e4 91 3a 5e c1 ea bd 5f 1f ef 3e
       -0.26352343 0.001113066 -0.11462663 0.46703622
000320 84 56 4b 3e ee b4 a1 be eb ed 48 be 10 f8 ba 3c
       0.19857222 -0.3158335 -0.19622009 0.022823364
000330 e2 90 82 bd bb c1 e3 bd d0 9b 1c 3e 5b cb fc bd
       -0.063752905 -0.111209355 0.15293813 -0.123434745
000340 7c 9d d4 bd 42 20 53 3e c9 3b ad be e7 7a 47 3e
       -0.103816 0.20617774 -0.33834675 0.19480477
000350 02 89 a2 3d 5a a2 30 be f9 20 c0 3d 32 4d ec be
       0.079362884 -0.17249432 0.09381289 -0.46152645
000360 b2 99 cd bd 65 7a d4 3c 2d 38 cf bc e5 9f 8b 3e
       -0.10039081 0.025937269 -0.025295341 0.27270427
000370 46 c3 b7 3e ba 76 cd bc 6e 68 29 3e 8a de c0 be
       0.3589117 -0.025081027 0.16543743 -0.37669784
000380 a8 58 2f 3e b1 75 67 3e 22 47 34 bd b2 d3 c9 3c
       0.17123663 0.2260349 -0.04401315 0.024637077
000390 ad 7e 93 bb d9 11 b3 3e 84 b5 8f 3d 8f 92 a2 bd
       -0.004501185 0.34974554 0.07017043 -0.0793811
0003a0 44 88 ac 3d 01 90 8f be 97 b7 e1 bb 25 53 05 3c
       0.08424428 -0.28039554 -0.0068883407 0.008137499
0003b0 1f ed e4 3c d0 96 14 3e 31 c6 99 bd 53 7e 9b 3e
       0.0279451 0.14510655 -0.07508505 0.30369815
0003c0 d6 66 e8 be 85 96 82 be f3 2d 04 be bc 96 ba 3c
       -0.45390958 -0.25505462 -0.12908153 0.022776954
0003d0 36 a5 cf be e2 2e 3c be 72 62 30 be a5 fa ce be
       -0.40555733 -0.1837726 -0.17225054 -0.40425602
0003e0 da 5b 51 3a f0 40 00 3e 07 74 4a 3c 99 3a 09 bd
       0.0007986404 0.12524772 0.012356765 -0.03350315
0003f0 9e b3 7f 3c 09 55 72 3e 26 37 27 be ce 6d 8c 3e
       0.015606789 0.23665251 -0.16329631 0.27427524

predAlpha/Mod_B0_L7/batchnorm/sub f4 [14]
000000 98 c1 1d bf fa e9 79 bf 9a 95 7d bf 8e b4 bd bf
       -0.61623526 -0.97622645 -0.990564 -1.4820726
000010 35 0c 91 bf 17 99 2d bf 54 d3 2d bf e8 c7 8e bf
       -1.133185 -0.6781172 -0.67900586 -1.1154757
000020 27 0f 5b bf c4 9c 52 bf 6a 55 b7 be da e9 13 bf
       -0.85569996 -0.82270455 -0.35807353 -0.57778704
000030 3b 48 8c bf 72 49 3c bf
       -1.0959543 -0.7354957

predAlpha/Mod_B0_L7/batchnorm/mul f4 [14]
000000 ed 80 04 40 60 6f af 40 3a b1 9d 40 a5 46 eb 40
       2.070369 5.4823456 4.927884 7.3523736
000010 1c ae 37 40 ac 09 31 40 05 00 91 40 31 dd 1e 41
       2.8700018 2.7662153 4.5312524 9.929002
000020 d9 1d a4 40 40 6c af 40 e3 fc 12 41 ce 35 e1 3f
       5.1286435 5.481964 9.18674 1.7594545
000030 89 3e 84 40 f2 46 16 41
       4.1326337 9.392321

predAlpha/Mod_B0_L3/batchnorm/sub f4 [28]
000000 34 c0 f6 be a3 d8 4f bd 2c 25 bf bd 79 16 8d bf
       -0.48193514 -0.05074371 -0.09333262 -1.1022483
000010 90 52 91 bf 1c c7 09 be 3e 1f 09 bf a4 dd 92 bf
       -1.1353321 -0.1345486 -0.53563297 -1.1473889
000020 76 e9 84 bf 1c 1d 14 bf 2c 78 ad be 00 f0 21 bf
       -1.0383747 -0.5785692 -0.33880746 -0.63256836
000030 05 99 0c bf 60 47 03 bf ff 55 df be 47 c4 70 bf
       -0.5492099 -0.51280785 -0.43620297 -0.94049495
000040 7e 77 cd bd da b6 21 bd 61 2b 14 bf 46 44 e5 be
       -0.10032557 -0.03948102 -0.5787869 -0.4477865
000050 6d 75 48 bf 34 94 35 3d 2d f9 ac bf 34 e0 79 be
       -0.7830418 0.04433079 -1.3513542 -0.24401933
000060 e5 fa 18 be a7 e3 06 c0 97 67 94 bf fd 31 24 bf
       -0.14939459 -2.1076448 -1.1594113 -0.64138776

predAlpha/Mod_B0_L3/batchnorm/mul f4 [28]
000000 e6 13 98 40 90 a8 57 41 e9 f6 52 40 21 9d c7 3f
       4.752429 13.478653 3.2963202 1.5594827
000010 29 88 06 40 f1 18 29 40 8a eb 14 40 ff 65 c6 40
       2.1020606 2.6421473 2.3268762 6.1999507
000020 b6 bf 45 40 8c a7 c5 3f c0 d7 33 40 d4 61 83 3f
       3.089826 1.5441756 2.8100433 1.026423
000030 c5 68 92 3f 68 d1 e7 3f 6a 50 a5 3f f3 0e 43 3f
       1.1438223 1.8110781 1.2915165 0.76194686
000040 2b cc c9 40 47 fb 5d 41 6c 42 8c 3f 40 73 c9 3f
       6.306173 13.873847 1.095777 1.5738297
000050 4d 32 1d 41 c0 19 62 41 cb b5 4a 40 33 62 b8 40
       9.82478 14.131287 3.1673458 5.761987
000060 11 89 06 40 b8 b2 50 40 25 49 98 40 bb 6b 7a 3f
       2.1021159 3.2609081 4.758929 0.97820634

predAlpha/Mod_B1_L0/BiasAdd/ReadVariableOp f4 [32]
000000 f1 04 07 bd ec ec f2 3c 87 65 63 bd 9d 5f 19 bd
       -0.032963697 0.029653989 -0.055516746 -0.0374447
000010 a2 42 1c 3e bf 22 7c 3d f3 fe 05 3e 72 f6 0f 3e
       0.15259793 0.061556574 0.13085537 0.14058855
000020 39 06 ef 3d 0c 2a 1d bc a9 c0 f0 3d 43 db dd 3d
       0.11671109 -0.009592544 0.11755497 0.108328365
000030 88 67 00 3e b9 24 76 3e 30 c0 75 bc ea 58 a4 bc
       0.12539494 0.24037446 -0.014999434 -0.020061929
000040 2c 4e 05 bd ae 2b 2a 3e db 0e e4 3d 66 70 96 bc
       -0.032545254 0.16618225 0.11135646 -0.018364143
000050 88 d8 cc bc fc 03 af 3c e0 be 8c bc 6b 19 3f 3b
       -0.025005594 0.021364205 -0.01718086 0.0029159437
000060 fa f1 2f 3e 7e a7 0a 3e 47 e5 28 bd 12 c1 16 3c
       0.1718215 0.13540456 -0.04123428 0.009201305
000070 c1 0e 3d 3e 43 20 c5 3d e9 4d 9b 3d 0c 5f b4 bc
       0.1846266 0.09625294 0.075832196 -0.022017978

predAlpha/Mod_B0_L5/BiasAdd/ReadVariableOp f4 [14]
000000 46 9a 10 bc 8b c5 93 bd fd 82 52 bd fa 5e b8 bc
       -0.008825844 -0.07215413 -0.05139445 -0.022506226
000010 ba 6e d1 bc c5 77 03 be b4 74 96 bd 44 6b 42 bc
       -0.025565494 -0.12838657 -0.07346478 -0.011866394
000020 a0 ad a3 3c 00 ff c6 bd 50 0b 92 bd 04 07 bf 3c
       0.019980252 -0.09716606 -0.07131064 0.023318775
000030 bc f0 17 bd 57 57 50 bc
       -0.037094817 -0.012716136

predAlpha/Mod_B0_L1/BiasAdd/ReadVariableOp f4 [28]
000000 2d 83 1d 3d a4 64 54 bd 90 d7 ea bb dc aa 8c 3d
       0.038455177 -0.05185379 -0.0071668103 0.06868526
000010 86 4a 00 3b 4f 3c e7 bb 76 65 47 3c 95 1f 39 bd
       0.001957567 -0.00705675 0.012170186 -0.045196135
000020 a5 25 a8 bc 7d 75 de bb 55 1d c1 bb 0e 98 66 3d
       -0.020525763 -0.006788908 -0.005893389 0.056297354
000030 60 d4 92 3c 59 f0 de bc 6f 4f 9c 3d 7b 2c b5 bc
       0.017923534 -0.027214216 0.07632338 -0.022115937
000040 cb 1d e3 bc 7c 78 47 bc 34 b7 60 3c 4e 5d ad bd
       -0.027724167 -0.012174722 0.013715554 -0.08465062
000050 ad eb a1 bd 72 d4 7c bb 3b 5a 65 3d 8a 55 b3 3c
       -0.0790628 -0.0038578776 0.055994254 0.021891374
000060 b4 a0 82 3c 45 1f a5 bc fe e7 01 3d cd fa 49 bc
       0.01594577 -0.020156512 0.031715386 -0.012327862

predAlpha/Mod_B0_L1/Tensordot/MatMul1 i1 [28, 57] scale=0.0030179503 zero_point=0
000000 6b 0c 8f fb 5c d3 5c 06 f9 b4 00 bd e5 f1 f7 f9
       0.32292068 0.036215402 -0.3410284 -0.015089752 0.27765143 -0.13580777 0.27765143 0.018107701 -0.021125652 -0.22936423 0.0 -0.20220268 -0.08148466 -0.045269255 -0.027161554 -0.021125652
000010 fb ec 3e 08 9a 53 36 ba 57 13 1e af 1c b7 64 37
       -0.015089752 -0.06035901 0.18711293 0.024143603 -0.30783093 0.2504899 0.16296932 -0.21125652 0.26256168 0.057341058 0.09053851 -0.24445398 0.08450261 -0.22031038 0.30179504 0.16598727
000020 55 fe 06 32 d4 46 00 f3 23 e6 81 fe 99 fd d9 ce
       0.25652578 -0.0060359007 0.018107701 0.15089752 -0.13278982 0.21125652 0.0 -0.039233353 0.10562826 -0.078466706 -0.38327968 -0.0060359007 -0.3108489 -0.009053851 -0.11770006 -0.15089752
000030 57 1a 12 d5 fe ec c4 18 fc 01 00 f1 f3 00 31 01
       0.26256168 0.078466706 0.054323107 -0.12977186 -0.0060359007 -0.06035901 -0.18107702 0.072430804 -0.012071801 0.0030179503 0.0 -0.045269255 -0.039233353 0.0 0.14787957 0.0030179503
000040 00 07 24 da 00 01 e7 00 01 01 01 0f 02 00 fe fe
       0.0 0.021125652 0.108646214 -0.114682116 0.0 0.0030179503 -0.07544876 0.0 0.0030179503 0.0030179503 0.0030179503 0.045269255 0.0060359007 0.0 -0.0060359007 -0.0060359007
000050 fe e6 ff 0d ff 19 15 ff ff ff ff fe ff fb ff f4
       -0.0060359007 -0.078466706 -0.0030179503 0.039233353 -0.0030179503 0.07544876 0.063376956 -0.0030179503 -0.0030179503 -0.0030179503 -0.0030179503 -0.0060359007 -0.0030179503 -0.015089752 -0.0030179503 -0.036215402
000060 f7 14 f8 fc 09 fb fb d9 fa fb f9 fb f9 fb f2 e0
       -0.027161554 0.06035901 -0.024143603 -0.012071801 0.027161554 -0.015089752 -0.015089752 -0.11770006 -0.018107701 -0.015089752 -0.021125652 -0.015089752 -0.021125652 -0.015089752 -0.042251304 -0.09657441
000070 fa 0a d6 16 04 b2 03 e9 d3 f2 17 d9 f1 11 0d 10
       -0.018107701 0.030179504 -0.12675391 0.06639491 0.012071801 -0.23540013 0.009053851 -0.06941286 -0.13580777 -0.042251304 0.06941286 -0.11770006 -0.045269255 0.051305156 0.039233353 0.048287205
000080 cf c8 1d f1 10 a1 2a 05 f3 06 d4 cf 0f 31 02 c2
       -0.14787957 -0.16900522 0.08752056 -0.045269255 0.048287205 -0.2867053 0.12675391 0.015089752 -0.039233353 0.018107701 -0.13278982 -0.14787957 0.045269255 0.14787957 0.0060359007 -0.18711293
000090 f1 48 38 d4 e7 ef f4 4b 06 c5 10 1e bb 37 f9 e9
       -0.045269255 0.21729243 0.16900522 -0.13278982 -0.07544876 -0.051305156 -0.036215402 0.22634627 0.018107701 -0.17805907 0.048287205 0.09053851 -0.20823857 0.16598727 -0.021125652 -0.06941286
0000a0 1a d6 f8 ea c1 02 5b 0d 08 ba 21 0e cb 12 e2 77
       0.078466706 -0.12675391 -0.024143603 -0.06639491 -0.19013087 0.0060359007 0.27463347 0.039233353 0.024143603 -0.21125652 0.09959236 0.042251304 -0.15995137 0.054323107 -0.09053851 0.3591361
0000b0 1b bf 15 e3 d5 98 da 4e e9 f3 38 54 98 92 1a e9
       0.08148466 -0.19616677 0.063376956 -0.08752056 -0.12977186 -0.31386682 -0.114682116 0.23540013 -0.06941286 -0.039233353 0.16900522 0.25350782 -0.31386682 -0.33197454 0.078466706 -0.06941286
0000c0 cc e3 e7 4f bb 11 f2 15 ee c9 4d 23 24 cc e6 ac
       -0.15693341 -0.08752056 -0.07544876 0.23841807 -0.20823857 0.051305156 -0.042251304 0.063376956 -0.054323107 -0.16598727 0.23238218 0.10562826 0.108646214 -0.15693341 -0.078466706 -0.25350782
0000d0 1f 0a 18 f5 e8 d9 ef de b9 e9 28 e9 f3 e4 d8 29
       0.09355646 0.030179504 0.072430804 -0.033197455 -0.072430804 -0.11770006 -0.051305156 -0.10261031 -0.21427448 -0.06941286 0.12071802 -0.06941286 -0.039233353 -0.08450261 -0.12071802 0.123735964
0000e0 1e e4 fd 86 bf 05 3c 2a 2c 2f 1c d0 60 57 f0 d3
       0.09053851 -0.08450261 -0.009053851 -0.36818993 -0.19616677 0.015089752 0.18107702 0.12675391 0.13278982 0.14184366 0.08450261 -0.14486161 0.28972322 0.26256168 -0.048287205 -0.13580777
0000f0 03 1d 07 d1 b3 f5 fa c2 f2 66 ef 64 40 1d 1e e7
       0.009053851 0.08752056 0.021125652 -0.14184366 -0.23238218 -0.033197455 -0.018107701 -0.18711293 -0.042251304 0.30783093 -0.051305156 0.30179504 0.19314882 0.08752056 0.09053851 -0.07544876
