Project/Models/Alphabets/Y.tflite (tflite, 15504 bytes, 11 tensors)

predAlpha/Mod_B3_Lo/MatMul f4 [1, 32]
000000 19 51 28 be 67 3e 8c be ac fd 94 3e 35 55 a1 be
       -0.16437186 -0.2739136 0.29099786 -0.3151032
000010 3c 4b e2 3e 36 8c d5 bd bf 09 e9 3d f2 a0 e8 3e
       0.44198024 -0.10427134 0.11378812 0.45435292
000020 14 9f 74 be 70 66 d2 be c5 bb 2d 3e d0 28 f6 bd
       -0.23888808 -0.4109378 0.1696616 -0.12019503
000030 1c 0c 99 3c 52 db 90 3e 93 65 a0 be 36 73 87 be
       0.018682532 0.28292328 -0.31327495 -0.26455086
000040 37 95 94 3e d3 c9 63 be 6e 90 69 3e b1 5f 98 3e
       0.29020092 -0.22244959 0.22809002 0.29760507
000050 1d ce 9a 3d 97 03 e2 bd 64 8e 19 bf 92 ad b7 39
       0.07558844 -0.11035841 -0.59982896 0.000350338
000060 9a ab 4f 3e 86 6c a6 be 18 3b 0a be f6 5e 46 3e
       0.20280305 -0.32504672 -0.13499105 0.19372162
000070 85 c4 d7 be 4b f5 c8 3d 65 d8 27 3e 5b 53 bd bc
       -0.4214212 0.09812411 0.16391142 -0.023111036

predAlpha/Mod_B1_L0/MatMul f4 [32, 28]
000000 a9 8d db be 2f 06 8b be f4 1f a5 bd ef 46 c9 bd
       -0.42881516 -0.27153155 -0.08062735 -0.09827983
000010 e6 cd 55 3e 26 e3 35 3d d2 8d 8a 3e 45 38 84 3d
       0.20879325 0.04440608 0.27061325 0.06456045
000020 af cb 12 3e 03 49 53 3e 39 cd 1d bd 6c e0 d9 be
       0.14335512 0.2063332 -0.038525794 -0.42554033
000030 e4 c1 66 3e 1e a4 90 be b3 3b d4 3c 80 4f 5d be
       0.22534901 -0.2825021 0.025907373 -0.21612358
000040 7f 2e f9 3d f3 9a a3 3d 30 56 d7 bc 9d 3f 12 bd
       0.121670716 0.079885386 -0.026286215 -0.035705198
000050 1d d2 b9 3e 37 d7 4b be 58 a0 6d be 41 84 4d 3c
       0.36293116 -0.19906317 -0.23205698 0.012543739
000060 80 44 a0 3d fa 94 5c bc 33 51 8d be ad cf 95 bd
       0.07825565 -0.013463253 -0.27601013 -0.07315002
000070 44 6e a6 3d ae eb 6a 3d 28 d2 b2 3e 65 03 21 be
       0.081265 0.057353668 0.34925961 -0.15723951
000080 db d8 00 be 29 c6 43 be 52 b2 fe be 72 9b 92 3e
       -0.12582724 -0.19118561 -0.49745423 0.2863422
000090 d7 48 1c 3d 25 2c da bd 74 53 98 be 50 b1 9c be
       0.038155403 -0.10652951 -0.2975117 -0.3060403
0000a0 15 f4 62 be 72 45 01 be 27 f3 07 be 66 c0 81 3e
       -0.22163422 -0.12624148 -0.13276349 0.253421
0000b0 1b bf 13 bc 62 f7 5b bd ad 3d 34 3e 23 ae 95 be
       -0.009017731 -0.05370272 0.17601652 -0.29234418
0000c0 51 37 da be e6 e7 87 3e 3b d0 b3 3d db df 29 be
       -0.42620328 0.26544112 0.08779951 -0.165893
0000d0 ef ef 85 be 67 72 8d bc a2 4f 4a 3d 50 89 b9 3e
       -0.26159617 -0.017266465 0.04939235 0.36237574
0000e0 a1 2b 41 3e 27 8e d0 3d de dc 8d be 39 aa ab bd
       0.188643 0.101833634 -0.2770757 -0.08382077
0000f0 5f e9 6e ba c4 33 bf 3d 24 06 6c be 5a b0 79 3e
       -0.00091137545 0.093360454 -0.23049217 0.24383679
000100 e5 d6 19 3d 57 7a d8 3e 47 76 8f 3e 7a 44 ee be
       0.037558455 0.42280838 0.28019926 -0.46536618
000110 a7 0b 5e bd 47 8a 4f 3e d9 7b 32 3e b4 20 47 be
       -0.05421033 0.20267592 0.17430057 -0.19446069
000120 19 d4 0e 3e 74 9d bb be 87 e5 26 3e 16 0a 9c 3e
       0.13948096 -0.36643565 0.16298495 0.30476445
000130 9d f8 b4 3b 68 ec 65 be a9 64 ca 3e 51 db 75 3e
       0.005522801 -0.22453463 0.39529923 0.24009444
000140 ed 85 93 3d 24 03 2a be 16 d7 84 3e 30 c7 9b 3e
       0.07203279 -0.1660276 0.25945348 0.30425406
000150 ae 3b af be 71 50 8e bd 5b 40 12 3e 54 2f 85 be
       -0.3422522 -0.06948937 0.14282362 -0.2601267
000160 05 72 8b bd 0a 3d 78 3e 3e 3e b0 be ea 36 0f 3e
       -0.06808857 0.24242035 -0.34422487 0.13985792
000170 f0 eb 89 be 60 c7 ae be ab dc 22 3d 11 70 da 3d
       -0.2693782 -0.34136486 0.039761227 0.10665906
000180 42 97 3f 3e 61 95 22 3b ba a3 19 3b eb 7a c8 bc
       0.18710044 0.0024808275 0.0023443536 -0.024472674
000190 ee 38 0e be 1e 59 25 3e ab 92 99 bd cd c4 80 be
       -0.13888904 0.16147277 -0.07498678 -0.25150147
0001a0 51 45 20 3e ce 1d 5a be fe c3 8c 3e 3a 52 8c be
       0.15651442 -0.21300432 0.2749328 -0.27406484
0001b0 23 cc ba be 53 44 e8 3e 89 06 4b be 55 69 0c bd
       -0.3648387 0.45364627 -0.19826712 -0.03428014
0001c0 c2 d0 f2 bc c5 26 0a be 43 d1 b9 bc f9 9c 8a 3d
       -0.02964056 -0.13491352 -0.022682792 0.067682214
0001d0 3b 93 a2 3d 70 df 9d bd 2d d1 a9 bd 85 56 c4 3d
       0.07938238 -0.07708633 -0.0829185 0.09586815
0001e0 32 44 04 be af 72 90 3e 9d e0 ae 3e 73 b6 d7 3d
       -0.1291664 0.28212497 0.3415574 0.10532846
0001f0 1c 2e 74 3e b9 b1 5d bd 09 02 27 be a2 bc 74 3e
       0.23845714 -0.054124568 -0.1630937 0.23900083
000200 49 f3 a6 3e 63 ff 41 bd c5 28 85 be 90 42 9c bd
       0.32607487 -0.047362696 -0.26007667 -0.07629883
000210 56 0c 01 3c 29 5c bd 3d aa 9f 4d 3e 68 1f f5 bc
       0.007876476 0.09246094 0.20080438 -0.029922202
000220 f6 0b eb 3d 24 ea 27 be 08 6c 30 bd 21 63 ef bd
       0.11476891 -0.16397911 -0.043071777 -0.11688829
000230 9d 57 d8 bd ad 46 f7 bd 90 c5 49 3c 3a ac 22 3e
       -0.10563586 -0.12074027 0.012315169 0.15886012
000240 6a db 6e 3d bc 1b f6 bd e5 a0 03 be fd 15 a0 be
       0.05831472 -0.12017009 -0.12854345 -0.31266776
000250 4b d6 4e 3d 7a 9f de bd 57 07 32 bc d4 59 ed 3d
       0.050497334 -0.108702615 -0.010866008 0.11589399
000260 37 27 86 be f8 de 07 be 3d 1b 80 be 36 5c 8a 3e
       -0.26201794 -0.1326865 -0.2502078 0.27023476
000270 d1 01 32 be 89 fb 03 3e f3 a2 c6 3d f1 90 85 be
       -0.17383505 0.12888922 0.09699049 -0.26087144
000280 90 1f 39 be ec 5a e7 3e 02 1f b1 3e 74 98 82 bd
       -0.18078446 0.45186555 0.3459397 -0.063767344
000290 ce 7f 72 bd ba 0c 0e 3e 32 7f 93 bc fd 3e 57 3e
       -0.059203915 0.13872042 -0.018004987 0.21020122
0002a0 12 46 2a bd db 97 36 bd 01 1f 9b 3d 44 bb d3 3d
       -0.04157073 -0.044578414 0.07574273 0.103384525
0002b0 48 c6 90 3e ec 41 5d 3e 6a 4f ef bd e9 46 f5 bd
       0.28276277 0.21607178 -0.11685069 -0.11976416
0002c0 a2 8f a3 bd e3 31 3f 3d 96 35 9d 3e 26 95 05 3e
       -0.0798638 0.046678435 0.30704945 0.13045177
0002d0 2f bb 52 3e 4b 86 8b 3d a4 1c 5f be a1 0f e0 bc
       0.20579217 0.06812724 -0.2178827 -0.027351202
0002e0 e8 6d a6 bd ab 2e 1a 3e 6c f9 4d bc 07 1c 8a 3e
       -0.08126432 0.15056865 -0.012571674 0.26974508
0002f0 82 64 46 3e 09 8d 8c bc ed 80 8c 3e df 7e ef bd
       0.19374278 -0.017157095 0.27442113 -0.116941206
000300 61 6c 0a bd 35 c9 87 3d ec 0a 8f 3e b7 7c 47 be
       -0.033794764 0.06630174 0.2793802 -0.19481169
000310 e0 fb 83 3e 4a 24 59 bc ba 92 50 be ea a9 d4 3c
       0.25778103 -0.013253281 -0.20368472 0.025959928
000320 73 0b 0e be df 06 73 be dc 0d 86 be fc 4f 2a be
       -0.13871555 -0.2373309 -0.2618245 -0.16632074
000330 a1 e5 4f bd e0 b8 83 3e 34 49 05 bd dd 6f ca 3d
       -0.0507561 0.25726986 -0.032540515 0.098846175
000340 32 7c 82 3c 7f 62 d8 bc 11 c7 24 3e a4 19 5e 3c
       0.015928362 -0.026414154 0.16091563 0.013555918
000350 4c 9a 57 ba cc f1 07 3e 18 0d 7a be c5 31 7f be
       -0.0008224591 0.13275832 -0.24419057 -0.2492133
000360 b8 f8 50 3e 41 29 18 be 14 7a a5 bd 72 ec a6 3c
       0.20407379 -0.14859487 -0.08079925 0.020376418
000370 1b fc ec bc 17 df ec bd 0c 67 8d bd 5d 71 7f be
       -0.028928807 -0.115659885 -0.0690442 -0.24945588
000380 ea 8b 25 3d 69 ac 35 3d 0d 23 42 be 30 2c f0 3d
       0.040416636 0.044353876 -0.18958683 0.11727178
000390 7b 06 0f be d1 2f 2a be 17 7c f3 3c 87 09 43 bc
       -0.13967316 -0.16619803 0.029722257 -0.011904127
0003a0 59 70 2c bd 6f 2d 9f be 0d c4 b6 bd 83 fa 5f be
       -0.04209933 -0.3108935 -0.089241125 -0.21872906
0003b0 13 9c 87 bb 57 29 a3 be 70 0f 09 3d 53 a3 6a bd
       -0.0041384785 -0.31867477 0.033461988 -0.057284664
0003c0 4e cb f0 bd 75 e5 5b 3d 11 ff 87 3c 82 34 dc be
       -0.11757527 0.053685624 0.016601117 -0.4300881
0003d0 e0 eb 40 3e 17 24 d4 3d 2e d3 3e 3d a6 62 c2 bd
       0.18839979 0.10358446 0.046588115 -0.09491472
0003e0 12 9c cd be 03 3a eb 3e 87 ba b1 be b4 0d 17 3e
       -0.40158135 0.45942697 -0.34712622 0.14751321
0003f0 0c b7 04 be 53 c9 28 be b0 bc c5 3d dd d9 ae bd
       -0.12960452 -0.16483049 0.0965513 -0.08537648

predAlpha/Mod_B0_L5/Tensordot/MatMul f4 [14, 28]
000000 1b 58 a2 be 31 31 e3 3e b4 6d 16 be 9e 69 af 3a
       -0.31707844 0.44373468 -0.14690286 0.0013382917
000010 89 10 8f 3e 25 68 8f bd 5f fc 21 bd a3 d8 13 3e
       0.27942303 -0.07002286 -0.03954732 0.14438109
000020 c5 7f 0b 3e 9f c1 97 3e fe d9 0f be cf fd a8 3e
       0.13622959 0.2963991 -0.14048001 0.3300614
000030 6a 1b 88 3e e7 cf c3 bd f4 b5 88 be b5 77 97 3b
       0.26583415 -0.095611386 -0.2670132 0.0046224245
000040 57 e6 ab be 22 7f 1a be 81 32 a0 be 3d 9f 82 be
       -0.33574173 -0.1508756 -0.3128853 -0.25512114
000050 e3 92 a0 be e2 a0 b3 be fa 86 a1 3d b4 51 35 3e
       -0.31362066 -0.3508368 0.07887073 0.17706949
000060 36 26 20 3e 44 0a a2 be 98 9c 6a 3d 42 d3 0e be
       0.15639576 -0.31648457 0.057278246 -0.13947776
000070 81 cd bb be 30 fc 38 be 89 ae 84 3e c6 af 3e bd
       -0.36680225 -0.18064952 0.2591441 -0.04655435
000080 aa 4a b4 3e f9 b7 80 3d 2a b6 53 be 01 15 d7 bd
       0.35213214 0.0628509 -0.20674959 -0.10502053
000090 25 68 2a 3e 8f 15 c8 bc 33 e1 d5 3d 76 cf ac 3d
       0.1664129 -0.024424342 0.10443344 0.084380075
0000a0 f9 21 9e 3e e4 11 db bd e8 c9 83 3e 99 90 91 3d
       0.30885294 -0.10696772 0.2573998 0.07107658
0000b0 5f 55 e0 bd 19 6c 81 be d6 39 ba bd 8e cf 94 3e
       -0.10953783 -0.25277784 -0.090930626 0.29064602
0000c0 a4 56 0e be 78 a1 92 be 89 78 89 bc d0 39 ce bc
       -0.13900238 -0.28638816 -0.016781108 -0.025174052
0000d0 69 d0 70 be 1d 51 69 3e ba a6 1c 3e 83 89 9c be
       -0.23517002 0.22784849 0.15297976 -0.30573663
0000e0 fc c5 57 3e 46 4e d9 3e f9 9f b7 bd 8f fc fe be
       0.21071619 0.4244253 -0.08966059 -0.49802062
0000f0 d5 4b 10 3e a7 e3 bd 3d 6b 5f 5b 3e e9 1a fd bd
       0.14091428 0.09271937 0.21423118 -0.12358648
000100 fd 16 98 be 1c a8 9c bd 46 6f c8 3c 00 93 5e 3e
       -0.2970504 -0.07649252 0.024467122 0.21735764
000110 49 07 94 3e 42 13 c4 bc c3 c4 da 3e ed 21 71 3d
       0.28911808 -0.023934964 0.42728242 0.058870245
000120 94 58 13 3d 4b 9c cb be 02 6f fe be 12 c2 88 be
       0.035973147 -0.3976768 -0.49694067 -0.26710564
000130 99 97 93 be be 80 a6 3e a4 94 ce 3d 42 5b c0 bd
       -0.28826597 0.32520097 0.10086945 -0.09392406
000140 8a 4d 08 bd f4 b2 33 3e 55 af 50 3e be 06 70 3e
       -0.033277072 0.17548734 0.20379384 0.23440072
000150 d8 16 5c be d8 41 83 3d fc 77 79 bd f5 ae 0a be
       -0.21493089 0.06409043 -0.06090544 -0.13543303
000160 86 6a ca 3c d0 cc eb 3d 7f 2b ba bd 49 30 f0 3e
       0.024708997 0.11513674 -0.090903275 0.4691184
000170 c6 34 64 be d1 e9 1d 3e 4b ba 8a be 25 ee 95 bc
       -0.22285756 0.15421225 -0.27095255 -0.018302033
000180 af 5b 0f 3e 5f a4 19 be 4d 0c 54 3e ca 75 3d bd
       0.13999818 -0.15004109 0.20707817 -0.04625491
000190 78 6d 17 3c 84 c8 c8 3e c2 ba d2 be c5 58 44 3e
       0.009242408 0.3921548 -0.4115811 0.19174488
0001a0 a7 39 4d bd 2a 60 0a bd b0 f7 8a 3e 60 a7 1d be
       -0.05010381 -0.033783115 0.27142096 -0.1539588
0001b0 45 b7 c2 3e 20 2a 13 3e 79 25 00 3c 3a f4 13 3e
       0.3803045 0.14371538 0.007821434 0.14448634
0001c0 5a 23 32 3e 6e a1 ba bd 50 a8 9d b8 7e b4 f9 bd
       0.17396298 -0.091128215 -7.517694e-05 -0.12192629
0001d0 c3 fc a2 3c 7d fa 3d 3d 2c 05 19 3e bb 5d f0 3d
       0.019895917 0.046381462 0.14943379 0.11736628
0001e0 d5 71 3f 3c 27 cc f3 bc 7b 26 d2 bc ac 3f 43 bd
       0.0116848545 -0.029760433 -0.025653115 -0.047668144
0001f0 b7 61 cd 3e ad f9 08 3e fd a1 e6 bd 7f e0 4e be
       0.40113613 0.13376494 -0.112613656 -0.20202826
000200 2f 36 84 3e 6e e7 3e 3d d0 a2 93 bd 53 ef 03 be
       0.2582259 0.046607427 -0.072087884 -0.12884264
000210 79 f9 9b be ca 03 00 3e e5 9d 1f 3d 1d 78 b2 bc
       -0.3046377 0.12501445 0.03896894 -0.02178579
000220 15 28 8f be 5f 7b 13 be 3d 8d 62 3e 75 47 08 3e
       -0.27960268 -0.14402531 0.2212419 0.13308509
000230 3f 02 a7 3e ec 36 28 be 7e d7 bd 3d ad b5 93 3d
       0.326189 -0.16427201 0.092696175 0.07212386
000240 13 87 33 3d 68 36 10 3d a9 cc c7 3d 44 81 03 bf
       0.04382999 0.035208136 0.09755833 -0.5136912
000250 c7 59 3e be ef 4a f5 bd 56 41 7a be 07 f2 b8 3d
       -0.18588935 -0.11977183 -0.24438986 0.09030538
000260 b8 98 d9 be 99 21 5b be 57 68 55 3e 3b a5 78 bc
       -0.42499328 -0.21399535 0.20840584 -0.015176113
000270 36 d8 10 be 01 6a 05 be 8e d1 50 3e 4b 25 b0 bc
       -0.14144978 -0.13028719 0.20392439 -0.021502158
000280 40 94 2a 3c 40 df 6d 3e 19 57 65 3e d2 b2 38 3e
       0.010411322 0.23229694 0.22396506 0.18036965
000290 35 ba 75 3e a7 f2 48 3d 42 00 fd 3d eb 56 60 3e
       0.23996814 0.049059536 0.12353565 0.21908157
0002a0 8c 47 a7 3e eb 59 f7 bd 2e d0 73 3e 47 00 e0 3d
       0.32671773 -0.12077697 0.23809883 0.10937553
0002b0 57 8c 7f 3e 3c 16 65 3e c6 fd f7 3c f2 a2 13 3e
       0.24955879 0.22371763 0.030272376 0.14417627
0002c0 d3 fa 88 3e 6f b8 93 3d 29 99 63 be f9 ae a7 bb
       0.26753864 0.07212912 -0.22226395 -0.005117294
0002d0 b5 22 87 3e dd b0 49 be 9d 21 f2 3d 2a 5d d9 be
       0.26393667 -0.19696374 0.118228175 -0.4245389
0002e0 89 4b 13 3d 70 78 6b 3e 74 7a 14 be 4e 4b f4 3d
       0.035960708 0.22995162 -0.14499837 0.11928426
0002f0 b0 ec 14 3e ca 14 dd bb 9d 56 84 be 94 35 01 3c
       0.14543414 -0.006746863 -0.2584733 0.007886309
000300 d6 aa 6b be 12 4c eb bd bb 8c 98 bd a1 41 1b 3e
       -0.23014387 -0.11489119 -0.07448717 0.15161754
000310 47 8d a0 3d 8f 4a 3a bb 0e d8 04 be de ef ef 3d
       0.078394465 -0.0028425788 -0.12973043 0.11715673
000320 8a 6f 6e 3c 4d ab 3a be 1d c3 4b 3c 4f 8a 5a 3e
       0.01455296 -0.18229409 0.012436655 0.21341823
000330 a7 fe 2e 3e 7c 38 49 bd fa 4c e4 bc 14 24 a3 3e
       0.1708933 -0.049126133 -0.027868737 0.31863463
000340 ee 91 82 bd 08 e1 ba 3e 70 14 cb 3e c8 6c f7 3d
       -0.0637549 0.3649981 0.3966403 0.12081295
000350 1f 97 bc bd 6a 82 c5 bd 21 32 0f be 32 01 a8 3c
       -0.092085116 -0.09644015 -0.13983966 0.020508382
000360 25 cb f1 3b c0 63 9b bb f9 c6 91 3b f6 09 d5 be
       0.007378953 -0.0047421157 0.004448768 -0.41609162
000370 b3 90 e1 3c 97 dc 86 bd fe 02 26 3e 14 63 40 3e
       0.027534818 -0.06585043 0.16212079 0.18787795
000380 f4 b9 b9 3d e0 7c c0 be 4d 0e a2 bc 28 96 0d 3c
       0.09068671 -0.37595272 -0.01978221 0.008641757
000390 20 d1 b2 bd 90 33 50 be 86 1c cd be 25 f2 aa 3c
       -0.08731294 -0.2033217 -0.40060824 0.020867417
0003a0 c3 37 be 3e 70 fb 26 be f7 01 9f be c8 d9 29 3e
       0.37151918 -0.16306853 -0.31056187 0.16586983
0003b0 1b e6 af bd 71 c4 f5 bd 7a 21 2f 3b 3d 6a 8b 3c
       -0.08588811 -0.12000359 0.0026722834 0.017018432
0003c0 f8 57 35 be ac eb 83 3e 26 4b 45 3e 2f 67 f5 bd
       -0.17709339 0.2576574 0.19266948 -0.11982571
0003d0 99 3a 98 3d 13 4a 22 3e 1b b3 95 bd d6 61 23 be
       0.074330516 0.1584857 -0.07309552 -0.1595529
0003e0 22 1b 17 3e e3 2c 7a 3e 48 90 80 be f2 1e a9 bd
       0.14756444 0.24431185 -0.25110078 -0.082578555
0003f0 28 47 9c 3d 0c 04 94 3d 0c ed 1d 3e a7 ad 50 bd
       0.076307595 0.072273344 0.15422457 -0.050946858

predAlpha/Mod_B0_L7/batchnorm/sub f4 [14]
000000 b7 9f dd be 98 53 15 bf a4 89 c5 be ad 5c a5 be
       -0.43285915 -0.5833068 -0.38581574 -0.32297269
000010 b1 e0 b3 be 6e d6 cc be 48 26 ed be eb a4 53 bf
       -0.35132363 -0.40007347 -0.4631827 -0.8267352
000020 5d 2f aa be c0 36 bd be 6c f8 9d be b4 74 8c be
       -0.3323926 -0.36955833 -0.30853593 -0.27432787
000030 5d 2c 7a bf 96 7a 10 bf
       -0.97723943 -0.5643705

predAlpha/Mod_B0_L7/batchnorm/mul f4 [14]
000000 2f 5c 35 40 59 e5 0b 40 98 08 1b 40 d4 98 29 40
       2.8337514 2.1858733 2.4223995 2.649953
000010 53 47 dc 3f 7c a7 08 40 ac 93 76 3f 06 c3 c7 3f
       1.7209266 2.1352224 0.9631908 1.5606391
000020 d1 35 34 40 4f e7 3e 40 37 ef 3c 40 1e 91 29 40
       2.8157847 2.982868 2.9521005 2.6494823
000030 1e 24 02 40 fd c7 2d 40
       2.0334544 2.7153313

predAlpha/Mod_B0_L3/batchnorm/sub f4 [28]
000000 6a d3 f7 be 9d 0f 02 bf 10 22 98 bd f9 3a 8b bf
       -0.48403484 -0.50805074 -0.07428372 -1.0877372
000010 7a 44 26 bf 0a c2 b0 be ca 3b 1b bd 4b dc 24 bf
       -0.64948237 -0.3452304 -0.037898816 -0.6439864
000020 e0 ea 3c bf 11 c9 92 bf aa e0 bf bc cb ea 4a bf
       -0.7379589 -1.1467611 -0.023422558 -0.79264516
000030 c7 cd 06 bf 81 70 99 bf 9c dc 66 bb 89 24 c7 be
       -0.5265774 -1.1987458 -0.0035226708 -0.38895062
000040 8f 8d 22 be b8 60 a6 be 58 b4 98 bf 68 10 b1 be
       -0.15874313 -0.32495666 -1.1930037 -0.3458283
000050 bc 95 73 bf 34 e3 f1 be e4 7f 66 bf 57 25 1a bf
       -0.9515035 -0.47243655 -0.90038896 -0.60213226
000060 3d c8 a9 bd 62 92 04 be a9 e3 28 bf 9f c8 ec bd
       -0.082901455 -0.12946466 -0.6597238 -0.11561703

predAlpha/Mod_B0_L3/batchnorm/mul f4 [28]
000000 ea 96 6e 3f 63 3b 64 3f cf f8 1e 40 28 5c b0 3f
       0.93199027 0.89153117 2.483936 1.3778124
000010 88 ab 25 3f 30 38 d0 3f a0 6a 25 40 d5 5a 25 40
       0.6471486 1.6267147 2.5846329 2.583669
000020 4d b5 cf 3f 64 d5 ae 3f 20 ac 1c 40 e6 03 18 40
       1.6227204 1.3658872 2.4480057 2.375238
000030 b7 bf 63 3f fd 5a c3 3f 7a fc 31 40 81 ad 0f 40
       0.8896441 1.5262142 2.781035 2.2449648
000040 d8 4a 10 40 da aa 09 40 0f b3 65 3f 3f 73 d0 3f
       2.254568 2.151053 0.89726347 1.628517
000050 da 89 e3 3f f5 43 87 3f c8 84 10 40 11 30 82 3f
       1.7776444 1.0567614 2.2581043 1.0170919
000060 ad 26 22 40 e7 76 fc 3f c6 14 11 40 5c af 33 40
       2.5336106 1.9723786 2.266893 2.807578

predAlpha/Mod_B1_L0/BiasAdd/ReadVariableOp f4 [32]
000000 8b 83 89 3d a8 91 df 3d 2f 73 17 3d c6 4e c6 3d
       0.06714543 0.109164536 0.036975082 0.096829936
000010 24 24 a7 bc 96 b8 ef 3d 66 47 47 bd a6 cf f9 bc
       -0.020402975 0.11705129 -0.048652075 -0.030494522
000020 f6 d5 e0 3d 3a 8d 91 3d d3 a2 27 3c 8e e2 33 bd
       0.1097831 0.07107015 0.010231691 -0.04391723
000030 e9 65 16 bd cc e4 11 bd 12 08 c0 3d bb f4 8f 3d
       -0.036718283 -0.03561859 0.09376539 0.070291005
000040 ba cb 62 bd 45 9f b8 3d 0b 97 b0 3d d0 6f d0 3a
       -0.05537007 0.09014753 0.08622559 0.0015902463
000050 40 28 0f bd 84 9a 30 3d ef 48 06 3e 30 34 b8 bc
       -0.034950495 0.043116108 0.1311376 -0.022485822
000060 be 97 d1 3c 81 db d6 3d b9 63 dc 3d 89 31 dc bc
       0.025585052 0.10491086 0.10761208 -0.026879089
000070 7f b6 c3 3d c1 38 cd 3d 38 fa 07 bd 11 55 a4 bc
       0.09556293 0.100205906 -0.03319761 -0.020060094

predAlpha/Mod_B0_L5/BiasAdd/ReadVariableOp f4 [14]
000000 6e 23 4a bd 38 37 0e bd 45 bd 8e bb de da 98 bd
       -0.049350195 -0.03472063 -0.004356059 -0.074636206
000010 8d 37 ef bb fe 86 b8 bd a6 57 c0 bc eb f1 81 bd
       -0.0073003233 -0.09010123 -0.023479294 -0.0634497
000020 e9 89 64 3c 01 23 57 bd 89 32 0a bd 27 d6 db bc
       0.013948896 -0.052523617 -0.0337396 -0.026835514
000030 63 cf 1b bb c6 98 c6 3c
       -0.0023774735 0.02424277

predAlpha/Mod_B0_L1/BiasAdd/ReadVariableOp f4 [28]
000000 ac d2 9b 3c d8 50 a6 3c ca 34 aa 39 6f 86 20 bc
       0.019021355 0.020302221 0.00032464258 -0.0097976765
000010 4b 80 94 bc 63 86 86 bd d4 2f 62 bb 31 de 07 3c
       -0.018127581 -0.06568601 -0.003451337 0.008292721
000020 d0 03 0e 3d b6 0f 7d 3b 6d fb 67 3c 62 2a ca bc
       0.034671605 0.00386141 0.014159066 -0.024678413
000030 38 a5 24 3b db 0a 78 bd d2 0c 0d bd 67 69 c1 bc
       0.0025122892 -0.060557228 -0.034436055 -0.02360983
000040 2c c1 35 3c 7d f2 a4 39 0a 55 de 3c 42 32 8b bc
       0.011093419 0.00031461185 0.02714016 -0.016991738
000050 e9 ff ed 3b 84 6e 76 3c 12 d8 ca 3c 01 3a 4d 3c
       0.007263173 0.015040997 0.024761233 0.012526036
000060 bb 4c 18 3c 1f b7 2d b9 67 35 a8 3c 6a ff 75 3c
       0.009295638 -0.00016566784 0.020533277 0.015014509

predAlpha/Mod_B0_L1/Tensordot/MatMul1 i1 [28, 57] scale=0.0030117722 zero_point=0
000000 ad 02 de 0a 3d 2a af d2 ce 95 b7 f1 2d d2 2d d5
       -0.2499771 0.0060235444 -0.10240025 0.030117722 0.1837181 0.12649444 -0.24395354 -0.13854152 -0.1505886 -0.32225963 -0.21985936 -0.045176584 0.13552974 -0.13854152 0.13552974 -0.1295062
000010 03 37 3f e3 c9 f5 ed 59 ef 1d b4 f9 de 01 cb d1
       0.009035316 0.16564748 0.18974164 -0.08734139 -0.16564748 -0.033129495 -0.05722367 0.26804772 -0.051200125 0.08734139 -0.22889468 -0.021082405 -0.10240025 0.0030117722 -0.15962392 -0.1415533
000020 06 b2 2b c5 5b 9f fe e4 36 10 28 70 a4 f8 33 d3
       0.018070633 -0.23491824 0.1295062 -0.17769456 0.27407128 -0.2921419 -0.0060235444 -0.08432962 0.1626357 0.048188355 0.12047089 0.33731848 -0.27708304 -0.024094177 0.15360038 -0.13552974
000030 4c fa ed 30 60 12 26 12 e7 f6 ea d5 c4 16 3a 1b
       0.22889468 -0.018070633 -0.05722367 0.14456506 0.28913012 0.0542119 0.11444734 0.0542119 -0.0752943 -0.030117722 -0.06625899 -0.1295062 -0.18070634 0.06625899 0.17468278 0.08131785
000040 cb 02 f1 30 27 db c2 9f df b9 08 a2 32 22 f2 2d
       -0.15962392 0.0060235444 -0.045176584 0.14456506 0.11745912 -0.11143557 -0.18672988 -0.2921419 -0.09938848 -0.21383582 0.024094177 -0.2831066 0.1505886 0.10240025 -0.04216481 0.13552974
000050 15 b3 f1 c4 cd e0 1b f3 bc 1b 31 ec f6 c1 e7 cc
       0.06324722 -0.23190646 -0.045176584 -0.18070634 -0.15360038 -0.09637671 0.08131785 -0.03915304 -0.2048005 0.08131785 0.14757684 -0.060235444 -0.030117722 -0.18974164 -0.0752943 -0.15661216
000060 23 f6 09 3e 01 41 d0 72 02 df 3e 3b eb d3 fd f0
       0.10541203 -0.030117722 0.02710595 0.18672988 0.0030117722 0.1957652 -0.14456506 0.34334204 0.0060235444 -0.09938848 0.18672988 0.17769456 -0.06324722 -0.13552974 -0.009035316 -0.048188355
000070 1d 08 e9 cb 04 d9 e8 4c c8 29 fa 1c fe d4 d5 e9
       0.08734139 0.024094177 -0.06927076 -0.15962392 0.012047089 -0.11745912 -0.07228253 0.22889468 -0.16865924 0.12348266 -0.018070633 0.08432962 -0.0060235444 -0.13251798 -0.1295062 -0.06927076
000080 d4 e9 32 3d f4 e2 19 03 14 17 ff 11 31 18 d5 c9
       -0.13251798 -0.06927076 0.1505886 0.1837181 -0.036141265 -0.09035317 0.0752943 0.009035316 0.060235444 0.06927076 -0.0030117722 0.051200125 0.14757684 0.07228253 -0.1295062 -0.16564748
000090 07 de f0 f4 df e3 ed 3e de 04 06 19 f9 ca 26 5d
       0.021082405 -0.10240025 -0.048188355 -0.036141265 -0.09938848 -0.08734139 -0.05722367 0.18672988 -0.10240025 0.012047089 0.018070633 0.0752943 -0.021082405 -0.1626357 0.11444734 0.2800948
0000a0 31 b5 ce 13 de 43 fc e5 b0 0c 37 69 cc 0b 4d fb
       0.14757684 -0.22588292 -0.1505886 0.05722367 -0.10240025 0.20178874 -0.012047089 -0.08131785 -0.24094178 0.036141265 0.16564748 0.31623608 -0.15661216 0.033129495 0.23190646 -0.015058861
0000b0 f5 e9 cb 4f ff 0f c0 fd 28 fe d3 51 23 d3 df 3c
       -0.033129495 -0.06927076 -0.15962392 0.23793 -0.0030117722 0.045176584 -0.19275342 -0.009035316 0.12047089 -0.0060235444 -0.13552974 0.24395354 0.10541203 -0.13552974 -0.09938848 0.18070634
0000c0 bf 69 18 23 09 31 f3 ca a5 df 37 ce 27 11 cf 05
       -0.1957652 0.31623608 0.07228253 0.10541203 0.02710595 0.14757684 -0.03915304 -0.1626357 -0.27407128 -0.09938848 0.16564748 -0.1505886 0.11745912 0.051200125 -0.14757684 0.015058861
0000d0 1f df ca 01 c6 19 0c fb 07 d9 d7 f6 0e 2a ce 16
       0.09336494 -0.09938848 -0.1626357 0.0030117722 -0.17468278 0.0752943 0.036141265 -0.015058861 0.021082405 -0.11745912 -0.12348266 -0.030117722 0.04216481 0.12649444 -0.1505886 0.06625899
0000e0 d4 1b 1c c1 dc 62 46 6f fa ec 3d f9 9d 11 dd 40
       -0.13251798 0.08131785 0.08432962 -0.18974164 -0.1084238 0.29515368 0.21082406 0.33430672 -0.018070633 -0.060235444 0.1837181 -0.021082405 -0.29816544 0.051200125 -0.10541203 0.19275342
0000f0 ec 0a 00 bb de ef e8 00 df b2 3e fd 00 be d8 3e
       -0.060235444 0.030117722 0.0 -0.20781228 -0.10240025 -0.051200125 -0.07228253 0.0 -0.09938848 -0.23491824 0.18672988 -0.009035316 0.0 -0.19877696 -0.12047089 0.18672988
