Project/Models/Alphabets/Z.tflite (tflite, 15504 bytes, 11 tensors)

predAlpha/Mod_B3_Lo/MatMul f4 [1, 32]
0	0xbf7749c3	-0.96596926
1	0xbf3ccfee	-0.73754776
2	0x3d8f5947	0.0699945
3	0xbf0245cb	-0.50887746
4	0x3f06320a	0.52420104
5	0xbe132d40	-0.1437273
6	0x3d44b5f3	0.048025083
7	0xbe8dd251	-0.2769952
8	0x3d7c7a80	0.061640263
9	0x3e86aa7b	0.2630194
10	0x3e857e05	0.26072708
11	0xbf03bca3	-0.5145971
12	0xbf39ee1c	-0.7262895
13	0xbecb16c7	-0.39665815
14	0xbf01003d	-0.5039099
15	0x3e8608af	0.261785
16	0xbf0d8c8a	-0.5529257
17	0x3e150502	0.14552692
18	0xbecf73ed	-0.40518132
19	0xbeed4fac	-0.46349847
20	0x3e5ef9a6	0.21774921
21	0x3e1979aa	0.14987817
22	0x3e785100	0.24249649
23	0xbe85d36e	-0.2613787
24	0x3f29d454	0.6633961
25	0xbea466c5	-0.32109657
26	0xbeff4e80	-0.49864578
27	0xbf410812	-0.7540294
28	0xbeac422f	-0.33644244
29	0x3ed1c6b1	0.40971902
30	0xbee435d4	-0.44572318
31	0xbc93ed78	-0.01805757

predAlpha/Mod_B1_L0/MatMul f4 [32, 28]
0	0xbd288876	-0.041145764
1	0x3d1de8b7	0.038552012
2	0xbb2e1f34	-0.0026568891
3	0x3e837248	0.25673127
4	0x3eec0040	0.4609394
5	0x3e3eee4d	0.18645592
6	0xbdaf0803	-0.0854645
7	0x3ccccaee	0.024999108
8	0x3eef88bf	0.46784016
9	0xbdae866e	-0.08521734
10	0x3f0a132f	0.5393552
11	0xbee4ec5d	-0.4471158
12	0x3e8f237e	0.27956766
13	0x3e34724b	0.17621724
14	0xbe16916c	-0.14703912
15	0x3caacd6d	0.020849908
16	0xbedd3233	-0.4320236
17	0x3eb64ed1	0.35607007
18	0x3dd11cb9	0.102105565
19	0x3ecf0f2d	0.40441266
20	0x3ecb49b4	0.3970467
21	0x3ea2250e	0.31668895
22	0x3eb27570	0.34855223
23	0xbee8d7ae	-0.4547705
24	0x3c5db6a2	0.013532313
25	0xbe0da690	-0.1383307
26	0xbe46f8bc	-0.19430822
27	0xbe59152c	-0.21199483
28	0xbdc9c1c9	-0.09851415
29	0x3e85f94e	0.26166767
30	0x3e8254f8	0.2545545
31	0x3e55b5ce	0.20870134
32	0xba123dd8	-0.00055786734
33	0x3e7d5cfa	0.24742499
34	0x3da9ef5f	0.082976095
35	0xbda15c54	-0.07878938
36	0xbe107560	-0.14107275
37	0xbcc97268	-0.024590686
38	0x3e2967fb	0.16543572
39	0xbb33e60f	-0.0027450358
40	0xbeb807d8	-0.35943484
41	0x3dcbf481	0.09958745
42	0xbe954163	-0.2915145
43	0x3ed9b0f7	0.42517826
44	0xbe9cd399	-0.30630186
45	0xbdda2ef3	-0.10653486
46	0x3e81396d	0.25239125
47	0x3e82c2c0	0.25539207
48	0x3d5b0601	0.053472523
49	0xbe96a145	-0.29419914
50	0xbee5c8ba	-0.44879705
51	0x3ebdd1f4	0.37074244
52	0xbec3a3dc	-0.38210952
53	0xbe14e53e	-0.14540574
54	0xbd6f81ed	-0.058473516
55	0xbeaf27f7	-0.34210178
56	0x3d04e6ca	0.03244666
57	0x3e56697a	0.20938674
58	0xbcff605f	-0.031173883
59	0xbd72f480	-0.059315205
60	0x3e7d24f4	0.24721128
61	0x3d20edff	0.03928947
62	0xbc06713a	-0.008205706
63	0x3cbba130	0.022904009
64	0x3e3fe8e5	0.18741186
65	0x3dd53358	0.10410184
66	0xbde67b01	-0.1125393
67	0xbaad9c7f	-0.0013245492
68	0x3e05fe85	0.13085373
69	0x3bc78e2e	0.006089947
70	0x3de30b7e	0.11086176
71	0x3d0db92e	0.03460043
72	0x3e427fea	0.18994108
73	0xbdcd5653	-0.10026231
74	0xbdf59225	-0.119907655
75	0x3cff1bb8	0.031141147
76	0xbd96a62e	-0.07355915
77	0xbe40d408	-0.18830884
78	0xbcf79a1f	-0.030224858
79	0xbd79bfa2	-0.06097377
80	0xbdfe35f7	-0.12412637
81	0xbcf96a3f	-0.03044617
82	0x3e77cc96	0.24199137
83	0xbe5960cb	-0.2122833
84	0x3e3cc51c	0.18434566
85	0xbe1da95f	-0.15396641
86	0xbcd8d66f	-0.026469437
87	0x3e3b9d91	0.18321826
88	0x3e19f9ca	0.15036693
89	0xbb76ab38	-0.0037638675
90	0x3eda9485	0.42691436
91	0x3e573564	0.2101646
92	0xbbee7b26	-0.007277864
93	0xbed37792	-0.41302162
94	0x3d2310b3	0.039810847
95	0xbf1e61ca	-0.61867964
96	0xbeab004f	-0.33398673
97	0x3c740b8b	0.01489533
98	0xbed8eaa7	-0.42366526
99	0xbd13a611	-0.036047045
100	0xbe97dfda	-0.29662973
101	0x3dd50dab	0.104029976
102	0x3e9eaf0f	0.30992934
103	0x3e4388fd	0.19095226
104	0x3e9222c4	0.2854215
105	0x3e5d6692	0.21621159
106	0xbeae6d7d	-0.34067908
107	0xbe806aae	-0.2508139
108	0xbc94ba53	-0.018155253
109	0x3de23f12	0.11047186
110	0x3e08840a	0.13331619
111	0xbb91ebbd	-0.004453151
112	0x3dd6fc1c	0.10497305
113	0xbc2da355	-0.010598023
114	0x3ded9f13	0.116026066
115	0xbe09d6e4	-0.1346088
116	0xbe436753	-0.19082384
117	0xbd4b1198	-0.049577326
118	0xbe5e7b18	-0.21726644
119	0x3ea0312e	0.3128752
120	0x3dbd92a4	0.09256485
121	0xbd6d3fad	-0.057922054
122	0x3bae4525	0.0053183013
123	0x3e103567	0.14082871
124	0xbeb0566c	-0.34440935
125	0xbc0122bf	-0.007881819
126	0xbdeccda8	-0.11562663
127	0xbec85fe1	-0.3913565
128	0x3d828a7a	0.063740686
129	0xbea98c73	-0.33114967
130	0xbce34f63	-0.027747815
131	0xbd4ba811	-0.049720827
132	0xbded2743	-0.11579754
133	0xbe00be9c	-0.12572712
134	0x3e166405	0.14686592
135	0xbe656188	-0.22400486
136	0xbbfa8e4a	-0.0076463567
137	0xbe9d740c	-0.307526
138	0xbe6c2303	-0.23060231
139	0xbe96b3f7	-0.29434177
140	0x3d68ee40	0.056867838
141	0x3c6c2679	0.0144134695
142	0x3e0ab930	0.13547206
143	0xbe4d852f	-0.20070337
144	0xbd34db2c	-0.04415433
145	0xbe300f73	-0.17193393
146	0x3dc1f349	0.09470231
147	0xbd9d488d	-0.076798536
148	0xbe9c87b7	-0.30572292
149	0xbd2f863a	-0.042852618
150	0x3b7feeaf	0.0039052179
151	0x3e9aaa3c	0.30208004
152	0x3dac1f4d	0.08404408
153	0xbdf893dc	-0.12137577
154	0xbd3035c1	-0.043020014
155	0x3e39b891	0.18136813
156	0xbe0e4190	-0.13892198
157	0xbe90f326	-0.28310508
158	0x3c30428e	0.010758055
159	0xbcaf3ecf	-0.021392254
160	0xbe520556	-0.20509848
161	0xbd9ce5e1	-0.076610334
162	0xbe73a4b7	-0.23793302
163	0x3e0de71e	0.13857695
164	0x3ebe7a66	0.37202758
165	0x3e8f379c	0.27972114
166	0x3e78ed02	0.24309161
167	0x3d1d4c51	0.03840286
168	0xbdbde90c	-0.09272966
169	0xbb9edc8f	-0.00484807
170	0xbddbf3a3	-0.107398294
171	0xbe3fc982	-0.18729213
172	0x3cf61100	0.030037403
173	0x3d890b02	0.06691553
174	0x3dc6a07e	0.0969858
175	0x3cd7c9e7	0.026341392
176	0x3d98ee87	0.074673705
177	0xbd8d8390	-0.06909859
178	0xbdb40786	-0.087904975
179	0x3e159181	0.14606287
180	0x3e1d1003	0.15338139
181	0xbda24513	-0.07923331
182	0x3e473922	0.19455388
183	0xbc567c4c	-0.013091158
184	0x3d91203f	0.070862286
185	0xbd4b25a5	-0.049596447
186	0xbe168863	-0.14700465
187	0x3e1e02de	0.15430781
188	0xbdbe2108	-0.09283644
189	0xbd119fc1	-0.035552744
190	0xbe21aea4	-0.15789276
191	0xbdd1e0f3	-0.10247984
192	0xbda1436e	-0.07874189
193	0xbddc2b8a	-0.10750492
194	0x3e091255	0.133859
195	0xbdf97049	-0.1217962
196	0xbe1d45f9	-0.15358724
197	0x3e4ef413	0.20210294
198	0x3e3c8d6d	0.18413325
199	0x3d54ef72	0.051986165
200	0xbd8996e5	-0.06718234
201	0xbe8b7088	-0.27234292
202	0xbd82777a	-0.063704446
203	0x3e25ead8	0.16202867
204	0xbda81bf3	-0.08208456
205	0xbe0460f3	-0.12927608
206	0x3eb384ef	0.35062358
207	0x3e9a62ce	0.30153507
208	0x3eebe9a7	0.460767
209	0x3c81ec56	0.015859764
210	0xbc5da35d	-0.013527718
211	0x3e3471f6	0.17621598
212	0xbc8a424c	-0.016877316
213	0x3e04861a	0.1294178
214	0xbcdd845b	-0.027040651
215	0xbcc1c500	-0.023653507
216	0xbec99372	-0.39370304
217	0xbe77b007	-0.24188243
218	0xbc926268	-0.01786919
219	0x3f022691	0.508401
220	0x3e174889	0.14773764
221	0x3d7b63a3	0.061374318
222	0x3e38e5e7	0.18056451
223	0x3e27c01d	0.16381879
224	0xbd0e99f1	-0.03481478
225	0xbd8425bf	-0.06452512
226	0x3d511da1	0.051053647
227	0xb81d1bee	-3.745773e-05
228	0x3e2de227	0.16980802
229	0x3d618dac	0.05506675
230	0xbd52b1d3	-0.051439118
231	0x3c2f76ee	0.010709507
232	0xbba07836	-0.0048971428
233	0x3d54942e	0.051899128
234	0xbdc9110d	-0.09817705
235	0xbda95be2	-0.082694784
236	0x3d7437c7	0.059623506
237	0x3cc40d68	0.023932174
238	0x3e0b4faa	0.13604608
239	0xbda9e858	-0.08296269
240	0x3d8b2074	0.06793299
241	0xbe88d0f7	-0.26721928
242	0x3dcb1034	0.099152
243	0xbdf25251	-0.11832107
244	0x38fe9aaf	0.00012140476
245	0x3cb2ea8b	0.021840354
246	0xbe392ba9	-0.18083061
247	0xbc1122e9	-0.008858421
248	0xbdd13930	-0.10215986
249	0xbd429960	-0.04750955
250	0xbc3b0d03	-0.011416676
251	0x3df62fc6	0.12020831
252	0x3ee1f703	0.44133767
253	0xbeb44cbd	-0.35214797
254	0x3ea10471	0.314487
255	0xbea8845a	-0.32913476

predAlpha/Mod_B0_L5/Tensordot/MatMul f4 [14, 28]
0	0xbd22b2da	-0.039721347
1	0xbe4c22e6	-0.19935188
2	0x3e4a7df1	0.19774605
3	0x3d480835	0.04883595
4	0xbe937f72	-0.2880817
5	0xbe8198f6	-0.25312012
6	0xbeb143bc	-0.3462199
7	0xbd7e4da6	-0.06208577
8	0x3ea76d6e	0.32700676
9	0xbe28d808	-0.1648866
10	0xbd62eb4b	-0.055400174
11	0xbe029179	-0.12750806
12	0xbe6ac720	-0.22927523
13	0x3e755149	0.23956789
14	0x3bb86e7d	0.0056284056
15	0xbed710b6	-0.42004937
16	0x3e2969de	0.16544291
17	0xbe31ef14	-0.17376357
18	0x3eec5024	0.46154892
19	0x3e78e4e0	0.24306059
20	0x3daf2c6d	0.085533954
21	0xbe026bde	-0.1273646
22	0xbd2f71d1	-0.042833153
23	0x3e8140a8	0.2524464
24	0xbe2266c7	-0.15859519
25	0x3e30c8c9	0.17264093
26	0xbbc03564	-0.0058657397
27	0xbdbdccff	-0.092676155
28	0xbdbac1b0	-0.09118974
29	0x3d5532e8	0.0520505
30	0xbed56102	-0.41675574
31	0xbd8faa31	-0.07014883
32	0x3dc6f0d3	0.09713902
33	0x3e916966	0.28400725
34	0xbc730d56	-0.0148347225
35	0xbeb1d010	-0.34729052
36	0xbe8505ab	-0.25980887
37	0x3e4e2301	0.2013054
38	0xbc822a15	-0.015889207
39	0x3c6b9d6f	0.014380797
40	0xbd50af98	-0.05094871
41	0xbdf5c0ff	-0.11999702
42	0xbdb24297	-0.08704107
43	0xbe0e9d96	-0.13927302
44	0x3e160124	0.14648873
45	0x3cadc9af	0.021214334
46	0xbebf308b	-0.37341723
47	0x3ee024b4	0.43778002
48	0x3e1d1600	0.15340424
49	0x3e05d295	0.13068612
50	0x3d7e302b	0.062057655
51	0xbc271cee	-0.0101997685
52	0x3e80ce31	0.25157312
53	0x3e68b51d	0.22725339
54	0x3d893459	0.06699438
55	0xbe8b9999	-0.27265623
56	0x3cae7615	0.02129654
57	0xbe909fcb	-0.28246912
58	0x3c8c5c0f	0.01713374
59	0x3d913384	0.07089904
60	0x3dccc5a3	0.09998634
61	0xbebc1d71	-0.36741212
62	0xbdce1cfc	-0.10064122
63	0x3ea08bc3	0.3135663
64	0x3dbc5b39	0.09197087
65	0xbc9a4011	-0.018829377
66	0x3ebc414c	0.36768568
67	0x3d58c75e	0.052924506
68	0x3e8a7b40	0.27047157
69	0xbd5377eb	-0.051628035
70	0xbe1ebb27	-0.1550108
71	0xbdb1acaf	-0.08675515
72	0xbf02ad88	-0.5104604
73	0x3e9a15ca	0.3009475
74	0x3da613a7	0.08109217
75	0x3e40ee59	0.18840922
76	0xbe9c81a3	-0.30567655
77	0xbe9fcaef	-0.31209514
78	0xbd37fa33	-0.044916343
79	0xbe2566c6	-0.16152486
80	0xbe6abb04	-0.22922903
81	0x3e4cdf8c	0.20007151
82	0x3eaf6f35	0.34264532
83	0xbd0ee581	-0.03488684
84	0x3db6cb4e	0.08925496
85	0x3e0eb544	0.13936335
86	0x3db3b20a	0.08774193
87	0x3c317464	0.010830972
88	0xbd8109bb	-0.06300684
89	0xbd743d27	-0.059628632
90	0xbd1de9d4	-0.038553074
91	0x3c567ee3	0.013091776
92	0x3d22ce49	0.03974751
93	0x3e8d55b2	0.27604443
94	0x3e73cd62	0.23808816
95	0x3e25b8e6	0.16183814
96	0x3c9ccf83	0.019141918
97	0x3e070530	0.13185573
98	0xbd97096c	-0.07374844
99	0x3dcdef8a	0.10055454
100	0xbc2b42bc	-0.010452922
101	0x3c90372e	0.017604437
102	0x3d93631e	0.071966395
103	0x3e70649c	0.2347588
104	0xbd0c9dd4	-0.034330204
105	0x3eaee6a1	0.3416033
106	0x3eaacc03	0.33358774
107	0x3df5d7b6	0.12004034
108	0xbeeef650	-0.46672297
109	0x3e808c2a	0.25106937
110	0xbcec6ad4	-0.028859533
111	0xbd9bfbae	-0.076163635
112	0xbd0d17ba	-0.034446456
113	0x3e161385	0.14655884
114	0xbe8fde9b	-0.28099522
115	0x3dc21eab	0.09478506
116	0x3e99b57a	0.30021268
117	0x3e2cef65	0.16888197
118	0x3cb487e7	0.02203746
119	0xbe4b0fa4	-0.19830185
120	0x3e90a3a7	0.28249857
121	0x3e746a49	0.2386867
122	0x3e0e3a92	0.1388953
123	0xbd40937e	-0.04701566
124	0x3dd30bbe	0.10304974
125	0x3e991dbc	0.29905498
126	0x3b6e309d	0.0036344894
127	0xbe8bac26	-0.27279776
128	0x3dee437e	0.11633967
129	0x3e16f81e	0.14743087
130	0x3de62cee	0.112390384
131	0xbea32297	-0.31862327
132	0x3e80488b	0.25055346
133	0xbd8cddc6	-0.068782374
134	0x3a801ba1	0.0009773859
135	0x3b6e1ce7	0.0036333145
136	0xb8aa5663	-8.1223225e-05
137	0x3e2ed33b	0.17072766
138	0x3ea72e3c	0.32652462
139	0x3baa4703	0.0051964535
140	0x3a98a4a0	0.0011645742
141	0xbd19226f	-0.037386354
142	0x3b1824f5	0.0023215387
143	0xbe14ae9b	-0.14519732
144	0xbdad80e3	-0.08471849
145	0xbea071ca	-0.31336814
146	0xbd98a1e7	-0.074527554
147	0xbe7caaf4	-0.24674588
148	0x3d287f71	0.041137163
149	0x3bbc84ed	0.0057531507
150	0xbcf93a2e	-0.03042325
151	0xbe9a137f	-0.30093
152	0x3c0cabe7	0.008585907
153	0x3d8a1cef	0.067438
154	0x3aa90627	0.001289551
155	0x3e20e2ef	0.15711568
156	0xbdee3232	-0.11630668
157	0xbe7dafaa	-0.24774042
158	0xbe074600	-0.13210297
159	0xbcf09ef4	-0.02937267
160	0x3da8362f	0.0821346
161	0xbdd5169a	-0.104047015
162	0x3e499572	0.19685915
163	0x3c1d06de	0.009584157
164	0x3e8d0d57	0.2754924
165	0x3e88139f	0.2657747
166	0xbb430a1c	-0.0029760664
167	0x399f2a46	0.0003035834
168	0xbe4b860a	-0.1987535
169	0x3cd0b150	0.025475174
170	0x3e445270	0.19172072
171	0x3eb8d3fe	0.36099237
172	0xbe0c7184	-0.13715178
173	0x3ea1a63e	0.31572145
174	0x3e312766	0.17300186
175	0xbe8d168b	-0.2755626
176	0x3e9d09d4	0.3067156
177	0xbd7e1623	-0.06203283
178	0xbe518619	-0.2046131
179	0x3c1819e1	0.009283514
180	0x3e618799	0.22024383
181	0x3dfcc49d	0.123421885
182	0x3a5ff316	0.00085429975
183	0x3cacda5b	0.021100214
184	0xbe04043c	-0.1289224
185	0x3d6c6879	0.05771682
186	0xbdc327ea	-0.095290974
187	0x3c815793	0.015788829
188	0x3e7a0ced	0.24418993
189	0xbe7a87f0	-0.24465919
190	0x3e5023e7	0.20326196
191	0xbeaf4e82	-0.34239584
192	0xbec5a01e	-0.38598722
193	0xbe5badc8	-0.21453011
194	0xbe438abd	-0.19095893
195	0xbdce6558	-0.100779235
196	0xbe081f9f	-0.13293312
197	0x3e4a6f86	0.19769105
198	0xbdaa1dba	-0.08306451
199	0xbd95a963	-0.073076986
200	0xbe189425	-0.14900263
201	0xbd95437e	-0.07288264
202	0xbd52a211	-0.05142409
203	0xbde54b41	-0.11195994
204	0x3d574f4f	0.05256587
205	0x3c27fdf0	0.0102534145
206	0x3ec84aa5	0.3911945
207	0x3e16de1e	0.14733168
208	0xbe3380ca	-0.17529598
209	0xbd4689f5	-0.04847141
210	0xbe093548	-0.13399231
211	0xbe4de88f	-0.20108245
212	0xbd4cc1a3	-0.049989354
213	0xbedad84e	-0.42743152
214	0x3e3b14c3	0.18269639
215	0x3e84e622	0.25956827
216	0xbe7ccd8a	-0.24687782
217	0x3e8efe3f	0.2792835
218	0xbe062311	-0.13099314
219	0x3d316822	0.0433122
220	0x3e712aec	0.2355153
221	0xbd25c45c	-0.040470466
222	0xbd2fed68	-0.042951018
223	0x39e50ff8	0.0004369018
224	0xbe816cd4	-0.25278342
225	0xbe0c5a1b	-0.13706248
226	0x3ec69baf	0.38790652
227	0x3eaa4b71	0.33260682
228	0xbd54827d	-0.051882256
229	0xbe93f444	-0.28897297
230	0x3dca7681	0.09885884
231	0xbe26deee	-0.16295978
232	0xbe47f3bc	-0.19526571
233	0xbc81b2da	-0.015832353
234	0xbeb6a93e	-0.35675997
235	0x3ef007f0	0.46881056
236	0xbdff3b87	-0.12462526
237	0xbe021853	-0.12704591
238	0xbdc62a14	-0.096759945
239	0xbe94dcb5	-0.29074636
240	0xbbc190ff	-0.0059071775
241	0xbd8012b4	-0.06253567
242	0x3e2ced5d	0.16887422
243	0xbed6b4dc	-0.4193486
244	0xbeb2f97a	-0.3495596
245	0x3e8ed135	0.27893987
246	0xbe833ff2	-0.25634724
247	0xbe13d165	-0.14435346
248	0xbe140435	-0.1445473
249	0x3e6ffc0f	0.23435996
250	0xbd94bd67	-0.07262688
251	0xbe4e854d	-0.20168038
252	0x3e91d987	0.28486273
253	0xbebe8fd4	-0.37219107
254	0xbeb63564	-0.3558761
255	0x3d0cddb7	0.03439113

predAlpha/Mod_B0_L7/batchnorm/sub f4 [14]
0	0xbf908401	-1.1290284
1	0xbf15fc7d	-0.5858839
2	0xbf5ea976	-0.86977327
3	0xbef9df9d	-0.48803416
4	0xbeeea4a4	-0.46609986
5	0xbf0b371f	-0.54380983
6	0xbeacb04e	-0.3372826
7	0xbf7ae748	-0.9800916
8	0xbfc52ea3	-1.5404857
9	0xbf1bd487	-0.60871166
10	0xbebaf403	-0.3651429
11	0xbfc0d60c	-1.5065322
12	0xbee5a5e9	-0.44853142
13	0xbf47f830	-0.7811308

predAlpha/Mod_B0_L7/batchnorm/mul f4 [14]
0	0x414fac30	12.979538
1	0x41382fc0	11.511658
2	0x40b44437	5.633327
3	0x4097e225	4.7463555
4	0x40715203	3.7706306
5	0x3fed6db0	1.8549099
6	0x40ecb9c3	7.397676
7	0x4170ac55	15.042073
8	0x4140d2b8	12.051445
9	0x416d4d32	14.8313465
10	0x4172583d	15.146543
11	0x407a17f4	3.907712
12	0x416466fe	14.275145
13	0x414ea26c	12.914654

predAlpha/Mod_B0_L3/batchnorm/sub f4 [28]
0	0xbf021c31	-0.50824267
1	0xbfaccb93	-1.3499626
2	0xbde53a83	-0.11192801
3	0xbf0c0402	-0.54693615
4	0xbf452ad0	-0.7701845
5	0xbebcca7c	-0.36873233
6	0xbd73828e	-0.05945068
7	0xbfb16280	-1.3858185
8	0xbe45adec	-0.19304627
9	0xbfab9f8c	-1.3408065
10	0xbf1b2791	-0.6060725
11	0xbfda7891	-1.7068044
12	0x3c4b66a4	0.012414608
13	0xbf19fd24	-0.60151887
14	0xbce52f04	-0.02797652
15	0xbfcc66d0	-1.5968876
16	0xbf5aa0a1	-0.8540135
17	0xbfe6f005	-1.8041998
18	0xbfb1d9bd	-1.3894573
19	0xbfc7cb08	-1.5608835
20	0xbfdb6443	-1.7139972
21	0xbdc5b4bb	-0.09653612
22	0xbe230fe2	-0.15924028
23	0xbf11813d	-0.56837827
24	0xbf351dfd	-0.70748883
25	0xbf0ff676	-0.56235445
26	0xbf8247b9	-1.0178138
27	0x3dad9884	0.08476356

predAlpha/Mod_B0_L3/batchnorm/mul f4 [28]
0	0x3fad7711	1.3551961
1	0x40e3493e	7.1026907
2	0x408fbe45	4.4919763
3	0x3f684de1	0.90743834
4	0x3f9cd6e1	1.2253076
5	0x4148288c	12.509899
6	0x404f8ab5	3.242841
7	0x40615f80	3.5214539
8	0x403eefec	2.9833937
9	0x40912a7b	4.5364356
10	0x3fb27041	1.3940507
11	0x4052ddd2	3.2947888
12	0x41c76c5a	24.927906
13	0x3f36b8b8	0.7137561
14	0x40bcd2cf	5.9007335
15	0x3fa6bfa8	1.3027239
16	0x408f8e01	4.4860845
17	0x3fb6d202	1.4282839
18	0x40688827	3.63331
19	0x3ff454e2	1.9088404
20	0x4091576c	4.5419216
21	0x40bce606	5.903079
22	0x40526c6b	3.2878673
23	0x3f8a0760	1.0783501
24	0x3fe1c6ca	1.7638791
25	0x3fcbae4b	1.5912565
26	0x4068490c	3.6294584
27	0x41f658e5	30.793406

predAlpha/Mod_B1_L0/BiasAdd/ReadVariableOp f4 [32]
0	0x3dbac987	0.091204695
1	0x3de1684d	0.11006222
2	0xbd9046c2	-0.07044746
3	0x3e23bd6f	0.15990232
4	0x3d020d47	0.031750944
5	0x3e8b565d	0.27214327
6	0xbd88f3b1	-0.066871054
7	0x3e7898d0	0.24277043
8	0xbdc60104	-0.096681625
9	0x3da93b19	0.08263225
10	0x3d8fe91b	0.07026883
11	0x3df9384c	0.12168941
12	0x3e13d8b4	0.14438134
13	0x3e6254e4	0.22102696
14	0x3e1541b4	0.14575845
15	0xbcee1643	-0.02906335
16	0x3e0977b6	0.13424572
17	0xbdba6b85	-0.09102539
18	0x3e0bf025	0.13665827
19	0x3e835685	0.25651947
20	0xbdc5a327	-0.096502595
21	0xbd65b54a	-0.056081094
22	0xbcf3acf5	-0.029745558
23	0x3e49bb23	0.19700293
24	0x3d19c4c2	0.03754116
25	0x3dd39712	0.10331549
26	0x3e12cb4d	0.14335366
27	0x3df34890	0.118790746
28	0x3dbc3b1a	0.0919096
29	0x3da0f23b	0.07858702
30	0x3d971a78	0.073780954
31	0xbd5a78f4	-0.053338006

predAlpha/Mod_B0_L5/BiasAdd/ReadVariableOp f4 [14]
0	0xbd96215e	-0.07330583
1	0xbd068244	-0.032839075
2	0xbd2af71a	-0.04173956
3	0xbdcbc72b	-0.09950098
4	0xbd2347ca	-0.039863385
5	0xbd79cbd7	-0.060985412
6	0xbe3ac318	-0.18238485
7	0xbda6aa14	-0.081379086
8	0xbc2f9fb2	-0.010719227
9	0xbd9e29ee	-0.07722841
10	0xbda9ce23	-0.082912706
11	0xbc920d30	-0.017828554
12	0xbdbb8df8	-0.09157938
13	0xbd7ffce4	-0.062497035

predAlpha/Mod_B0_L1/BiasAdd/ReadVariableOp f4 [28]
0	0x3b903fd2	0.004402139
1	0xbba760d8	-0.00510798
2	0xbcdc318b	-0.026879093
3	0xbc290a0e	-0.010317339
4	0x3d7aff43	0.061278593
5	0xbd012627	-0.031530526
6	0xbc8459a1	-0.01615602
7	0x3baaded8	0.0052145533
8	0xbc59737e	-0.013272164
9	0x3d00d526	0.031453274
10	0xbc83ff6d	-0.016113007
11	0x3c3f2cde	0.011668412
12	0x3c23d156	0.00999864
13	0x3cfc07a7	0.030765368
14	0xbd0f5d91	-0.03500134
15	0x3c59ca7f	0.013292908
16	0xbc9bc11a	-0.019012976
17	0xbe38c11c	-0.18042415
18	0x3d41db25	0.047328133
19	0x3d5fd0d5	0.054642517
20	0xbe2370f7	-0.15961061
21	0xbc69c094	-0.014267106
22	0xbcee09ab	-0.029057344
23	0xba23b7aa	-0.00062453246
24	0xbdb0004b	-0.08593806
25	0xba9ea9e3	-0.0012105074
26	0xbe4002e6	-0.18751106
27	0xbd2a1b11	-0.04152972

predAlpha/Mod_B0_L1/Tensordot/MatMul1 i1 [28, 57] scale=0.0041714525 zero_point=0
0	0xeb	-0.0876005
1	0xe7	-0.10428631
2	0x02	0.008342905
3	0x25	0.15434374
4	0x0f	0.06257179
5	0xeb	-0.0876005
6	0xdd	-0.14600083
7	0x12	0.07508615
8	0x15	0.0876005
9	0x1f	0.12931503
10	0xfa	-0.025028715
11	0x35	0.22108698
12	0xf6	-0.041714527
13	0xed	-0.0792576
14	0x32	0.20857263
15	0x14	0.08342905
16	0xc3	-0.2544586
17	0xf0	-0.06674324
18	0xd7	-0.17102955
19	0x12	0.07508615
20	0x07	0.029200166
21	0x04	0.01668581
22	0xdc	-0.1501723
23	0x25	0.15434374
24	0x33	0.21274407
25	0xfd	-0.012514357
26	0x0d	0.054228883
27	0xdc	-0.1501723
28	0xbb	-0.28783023
29	0xfd	-0.012514357
30	0xc9	-0.22942989
31	0xb8	-0.3003446
32	0x0c	0.05005743
33	0x36	0.22525844
34	0xe3	-0.12097212
35	0xfa	-0.025028715
36	0xde	-0.14182939
37	0xd8	-0.1668581
38	0xfe	-0.008342905
39	0x01	0.0041714525
40	0x47	0.29617313
41	0x05	0.020857263
42	0xf3	-0.054228883
43	0xfc	-0.01668581
44	0x13	0.0792576
45	0xfa	-0.025028715
46	0x20	0.13348648
47	0x1f	0.12931503
48	0xf0	-0.06674324
49	0xef	-0.07091469
50	0x00	0.0
51	0xc4	-0.25028715
52	0xea	-0.09177195
53	0xf8	-0.03337162
54	0xe6	-0.10845777
55	0xcb	-0.22108698
56	0xf1	-0.06257179
57	0x32	0.20857263
58	0x3a	0.24194424
59	0x05	0.020857263
60	0x20	0.13348648
61	0x31	0.20440117
62	0x31	0.20440117
63	0xe4	-0.116800666
64	0xdc	-0.1501723
65	0x00	0.0
66	0xcd	-0.21274407
67	0xc6	-0.24194424
68	0x05	0.020857263
69	0x1b	0.11262922
70	0xd3	-0.18771537
71	0x23	0.14600083
72	0xf9	-0.029200166
73	0x16	0.09177195
74	0x08	0.03337162
75	0xf9	-0.029200166
76	0x2a	0.175201
77	0x42	0.27531585
78	0xc7	-0.2377728
79	0xea	-0.09177195
80	0xf0	-0.06674324
81	0x06	0.025028715
82	0x19	0.10428631
83	0x48	0.3003446
84	0x22	0.14182939
85	0x08	0.03337162
86	0x2b	0.17937246
87	0xf8	-0.03337162
88	0xec	-0.08342905
89	0x0c	0.05005743
90	0x23	0.14600083
91	0xc9	-0.22942989
92	0x01	0.0041714525
93	0xec	-0.08342905
94	0x1e	0.12514357
95	0xc2	-0.25863007
96	0xe4	-0.116800666
97	0x27	0.16268665
98	0x21	0.13765793
99	0xe4	-0.116800666
100	0xf4	-0.05005743
101	0x0c	0.05005743
102	0x00	0.0
103	0x01	0.0041714525
104	0xe3	-0.12097212
105	0x02	0.008342905
106	0xe4	-0.116800666
107	0x11	0.07091469
108	0x19	0.10428631
109	0xc9	-0.22942989
110	0xcf	-0.20440117
111	0xf8	-0.03337162
112	0x15	0.0876005
113	0x01	0.0041714525
114	0xf1	-0.06257179
115	0x27	0.16268665
116	0xe2	-0.12514357
117	0xd4	-0.1835439
118	0xf6	-0.041714527
119	0x42	0.27531585
120	0xb9	-0.29617313
121	0xd3	-0.18771537
122	0xd6	-0.175201
123	0xf5	-0.045885976
124	0xdb	-0.15434374
125	0xec	-0.08342905
126	0x26	0.1585152
127	0xfd	-0.012514357
128	0x07	0.029200166
129	0x00	0.0
130	0x19	0.10428631
131	0x2d	0.18771537
132	0xf9	-0.029200166
133	0x19	0.10428631
134	0xdf	-0.13765793
135	0xb9	-0.29617313
136	0x2c	0.1835439
137	0x28	0.1668581
138	0xe4	-0.116800666
139	0x1f	0.12931503
140	0xee	-0.07508615
141	0xf1	-0.06257179
142	0xf7	-0.037543073
143	0xe5	-0.11262922
144	0x22	0.14182939
145	0x14	0.08342905
146	0x11	0.07091469
147	0x00	0.0
148	0x06	0.025028715
149	0x15	0.0876005
150	0x23	0.14600083
151	0x37	0.22942989
152	0xbb	-0.28783023
153	0xcf	-0.20440117
154	0xeb	-0.0876005
155	0x17	0.095943406
156	0x40	0.26697296
157	0x10	0.06674324
158	0x0b	0.045885976
159	0xfd	-0.012514357
160	0x1c	0.116800666
161	0xb8	-0.3003446
162	0xc3	-0.2544586
163	0x29	0.17102955
164	0xfe	-0.008342905
165	0x35	0.22108698
166	0xdd	-0.14600083
167	0xb8	-0.3003446
168	0x25	0.15434374
169	0xfe	-0.008342905
170	0x03	0.012514357
171	0x06	0.025028715
172	0xf8	-0.03337162
173	0x33	0.21274407
174	0x07	0.029200166
175	0x00	0.0
176	0xe4	-0.116800666
177	0x16	0.09177195
178	0x00	0.0
179	0x00	0.0
180	0xfc	-0.01668581
181	0x00	0.0
182	0x00	0.0
183	0xf5	-0.045885976
184	0xf2	-0.058400333
185	0xfc	-0.01668581
186	0xfe	-0.008342905
187	0x0a	0.041714527
188	0xe0	-0.13348648
189	0x19	0.10428631
190	0x0a	0.041714527
191	0x00	0.0
192	0x00	0.0
193	0xe7	-0.10428631
194	0x18	0.10011486
195	0xf6	-0.041714527
196	0xe2	-0.12514357
197	0xdc	-0.1501723
198	0x00	0.0
199	0x00	0.0
200	0x1c	0.116800666
201	0xd2	-0.19188681
202	0x1b	0.11262922
203	0x08	0.03337162
204	0xea	-0.09177195
205	0xf3	-0.054228883
206	0x00	0.0
207	0x03	0.012514357
208	0xdf	-0.13765793
209	0xe8	-0.10011486
210	0x19	0.10428631
211	0xf0	-0.06674324
212	0xcc	-0.21691553
213	0x1a	0.10845777
214	0xfa	-0.025028715
215	0x01	0.0041714525
216	0xe4	-0.116800666
217	0xf5	-0.045885976
218	0xdf	-0.13765793
219	0x13	0.0792576
220	0x14	0.08342905
221	0xe9	-0.095943406
222	0x0c	0.05005743
223	0x28	0.1668581
224	0xe4	-0.116800666
225	0xf6	-0.041714527
226	0xf5	-0.045885976
227	0x04	0.01668581
228	0x0a	0.041714527
229	0xe7	-0.10428631
230	0x16	0.09177195
231	0x38	0.23360133
232	0x28	0.1668581
233	0xd8	-0.1668581
234	0x0b	0.045885976
235	0xfb	-0.020857263
236	0x17	0.095943406
237	0xd2	-0.19188681
238	0xff	-0.0041714525
239	0xc0	-0.26697296
240	0xd6	-0.175201
241	0x37	0.22942989
242	0xf3	-0.054228883
243	0xf5	-0.045885976
244	0xbc	-0.28365877
245	0x15	0.0876005
246	0x03	0.012514357
247	0xbe	-0.27531585
248	0xe4	-0.116800666
249	0xbc	-0.28365877
250	0xd2	-0.19188681
251	0x06	0.025028715
252	0xe3	-0.12097212
253	0xb8	-0.3003446
254	0x0a	0.041714527
255	0xba	-0.29200166
