indian-sign-language-learning-app-win32-x64/resources/app/Models/Words/_me.tflite (tflite, 15504 bytes, 11 tensors)

predAlpha/Mod_B3_Lo/MatMul f4 [1, 32]
00000000: d835 d83d 5d5d 31bf fed0 b6bd 257e 6d3e
00000010: 5884 d0be 10fd 1bbf 6d3c 9b3e 0051 ffbe
00000020: 7ea5 f0be 1d9f 653e a3a0 4f3e 66ea 0d3e
00000030: bb41 243e 05a5 56be 1fa2 b6be edaf 82be
00000040: 1152 933e 31e2 d23e 7625 153e 0dd0 c93e
00000050: c088 b8bc b6ad 3fbf 66eb be3d 928f 0c3f
00000060: bdeb 313c 307c 29bf e0b6 0cbf 3b6e 55be
00000070: 4bf1 01bf 7a62 283e 6780 bb3e 4dd4 e9be
0.10557145 -0.69283086 -0.08926581 0.23192652 -0.4072597 -0.6093302 0.3031954 -0.49866486
-0.4700126 0.22423978 0.20276122 0.13858947 0.16040699 -0.20961387 -0.35670564 -0.25524846
0.2877355 0.41188195 0.14565071 0.39416543 -0.022526145 -0.74874437 0.093222424 0.5490657
0.010859427 -0.6620512 -0.54966545 -0.20842831 -0.5075881 0.16443816 0.366214 -0.45669785

predAlpha/Mod_B1_L0/MatMul f4 [32, 28]
00000000: c17b b73d 59de 043e 64d0 aabc 8a9c f33d
00000010: 9398 8f3e c218 e43d 9f73 b23e 2bd1 40be
00000020: e8a1 2dbc d986 733e 2324 b13d 9185 a6bd
00000030: c850 63be e444 fa3c a324 ef3d 6f25 02be
00000040: e331 2b3e 6642 623e 1954 493e a155 fb3d
00000050: 1938 db3d 916c d4bc 6777 c4bd 83a0 ebbd
00000060: c6a6 e3bd 428d ba3c a6aa a83a 7e8d 6c3d
00000070: 9349 3f3d e744 17bd 19aa 4e3e 324b 473c
00000080: a65c c6be 3961 c3bc a8fb 0cbb 6ce1 d6bd
00000090: 7389 f8bd a372 5dbe 3a32 2ebe ef2d 533e
000000a0: b361 373c 2c16 71be 50d2 1fbe 2fcd c2bd
000000b0: 45e4 b43d 7dda 23be fdd8 013e 4cca fa3e
000000c0: f3a8 9c3e 0192 98be 22f4 a1bc 3132 0e3c
000000d0: 851a 3d3d 91bc 2d3e 023b c4bd 75b6 583c
000000e0: b1c6 d2bd 059f b7bd 2e69 003e d4ce 12bd
000000f0: 089b 043e a17a 0dbd 23ac 503d 5fe2 f83d
00000100: c539 783e 43e9 683e 850b 68bd 9779 aabd
00000110: ae08 b9bc 8dd0 9c3e a95e 26bd bd50 b63c
00000120: 0d9c 5a3e b864 203c 2d22 2e3e 8084 cebd
00000130: 114f 4b3e 40ea cfbd df67 943e 9773 d03d
00000140: 7f89 413e 63df 23bd c59c 9fbe 6168 df3c
00000150: b20d f93b 8295 19be 75e6 94be 9980 e9bd
00000160: 4c01 dd3d 2c00 96bd 5047 80be 806c f73d
00000170: 1b3e 5cbe 72c5 31be 3eed 15be 6d82 80bd
00000180: b8ff 6d3e 5e45 fabd c178 423e fb4e 5dbe
00000190: a9bc afbd 3534 3d3e d38e 893c ce00 05bf
000001a0: f8cd 98be 6c79 7cbe 4f92 bdbe 2191 a1bd
000001b0: 1572 94be 3778 edbd bcf4 333e bd8d 753e
000001c0: 5456 f6bd 2dc7 b6bd ee40 de3d a30e 6cbd
000001d0: 7d10 843e ef29 133c 1857 1c3e 9660 583e
000001e0: 836b ed3d 05d0 aa3c 79b2 b0bd 095f 1c3e
000001f0: 200c 153e 9013 753e f55b 9bbe a39a 4a3d
00000200: b594 c5be 945c 58be 5dc9 a03d 7fe7 9f3d
00000210: da1d 303e 27be 86be c926 f7bd 382f 363d
00000220: 1ac1 b43e df23 a43d 7a2a 2f3e b2d4 053e
00000230: 6e91 9ebc c828 7e3e 20b0 febc 76a7 4ebe
00000240: 2fca f33b 9125 0f3e cefb c3bc bdb2 623a
00000250: cbcd ad3e 7b6b cf3d c70c c4bd 22a6 91be
00000260: ab11 b8bd f54e a7bd 0879 373e 4e4f d53e
00000270: 9a3f aebd 5c2d 8e3e 3adc d6bd bdb2 fcbd
00000280: 0042 f0bc bd49 a03d dda9 44be cc64 a03e
00000290: bb6d 073f 6ad9 423e 806c 87be b7c1 263e
000002a0: 9249 c6bd 77b8 933c a89e 113e 4a0e d9bd
000002b0: 9655 123e 63e1 083e 87cd 683e ddd2 383e
000002c0: d83c 15bd 3fa9 bfbe 795a 25bd 7c18 3a3e
000002d0: c462 a63e a003 3abe 5f60 b4bc a1f3 82be
000002e0: 999f 7b3e 4ab7 923e 7b2a 5d3d 434d 80bc
000002f0: 3a53 8cbe 2dda 28be ae2d 563e 16f7 8c3c
00000300: 70e9 3bbe 5feb 04be 008f 0a3e 1301 d1bd
00000310: be2f e1bd 2970 d83d a537 973e c22b b83d
00000320: 1a7d 07be 485a 103b af2e 56bd 96f7 d13d
00000330: 28c4 41be ed11 113e 3b91 54bd f947 5abc
00000340: 505d 5fbc 7b3d 4bbe 90fb 91be 784b 343e
00000350: a50f 83bc b86c 02bf 36cf aebb 510a 093f
00000360: 6a69 88be 754e fa3d b6b6 c5bd e974 e6bd
00000370: cc54 a13e 6921 af3e 3bfb 703d 6801 c1be
00000380: 079e ff3c 978c 5b3e ca4e 61bd 5b8e 323e
00000390: 1c1e 683e 14fd 1c3e 6336 39bc edbd 95bd
000003a0: c2f8 893e 505a f93d 10f4 163e 8525 abbc
000003b0: 5c11 9cbe 1d31 0b3e 09fa 913e a1ca 7a3e
000003c0: a703 e2bd c526 dfbd 7cbf 0b3e e873 41be
000003d0: 3c8c 073e 6ae0 4b3e 4e8d cd3d e30e 083e
000003e0: 6ac9 243e 0c7f 9cbe 593d 60bd a78b d63e
000003f0: a123 99be 7630 18bc 188b 84bd 29a2 c43d
0.08959151 0.12975444 -0.020851322 0.11895092 0.28046092 0.11137535 0.34853837 -0.18829791
-0.0105976835 0.23781909 0.08649471 -0.081309445 -0.22198784 0.030550428 0.1167691 -0.12709592
0.16718249 0.22095641 0.19660987 0.12272192 0.10704059 -0.025930675 -0.09593087 -0.115052246
-0.11115794 0.022772435 0.001286824 0.057752125 0.046701025 -0.036930945 0.20182075 0.012163924
-0.3874256 -0.02385007 -0.0021512304 -0.104922146 -0.12135591 -0.21625762 -0.17011347 0.20622991
0.011192727 -0.23543614 -0.15607572 -0.09511792 0.088326015 -0.16001315 0.1268043 0.48982465
0.30597648 -0.29798892 -0.019769732 0.008678959 0.04616787 0.16966464 -0.09581567 0.013227095
-0.10291804 -0.089658774 0.12540123 -0.035841778 0.12949765 -0.034540776 0.050945412 0.12152552
0.24240787 0.22745232 -0.05665161 -0.08323973 -0.022587147 0.30627862 -0.04061762 0.022255296
0.21348591 0.009789638 0.17005225 -0.10083866 0.1985438 -0.101521015 0.28985497 0.10178297
0.18900107 -0.04000796 -0.31174293 0.027271451 0.0076005096 -0.14998439 -0.29082075 -0.11401481
0.10791263 -0.073242515 -0.25054407 0.120812416 -0.21508066 -0.17360476 -0.14641282 -0.06274877
0.2324208 -0.12220262 0.18991376 -0.2161216 -0.08580906 0.18476947 0.016791737 -0.5195435
-0.29844642 -0.24655694 -0.37025687 -0.07889009 -0.28993288 -0.11595195 0.17573828 0.2397985
-0.120281845 -0.089247085 0.10852228 -0.057631146 0.2579383 0.008982166 0.15267599 0.21130595
0.11592772 0.020851145 -0.08627791 0.15270628 0.14555407 0.23933244 -0.30343595 0.04946388
-0.38590017 -0.21129066 0.07850907 0.07807826 0.17198887 -0.2631695 -0.120679446 0.044478625
0.35303575 0.08014654 0.17106047 0.13069418 -0.019356456 0.24820244 -0.031089842 -0.20181069
0.0074398736 0.13979174 -0.02392378 0.000864785 0.3394607 0.10127922 -0.095727496 -0.28447062
-0.08987745 -0.08169357 0.17917264 0.41662067 -0.08508225 0.2776898 -0.10491224 -0.12338779
-0.029328346 0.078265645 -0.19205423 0.31326902 0.5290181 0.1902825 -0.26449966 0.16284834
-0.09682001 0.018032296 0.14220679 -0.105984285 0.14290461 0.13367228 0.22734652 0.18049188
-0.03643498 -0.37433812 -0.040369485 0.18173403 0.32497227 -0.18165445 -0.02201861 -0.255765
0.245726 0.28655463 0.05399559 -0.015661841 -0.27407247 -0.16489477 0.20915863 0.017207664
-0.18350768 -0.12980412 0.13531113 -0.10205283 -0.10995434 0.10568268 0.2953464 0.08992721
-0.13231316 0.0022026468 -0.052290615 0.102523014 -0.18922484 0.14166994 -0.051896315 -0.013322824
-0.013633087 -0.19847672 -0.2851224 0.17606914 -0.01599867 -0.5094714 -0.00533476 0.53531367
-0.26642925 0.12221996 -0.0965399 -0.112527676 0.31510007 0.34205177 0.058833342 -0.37696385
0.031203283 0.2144035 -0.05500678 0.17437117 0.22667736 0.15330917 -0.011304471 -0.07311616
0.269476 0.12175429 0.1474154 -0.020891914 -0.30481994 0.13592954 0.28511074 0.2449136
-0.11035853 -0.108960666 0.13647264 -0.18891871 0.13237089 0.19909826 0.10036717 0.13286929
0.16092458 -0.3056568 -0.054746006 0.4190342 -0.29909995 -0.009288898 -0.064718425 0.09601242

predAlpha/Mod_B0_L5/Tensordot/MatMul f4 [14, 28]
00000000: 0fa6 5c3e 0746 a83e dadd 65be 6cab d63e
00000010: 4602 5f3d 65cf 7b3e 6ff8 0bbe 71c9 febc
00000020: c40f b5be 0d3f b3be 6f05 02bd d88e 5fbe
00000030: 0756 59be af75 31be 7e97 123e d40f 49be
00000040: 3eb3 bb3e 769c b2be 8641 6fbd c24b 52be
00000050: 712e 2f3e d6f2 513d 261b 463e 18ef 4a3d
00000060: cf0e 383e 0084 2c3e 30a3 1bbe 658a 6abe
00000070: 540d e3bc 710f 063e 2710 1d3e 5da2 c5bd
00000080: 9bb8 4ebe 99ad 0fbe a581 933d 26a4 a03d
00000090: 8faf dcbd 7d69 b4bd f6c0 b6bc 6137 a4bd
000000a0: dcb9 d3bd b9bf 103c 8190 42b9 e887 99bd
000000b0: 68a9 a4be f19c d1ba 936a 1d3b ad8c 3c3e
000000c0: 6a5b a1bc 8427 ad3c 3b57 86bd 8609 4abd
000000d0: 5adf c33d bc1e e3bc 6f8c 8dba 941d 31bc
000000e0: 9131 db3d 7333 a4be 1d3a 51bd 3769 a8be
000000f0: 2837 efbd bd37 89be 4c3c b53e 6263 513e
00000100: 6591 c13c 1b36 ebbd a22f 2d3e ef3c 9bbd
00000110: fe48 95bd 0502 d23d 9ce0 d839 90ba f7bc
00000120: 95b4 5a3e 8e9b 81bd 93aa 673e 009a 8c3d
00000130: 1caa db3e f0f7 72bd fe6a 943e 9287 afbe
00000140: da50 523e 5523 1bbe 41df 9d3c 48b9 f63d
00000150: b398 4cbe f1f6 bc3c 6f44 fb3e 41a2 5fbe
00000160: 3cd1 bcbe 2b9f 6fbe fb51 9bbe c7be 66be
00000170: de83 843e 8ac9 723e 00ef 813d 1859 e83d
00000180: 06cc b73e d12e ce3e 6bd7 40be 8934 aa3e
00000190: 6f77 8f3e f5f8 8cbe e01e 2ebd 88ee 55be
000001a0: e98e 8f3e 86d5 823d 09e0 243e 2506 033e
000001b0: 9514 e53d f085 2ebe 6621 28be a72e d03e
000001c0: 7b99 59be 4baf 24be f3fd a2be 8ad7 ea3d
000001d0: f6eb 8ebe 345a 7c3d 3d67 e73d 2f18 8ebe
000001e0: 4681 1f3e da48 abbe 44ab 30be 5989 42bd
000001f0: 8cad 25be 1d19 a3bd c6df 3dbe d690 a83d
00000200: 8442 083d ed01 0fbb 15cb 71be 56e1 0a3e
00000210: cdb8 803e 82d9 7f3c f5eb c4be 3b3a 16be
00000220: aa42 febd 70fa b23d 6b2a 88bd 756e 6fbe
00000230: b781 b3be 655b 44be d3d3 f23c 4e00 42bd
00000240: b62b 143d 962b cf3a 4c22 883e c5e0 4bbe
00000250: 6535 90be df01 0f3e 59fe 2abe cf8d 69be
00000260: b857 81be 41be da3e c6b7 c4be 6b38 ffbe
00000270: be18 6e3c 74ca 473e edf1 0cbe 5346 6c3e
00000280: 48e8 47be b5bd dcbd fa40 65be a4bf bdbd
00000290: 909f 5bbc a9c4 503d f8f9 a23e 3f0a 80be
000002a0: 54e6 88bd 6f43 173e f049 533e 07fd 9f3e
000002b0: 666d 0fbd aee9 7ebe 2411 c0bd 98de 13be
000002c0: 1bec 553e 0119 aa3e b68a 18be 46cf c0bd
000002d0: a8b4 a3be 8810 db3c ea24 5b3e 1abf f1be
000002e0: c357 9dbd 7c69 7c3e 1f42 2fbe c859 ed3e
000002f0: ae55 8cbe 84f5 c0be cd83 dd3d 100e 533e
00000300: a1d8 a23e 6116 43be 1f41 1c3e 1c8d cb3c
00000310: c47c 053d bad4 9d3d 7684 bdbe 2cdf 283e
00000320: dd86 923c e472 06be b378 a7bc 1faf a0be
00000330: fa33 ecbd eb91 afbd e958 a43d 13da b6bb
00000340: 6b8f 8cbc 2ddb c33e b915 aabe 0405 adbd
00000350: b843 463e e5b7 98be 4c42 c1bd 40e9 7ebe
00000360: 041a d43d 15d3 01be e029 05bf 82fa c0bd
00000370: e4cd 603d bd38 cc3d 0ffd 9b3d 8ff7 85bc
00000380: d447 073e 0250 93be 9e46 4e3e e100 813d
00000390: ad74 78be d563 51be 6611 85bd 522b 64bd
000003a0: 35dc b3be ac00 0fbe be91 bb3d 288e 913d
000003b0: 902c 82bd 3296 90be 21f6 90be c8c8 783e
000003c0: 35ce 04be 7b32 b83b 63e9 793b f1aa 503e
000003d0: 8c02 1d3e f5c3 b33e 85d8 c73e d91f 70be
000003e0: 8254 d6be e653 6a3d 5350 8bbc 342c 813e
000003f0: 5483 9dbe 9372 48be 2b3c 793e a4f0 9c3e
0.21547721 0.32865927 -0.22447911 0.4192766 0.054445527 0.24590833 -0.13668989 -0.031101914
-0.3536359 -0.3500904 -0.031743463 -0.21831834 -0.21224223 -0.17330049 0.14315602 -0.19634944
0.36660188 -0.34884995 -0.058412097 -0.20536712 0.1710756 0.051256977 0.19346294 0.049544424
0.17974399 0.16847229 -0.1519897 -0.22904356 -0.027716316 0.13091828 0.15338193 -0.09650109
-0.20187609 -0.14031066 0.07202462 0.07843809 -0.10775673 -0.08809183 -0.022308808 -0.08018375
-0.10338184 0.008834773 -0.00018555114 -0.07496625 -0.32160497 -0.0015992207 0.0024019822 0.18413039
-0.01969691 0.021137007 -0.06559607 -0.04932549 0.09564085 -0.027724616 -0.0010799299 -0.010810275
0.107028134 -0.32070503 -0.05108081 -0.32892773 -0.11680442 -0.26800337 0.35397565 0.20448068
0.0236289 -0.11484929 0.16912702 -0.075799815 -0.07289313 0.102542914 0.00041366077 -0.030240327
0.21357949 -0.06328498 0.22623663 0.06865311 0.4290322 -0.059318483 0.2898788 -0.3428312
0.20538655 -0.15150197 0.019271495 0.12047058 -0.19980125 0.02306697 0.49075648 -0.21839239
-0.36878383 -0.23400562 -0.30335984 -0.22533713 0.25881857 0.23709694 0.06344414 0.11345118
0.35897845 0.40270093 -0.18832175 0.33243206 0.28020808 -0.2753369 -0.042509913 -0.20891774
0.2803872 0.063883826 0.16101088 0.12795313 0.11185566 -0.1704328 -0.1641899 0.40660593
-0.21249954 -0.16082494 -0.31834373 0.11466892 -0.279144 0.061609462 0.11298988 -0.27752826
0.15576658 -0.3345402 -0.17252833 -0.047494266 -0.16179484 -0.07963774 -0.18542394 0.0823075
0.03326656 -0.0021821216 -0.23612626 0.13562521 0.25140992 0.015615823 -0.3846127 -0.1467065
-0.12415059 0.087391734 -0.066487156 -0.2338198 -0.35059902 -0.19175489 0.029642021 -0.04736357
0.0361745 0.0015805836 0.26588666 -0.19909962 -0.28165737 0.13965558 -0.16698588 -0.22808002
-0.25262237 0.42723277 -0.38421458 -0.4984773 0.014532266 0.19510823 -0.13764162 0.23073702
-0.19522202 -0.10778371 -0.22388068 -0.09265068 -0.013404742 0.0509688 0.31831336 -0.25007817
-0.066845566 0.14771818 0.20633674 0.31247732 -0.03501644 -0.24893829 -0.09378269 -0.14440382
0.20890848 0.332222 -0.14896664 -0.09414534 -0.31973767 0.026741281 0.214008 -0.4721611
-0.07682755 0.24649614 -0.17115067 0.4635756 -0.27409118 -0.37687314 0.10816155 0.20610833
0.318059 -0.19051506 0.15259217 0.02484756 0.03258969 0.0770659 -0.37015122 0.16491383
0.017886573 -0.13129765 -0.020443296 -0.31383607 -0.11533351 -0.085727535 0.08024771 -0.0055801957
-0.01715823 0.38253155 -0.33219698 -0.08448222 0.1936177 -0.298278 -0.09436473 -0.24893665
0.103565246 -0.12678178 -0.5201702 -0.094227806 0.054883853 0.099717595 0.076166265 -0.016353397
0.13210994 -0.2877198 0.20144126 0.06298996 -0.24263258 -0.20448239 -0.06497459 -0.055705376
-0.35128942 -0.139651 0.091586575 0.07107192 -0.06356156 -0.2823959 -0.2831278 0.24295342
-0.12969287 0.005621252 0.0038133494 0.20377709 0.15333003 0.3511044 0.3903238 -0.23449649
-0.4186135 0.057208918 -0.017006075 0.25229037 -0.30764258 -0.19574957 0.24339359 0.30652344

predAlpha/Mod_B0_L7/batchnorm/sub f4 [14]
00000000: cbdd 16bf 661e 29bf e133 a9bf 74cc 3bbf
00000010: d3da ebbe 081f b4bf a7ac 4bbf 837b e1be
00000020: 6fbf 18bf d063 24bf 86a6 c7be 9058 53bf
00000030: 7471 69bf 1b7d 52bf
-0.5893218 -0.6606201 -1.3218957 -0.73358846 -0.46065387 -1.407197 -0.7956032 -0.44039544
-0.59667104 -0.642148 -0.38994235 -0.8255701 -0.9118874 -0.82222146

predAlpha/Mod_B0_L7/batchnorm/mul f4 [14]
00000000: 626a 8f41 2f7a cd3f 5bc8 ee40 1b16 5241
00000010: c565 2b40 55f1 a040 8ce1 6b40 ea43 7641
00000020: 28dc 2d40 5699 1740 82de e340 722e 0d41
00000030: f5ea 5a41 a0bd 0b40
17.926945 1.6052912 7.4619575 13.130397 2.6780865 5.0294595 3.6856413 15.391581
2.7165623 2.368734 7.1209116 8.823839 13.682363 2.1834488

predAlpha/Mod_B0_L3/batchnorm/sub f4 [28]
00000000: a75b a6bf 8a36 aebf 5211 27bf 5d85 42bf
00000010: 99d2 b0bf 3f1d d0bf 47bc 9dbf 5602 29bf
00000020: f866 3dbe bfd7 11be d962 2ebf fc6a b9bf
00000030: c457 b2bf 1908 b1bf b470 f63c a5e1 3cbf
00000040: e165 0ac0 4668 cf3d 00d4 bdbd 889b 92bf
00000050: 2539 2bc0 fbd6 3abe 029a febf bfd6 a4bf
00000060: 8eb7 35bf bd13 f6be 1f17 b93d 8543 acbf
-1.299672 -1.3610394 -0.65260804 -0.75984746 -1.3814269 -1.6258925 -1.2323083 -0.6601919
-0.1849631 -0.14242457 -0.6811958 -1.4485774 -1.3933034 -1.3830596 0.030083038 -0.73781806
-2.1624682 0.101273105 -0.092689514 -1.1453714 -2.6753628 -0.18246071 -1.989075 -1.2878035
-0.7098321 -0.48061934 0.09037613 -1.3458105

predAlpha/Mod_B0_L3/batchnorm/mul f4 [28]
00000000: b926 ed3f f9a6 cd3e a235 1c40 23f1 8e3f
00000010: 0545 923f 5d5b ac3f d135 9840 b01a 953f
00000020: 30c2 8440 4988 bd3f f706 d43f c801 063f
00000030: 6dcd 553f 9286 0c3f dbcf ee41 145e 5640
00000040: cf46 5c40 7ba8 e241 b441 0b41 2931 db40
00000050: 69db 9540 206b 0741 95d9 4540 12f9 be3f
00000060: 2e8a 8e40 68b1 a53f 3452 e341 cb09 613f
1.8527442 0.40166453 2.4407735 1.1167339 1.1427313 1.3465382 4.7565694 1.1648769
4.1487045 1.4807216 1.6564626 0.5234647 0.8351658 0.5489284 29.851492 3.349492
3.4418218 28.332266 8.703541 6.849751 4.6830335 8.463654 3.0914052 1.491976
4.4543676 1.2944765 28.415138 0.8790557

predAlpha/Mod_B1_L0/BiasAdd/ReadVariableOp f4 [32]
00000000: e948 9bbd 979b 253d 6e49 1a3e e3de 1c3e
00000010: ee1c 003e 6f47 f43d 538e 33bc 050f 133e
00000020: b1e4 9e3d 3d69 b33d 7174 de3d 48ee e0bd
00000030: 5122 bbbc 4017 3e3d 6e95 743d 41e4 3d3e
00000040: 0c42 9f3d 3de0 edba fac7 e2bb 2723 fc3c
00000050: 0397 33bd 6a8b 083e 9c2f 013d ddb1 d13d
00000060: 0bd8 4fbd cd9a 073e f82a 513d 1a88 ce3c
00000070: 1d41 fc3d 9aa2 11bd 4923 49bd a532 db3d
-0.07582266 0.040431585 0.15067074 0.153194 0.12511036 0.119276874 -0.010959226 0.14361198
0.07758463 0.08760307 0.10862053 -0.109829485 -0.022843512 0.04640889 0.05971282 0.18544103
0.07776269 -0.0018148493 -0.0069208117 0.03077848 -0.043845188 0.13334432 0.031539544 0.10239003
-0.050743144 0.13242646 0.05106637 0.025211383 0.12317107 -0.03555546 -0.049105916 0.10703019

predAlpha/Mod_B0_L5/BiasAdd/ReadVariableOp f4 [14]
00000000: b613 12be e61a 503b d6fd 563c 0db9 9dbd
00000010: 2bf5 89bc 4d7f 6b3d ff57 a33c 5f25 18be
00000020: 9cb9 2dbc 4207 a8bc a9e9 1abd f9c4 99bd
00000030: 847b bfbd 446b 56bd
-0.14265332 0.0031754314 0.013122043 -0.07701311 -0.016840538 0.05749445 0.01993942 -0.14858006
-0.010603335 -0.020511273 -0.037820492 -0.07508273 -0.093497306 -0.05234839

predAlpha/Mod_B0_L1/BiasAdd/ReadVariableOp f4 [28]
00000000: 94aa c3bc 7219 833c 9232 673c 3444 a63d
00000010: 9a69 42bd a95f 833d 345b 3bbd 9e82 ab3b
00000020: fa01 3cbc 4b2e ddbb c822 003d 04ea babb
00000030: ce0b a8bc 75cd 28bd e467 dcbc 519f 2e3d
00000040: 77e0 a13c 96d0 84bc 88d3 82bd bfcb 05bd
00000050: fd49 6bbd c11b 1ebd 6e68 b33c 7923 6abd
00000060: 73e4 debc d7f7 663c 8800 29bc 0f05 b1bd
-0.023885049 0.016003344 0.014111178 0.081184775 -0.04746399 0.0641473 -0.045741275 0.0052340766
-0.011475081 -0.0067499033 0.03128317 -0.0057041664 -0.020513441 -0.041211564 -0.026905008 0.042632405
0.019760353 -0.016212743 -0.06388003 -0.03266501 -0.057443608 -0.038600687 0.021900382 -0.057162736
-0.027208542 0.014097176 -0.010315068 -0.08643543

predAlpha/Mod_B0_L1/Tensordot/MatMul1 i1 [28, 57] scale=0.003505758 zero_point=0
00000000: eed2 b6b3 d4e2 14ff 16f4 e1d6 57de 1343
00000010: 1c27 010b 5c1b baf2 15fd 3c0b 2323 e90e
00000020: 37b8 e0d3 bf15 17c5 a50a c0f0 e909 1ccb
00000030: d22e 122d 2228 dc2a 47d2 06f9 2530 f908
00000040: 32f7 4efb 3e01 cce7 ceb0 f52c 2237 ece4
00000050: cbb4 e912 fdd3 ff03 c60d 2350 9dd8 d6c8
00000060: cb05 ccef 1917 3ac5 08d4 05f8 eb4a 0db0
00000070: ca15 3c27 ef33 ed20 fd12 be4a 46cb fd17
00000080: fa03 cec1 cd33 3234 daea 10ec 16b1 01f1
00000090: 1044 20cd d819 3e4c f32d e732 97f8 1910
000000a0: c7cb af09 e5d3 18cd 5de3 b3f9 3122 3ec2
000000b0: da12 2212 1e1d b213 20ef bedb ea25 fbf3
000000c0: ed3b 0309 d922 1d10 db29 504c 0528 2602
000000d0: 4e05 06ee 41fa 3f4e 09d9 3b1c 22d3 01f5
000000e0: ba59 dcd1 05d3 2fdc 2933 f8db 02d6 e6f0
000000f0: a6cf 16ff 12e5 120c 1416 190d f1c7 b2cf
-0.063103646 -0.16126487 -0.2594261 -0.26994336 -0.15425335 -0.10517274 0.070115164 -0.003505758
0.077126674 -0.042069096 -0.1086785 -0.14724183 0.30500096 -0.119195774 0.066609405 0.23488578
0.09816122 0.13672456 0.003505758 0.038563337 0.32252973 0.09465547 -0.24540307 -0.04908061
0.073620915 -0.010517274 0.21034548 0.038563337 0.12270153 0.12270153 -0.08063243 0.04908061
0.19281669 -0.25241458 -0.11218426 -0.15775912 -0.22787426 0.073620915 0.08063243 -0.20683973
-0.31902397 0.035057582 -0.22436851 -0.05609213 -0.08063243 0.031551823 0.09816122 -0.18580517
-0.16126487 0.16126487 0.063103646 0.15775912 0.119195774 0.14023033 -0.12620729 0.14724183
0.24890882 -0.16126487 0.021034548 -0.024540305 0.12971304 0.16827638 -0.024540305 0.028046064
0.1752879 -0.031551823 0.27344912 -0.017528791 0.217357 0.003505758 -0.18229942 -0.08764395
-0.1752879 -0.28046066 -0.038563337 0.15425335 0.119195774 0.19281669 -0.070115164 -0.09816122
-0.18580517 -0.26643762 -0.08063243 0.063103646 -0.010517274 -0.15775912 -0.003505758 0.010517274
-0.20333396 0.045574855 0.12270153 0.28046066 -0.34707004 -0.14023033 -0.14724183 -0.19632244
-0.18580517 0.017528791 -0.18229942 -0.059597887 0.08764395 0.08063243 0.20333396 -0.20683973
0.028046064 -0.15425335 0.017528791 -0.028046064 -0.073620915 0.2594261 0.045574855 -0.28046066
-0.18931094 0.073620915 0.21034548 0.13672456 -0.059597887 0.17879365 -0.066609405 0.11218426
-0.010517274 0.063103646 -0.23138003 0.2594261 0.24540307 -0.18580517 -0.010517274 0.08063243
-0.021034548 0.010517274 -0.1752879 -0.22086276 -0.17879365 0.17879365 0.1752879 0.18229942
-0.13321881 -0.077126674 0.05609213 -0.070115164 0.077126674 -0.2769549 0.003505758 -0.05258637
0.05609213 0.23839155 0.11218426 -0.17879365 -0.14023033 0.08764395 0.217357 0.26643762
-0.045574855 0.15775912 -0.08764395 0.1752879 -0.36810458 -0.028046064 0.08764395 0.05609213
-0.19982821 -0.18580517 -0.2839664 0.031551823 -0.09465547 -0.15775912 0.08413819 -0.17879365
0.3260355 -0.10166698 -0.26994336 -0.024540305 0.17178214 0.119195774 0.217357 -0.217357
-0.13321881 0.063103646 0.119195774 0.063103646 0.10517274 0.10166698 -0.27344912 0.066609405
0.11218426 -0.059597887 -0.23138003 -0.12971304 -0.077126674 0.12971304 -0.017528791 -0.045574855
-0.066609405 0.20683973 0.010517274 0.031551823 -0.13672456 0.119195774 0.10166698 0.05609213
-0.12971304 0.14373608 0.28046066 0.26643762 0.017528791 0.14023033 0.13321881 0.007011516
0.27344912 0.017528791 0.021034548 -0.063103646 0.22787426 -0.021034548 0.22086276 0.27344912
0.031551823 -0.13672456 0.20683973 0.09816122 0.119195774 -0.15775912 0.003505758 -0.038563337
-0.24540307 0.31201246 -0.12620729 -0.16477063 0.017528791 -0.15775912 0.16477063 -0.12620729
0.14373608 0.17879365 -0.028046064 -0.12971304 0.007011516 -0.14724183 -0.09114971 -0.05609213
-0.31551823 -0.17178214 0.077126674 -0.003505758 0.063103646 -0.09465547 0.063103646 0.042069096
0.070115164 0.077126674 0.08764395 0.045574855 -0.05258637 -0.19982821 -0.27344912 -0.17178214
