indian-sign-language-learning-app-win32-x64/resources/app/Models/Words/_woman.tflite (tflite, 15504 bytes, 11 tensors)

predAlpha/Mod_B3_Lo/MatMul f4 [1, 32]
0.572636 0.34753647 -0.57796293 0.14982486 0.34416947 0.4484216 -0.3103408 -0.4066978
0.26455352 0.32864827 -0.014388149 -0.16504847 0.21679465 0.1005815 0.3694741 -0.32932663
0.6036744 -0.015027914 -0.28400248 -0.36050132 0.16462566 -0.29555094 0.24513286 -0.6297802
-0.4003524 -0.38260695 0.3263597 0.21685626 -0.17266604 -0.0059892833 0.25168616 -0.24248964
00000000: 4698 123f 4df0 b13e 61f5 13bf b06b 193e
00000010: fb36 b03e 8497 e53e fde4 9ebe b23a d0be
00000020: 8f73 873e 9644 a83e 45bc 6bbc 7702 29be
00000030: 6bff 5d3e acfd cd3d b62b bd3e 809d a8be
00000040: 688a 1a3f a437 76bc c668 91be a193 b8be
00000050: a193 283e 7452 97be 1c04 7b3e 4639 21bf
00000060: fdfa ccbe 0fe5 c3be 9e18 a73e 910f 5e3e
00000070: 5ecf 30be c041 c4bb 02dd 803e 344f 78be

predAlpha/Mod_B1_L0/MatMul f4 [32, 28]
0.20786561 0.09686328 0.02716549 -0.0079661505 -0.0049633402 -0.25180212 0.2998888 0.061076447
-0.19121677 0.014231547 -0.25995696 -0.16330649 -0.04016807 0.0399268 0.3886634 -0.01810792
0.34103546 -0.3451878 -0.24238311 -0.24481073 0.15912825 -0.34087148 0.1961462 0.43255007
-0.12505995 0.19921185 0.06543107 -0.049934566 0.080228925 -0.030803632 -0.12374545 -0.17375012
-0.07575226 0.16283275 0.23331764 0.029062819 0.26350117 -0.20328543 -0.17512253 0.049283877
0.05229972 -0.10940423 0.2571396 -0.27528134 -0.25293818 -0.17697676 -0.044129845 -0.04316401
0.037666097 -0.14481314 -0.14326797 0.28938583 -0.09464439 0.11945922 -0.14882879 -0.23948945
0.31419772 -0.011334202 0.16400893 -0.22253586 0.22061104 0.20493825 -0.4071669 0.05990071
0.30990294 0.2162083 0.029906284 -0.22451195 -0.3436483 0.17633069 -0.012927408 0.27977502
0.23973188 -0.2825725 0.20495978 -0.092609785 -0.17591551 0.12873766 -0.09711562 0.008987211
0.28880364 -0.24444154 -0.1616635 -0.10770327 -0.092997454 -0.30265355 0.1332191 -0.3369814
-0.096558906 -0.0798955 0.07643961 -0.026612418 -0.012426223 0.17889965 0.30237955 0.057848677
-0.12171414 -0.24862307 0.1254508 0.2777252 0.107608356 -0.1902943 0.053912673 -0.18238945
0.40081236 -0.25034297 0.01394172 0.080758065 -0.08400708 0.32452327 -0.026407145 0.10726499
0.12924097 0.017456213 -0.1287269 -0.15668261 -0.35156962 0.29961252 0.090128824 -0.068217464
-0.08102511 -0.14830068 0.06429974 -0.34546617 -0.18593079 0.02369801 0.23685351 -0.056519516
0.29108688 -0.29162323 -0.15340768 0.04369199 0.13244973 -0.40199262 -0.19008562 0.4654851
-0.12457147 0.0068106297 -0.30617568 -0.2911326 0.029119149 -0.012385171 -0.066506915 -0.2265648
0.024808316 0.21625891 -0.21716702 0.16089979 -0.026486212 0.28773078 0.027908048 0.062079508
0.027122194 0.10319377 0.031651296 0.060413953 -0.18715201 0.006629045 -0.06474712 -0.1326243
-0.21213101 -0.068972364 0.02645172 -0.13795298 0.0008910118 -0.16097689 0.105565 -0.0027261965
0.21900772 -0.15049984 0.037908386 0.3042569 0.2863174 0.13731508 -0.05929025 -0.22214933
0.15369171 0.15447396 0.26557404 -0.3394651 -0.17037787 0.048911236 -0.08935861 -0.08749965
-0.059701752 0.21694128 -0.049410954 -0.11546229 -0.4679419 0.201548 0.13902108 -0.115671664
0.2693138 0.05512369 -0.088177964 -0.31664255 -0.2156208 0.45007586 -0.057854757 0.18062454
0.09268302 0.29110754 -0.13561378 -0.16242187 -0.35269287 -0.0891813 -0.0045646518 -0.09437758
0.433629 0.16581814 -0.46371534 0.29348513 -0.09486243 0.16561915 -0.47304124 -0.41705266
-0.07055326 0.30228058 -0.38797036 -0.37826493 0.021295786 0.26325527 0.33608013 0.38592446
0.19403186 0.2222154 -0.04989224 -0.04143516 0.08257126 0.060089916 -0.27760503 -0.08841423
0.07543691 -0.13337664 -0.14099896 -0.19172771 -0.1826408 -0.31789827 -0.023535369 -0.17365961
-0.17898346 0.072957896 0.027465481 0.23338544 -0.29773644 0.007350774 0.099471234 -0.07753842
-0.09253917 -0.06525999 0.080171995 0.06762078 -0.21705976 0.15427637 -0.23658693 -0.046846904
00000000: b9da 543e 4160 c63d 298a de3c 7584 02bc
00000010: 84a3 a2bb 35ec 80be 068b 993e 4c2b 7a3d
00000020: 54ce 43be 6f2b 693c 1419 85be d139 27be
00000030: 4687 24bd 498a 233d e4fe c63e 1057 94bc
00000040: 339c ae3e 75bc b0be 4733 78be aaaf 7abe
00000050: 84f2 223e b586 aebe 8dda 483e 3477 dd3e
00000060: b70f 00be 31fe 4b3e ba00 863d 3088 4cbd
00000070: 104f a43d e657 fcbc 416e fdbd 8deb 31be
00000080: 0024 9bbd a1bd 263e d2ea 6e3e 2615 ee3c
00000090: a0e9 863e 0e2a 50be 5253 33be e4dd 493d
000000a0: 3b38 563d 530f e0bd cda7 833e adf1 8cbe
000000b0: 1d81 81be 6539 35be 7fc1 34bd bfcc 30bd
000000c0: c447 1a3d e549 14be d7b4 12be 612a 943e
000000d0: ebd4 c1bd 09a7 f43d 9366 18be b93c 75be
000000e0: 86de a03e 17b3 39bc f5f1 273e 71e0 63be
000000f0: dce7 613e 55db 513e 2e78 d0be 725a 753d
00000100: 99ab 9e3e b565 5d3e 06fe f43c 76e6 65be
00000110: acf2 afbe 0890 343e 7bcd 53bc ac3e 8f3e
00000120: 467c 753e 58ad 90be fae0 513e 33aa bdbd
00000130: 3223 34be ced3 033e 8ee4 c6bd 183f 133c
00000140: 12de 933e e24e 7abe 1e8b 25be 8893 dcbd
00000150: 7375 bebd 68f5 9abe 966a 083e d388 acbe
00000160: adc0 c5bd 40a0 a3bd 5f8c 9c3d 4902 dabc
00000170: 5b97 4bbc 7831 373e 7ed1 9a3e bcf2 6c3d
00000180: 4345 f9bd 0c97 7ebe 2d76 003e ff31 8e3e
00000190: c561 dc3d 82dc 42be 89d3 5c3d 4dc4 3abe
000001a0: 4737 cd3e f42c 80be d06b 643c 7c64 a53d
000001b0: e70b acbd ea27 a63e cc53 d8bc bfad db3d
000001c0: bf57 043e 5500 8f3c fcd0 03be 6871 20be
000001d0: ef00 b4be d066 993e 7695 b83d 99b5 8bbd
000001e0: 7ef0 a5bd 22dc 17be 95af 833d f1e0 b0be
000001f0: a464 3ebe 5422 c23c ba89 723e 0281 67bd
00000200: 5709 953e a44f 95be e716 1dbe 5ff6 323d
00000210: e7a0 073e fad1 cdbe cea5 42be 1054 ee3e
00000220: 541f ffbd b42b df3b 0fc3 9cbe 550f 95be
00000230: 488b ee3c 2ceb 4abc c734 88bd 9a00 68be
00000240: cf3a cb3c fa72 5d3e 0861 5ebe eac2 243e
00000250: 9df9 d8bc 7351 933e 6b9f e43c 1547 7e3d
00000260: 5d2f de3c 4157 d33d caa4 013d 9f74 773d
00000270: c7a4 3fbe 7638 d93b 239a 84bd aace 07be
00000280: df38 59be 6241 8dbd 47b1 d83c 8c43 0dbe
00000290: ca92 693a 20d7 24be 7632 d83d fda9 32bb
000002a0: 8f43 603e a11c 1abe d345 1b3d 8fc7 9b3e
000002b0: 3298 923e 539c 0c3e 55da 72bd 1d7b 63be
000002c0: 5c61 1d3e 6c2e 1e3e 52f9 873e 5fce adbe
000002d0: 8977 2ebe 2657 483d a601 b7bd 0433 b3bd
000002e0: d389 74bd db25 5e3e 2463 4abd 7e77 ecbd
000002f0: 1596 efbe 9962 4e3e 8b5b 0e3e 44e5 ecbd
00000300: 80e3 893e 61c9 613d a696 b4bd f91e a2be
00000310: b3cb 5cbe 5870 e63e 1cf9 6cbd a4f5 383e
00000320: 98d0 bd3d 0c0c 953e 57de 0abe eb51 26be
00000330: 2994 b4be afa4 b6bd 1393 95bb 0849 c1bd
00000340: 9f04 de3e 3bcc 293e 196c edbe af43 963e
00000350: 3c47 c2bd 1198 293e 7632 f2be ed87 d5be
00000360: 3a7e 90bd 85c4 9a3e 0da4 c6be f1ab c1be
00000370: 8074 ae3c 65c9 863e b212 ac3e e497 c53e
00000380: 4ab0 463e 6f8c 633e ce5b 4cbd eab7 29bd
00000390: 1f1b a93d d820 763d 3f22 8ebe 8512 b5bd
000003a0: ab7e 9a3d e393 08be 0862 10be 4554 44be
000003b0: 3106 3bbe 90c3 a2be 3fcd c0bc d3d3 31be
000003c0: 7147 37be f36a 953d 4aff e03c 98fc 6e3e
000003d0: e970 98be c3de f03b 93b7 cb3d 77cc 9ebd
000003e0: 2d85 bdbd 08a7 85bd 3731 a43d c37c 8a3d
000003f0: ea44 5ebe a0fa 1d3e d843 72be 8ae2 3fbd

predAlpha/Mod_B0_L5/Tensordot/MatMul f4 [14, 28]
-0.19801515 0.2961713 -0.25541005 -0.3020851 -0.23218745 0.11012456 -0.058846004 0.093932286
0.25379473 0.0267522 0.03210678 0.11619268 -0.03737249 -0.2733717 0.06922999 0.26320413
-0.31619325 -0.4900647 0.054162137 -0.28412318 0.21497938 0.061854493 -0.18476117 -0.19122812
-0.36528194 0.2510601 0.0006331853 0.07544201 0.11687238 0.45099333 0.21709104 0.24941379
-0.17898694 -0.44922033 -0.20401563 -0.22298111 0.030848758 -0.019074844 0.0049278354 0.15745036
-0.21074457 -0.12203215 -0.26736906 -0.068519816 -0.30002263 -0.03349058 0.28512135 0.07678106
0.076468684 0.114477515 0.19125308 0.18592773 0.018869907 -0.04812733 0.08402635 -0.35795778
0.11659359 0.23058848 -0.10647699 -0.24759543 -0.1525374 -0.24925384 -0.08726705 -0.24103637
0.07977569 -0.006389516 -0.04969269 -0.20405726 0.16634062 -0.19696958 -0.050913118 0.124233074
-0.015545816 -0.10915252 -0.07792109 0.0027275577 -0.28360236 0.044528298 0.3605802 -0.10791815
-0.14817739 0.22552165 0.06384134 -0.04833701 0.39984602 0.08559752 -0.29142368 0.24340081
0.07617468 -0.09414423 -0.15321788 -0.0650229 -0.14375687 -0.2821328 -0.0019309366 -0.040878456
0.16068353 0.21641517 -0.013170601 0.32467932 -0.2087581 0.06405124 0.22223482 0.28623497
-0.18978548 -0.090051025 -0.19424039 -0.11927688 0.30187643 -0.09221775 -0.11614013 0.04069273
0.40107706 -0.12168237 -0.25888866 -0.14084695 0.079745665 0.25242755 0.02137186 -0.14175968
-0.14437024 -0.44878036 0.08364388 -0.2403167 0.0060402043 -0.31170642 0.16358249 0.26128
-0.12717403 -0.0503666 -0.05538228 0.3654133 0.12452264 -0.41518146 -0.2170298 0.20535047
0.0016915675 0.1393073 0.34040216 -0.21293125 0.04689496 0.15979123 0.1004467 0.033337735
-0.07898976 0.061439198 0.12037088 0.23056515 0.22835258 -0.39820063 0.03777723 -0.26861632
-0.27980787 -0.12613542 0.09837757 0.23576216 0.2095387 -0.21890016 -0.22223422 -0.1327688
0.17729604 0.18479085 -0.04649549 -0.31785628 -0.28427732 0.26635173 0.1606602 0.09825218
0.27631816 -0.062687725 -0.34298217 0.20196988 -0.13714576 -0.11294958 -0.0057345363 0.24970044
0.09400799 -0.30369326 0.11375298 0.48861626 0.09014162 -0.10451799 -0.0014499685 0.008845328
-0.017518632 0.08054612 0.28269222 0.02695034 0.24146786 0.02561631 0.050913863 -0.1704207
0.18144897 0.2556092 -0.054694492 0.033245936 0.012722667 -0.18753628 0.055926833 -0.20030376
-0.17272867 0.36469182 0.10493572 -0.16835135 -0.47689104 0.16675921 -0.012145701 0.009783293
-0.16441907 0.10980268 0.086745664 -0.042423382 0.2822188 0.30803138 0.103977285 0.057030484
-0.08425376 0.39197835 -0.20244151 0.029755132 -0.16194272 -0.20005757 -0.21270454 -0.054270472
-0.010879641 -0.02962817 -0.099132895 0.098900795 -0.29652977 -0.09094842 0.13092361 0.3886388
-0.042373836 0.28082308 -0.24036369 0.3299913 -0.2443729 0.055527024 -0.45244193 0.10632638
-0.35318956 -0.14950374 0.056007672 0.03971367 -0.3026762 -0.15211824 0.29108948 0.13007772
0.25901082 0.07873801 0.2655565 -0.45073393 -0.45417565 -0.2586388 -0.32772443 0.02452124
00000000: 7cc4 4abe c4a3 973e 1bc5 82be e6aa 9abe
00000010: 8cc2 6dbe fc88 e13d 8208 71bd 925f c03d
00000020: 62f1 813e 6e27 db3c 6682 033d 6ef6 ed3d
00000030: e513 19bd 60f7 8bbe 74c8 8d3d b1c2 863e
00000040: 15e4 a1be c3e9 fabe 1ed9 5d3d 9878 91be
00000050: 8e23 5c3e 235b 7d3d 0832 3dbe 4ed1 43be
00000060: 3c06 bbbe f38a 803e 59fc 253a 5781 9a3d
00000070: c95a ef3d 99e8 e63e 1d4d 5e3e 5466 7f3e
00000080: 5a48 37be 3500 e6be 79e9 50be 2955 64be
00000090: 89b6 fc3c d942 9cbc ae79 a13b ab3a 213e
000000a0: 6dcd 57be feeb f9bd 99e4 88be 1e54 8cbd
000000b0: 919c 99be 6b2d 09bd 6dfb 913e 633f 9d3d
000000c0: 9d9b 9c3d 3073 ea3d d9d7 433e d763 3e3e
000000d0: 1095 9a3c 2a21 45bd 0216 ac3d 3e46 b7be
000000e0: 9fc8 ee3d 631f 6c3e 9c10 dabd a889 7dbe
000000f0: c432 1cbe 663c 7fbe 11b9 b2bd 3dd2 76be
00000100: 7061 a33d 255f d1bb 908a 4bbd 63f4 50be
00000110: 3255 2a3e 65b2 49be 468a 50bd e96d fe3d
00000120: e1b3 7ebc 5b8b dfbd 1895 9fbd d3c0 323b
00000130: 5434 91be 4e63 363d f89d b83e 3104 ddbd
00000140: d0bb 17be 26ef 663e 40bf 823d 07fd 45bd
00000150: 9eb8 cc3e c14d af3d 7c35 95be 103e 793e
00000160: 7801 9c3d b1ce c0bd 26e5 1cbe ba2a 85bd
00000170: 0035 13be b673 90be 7b17 fdba 2b70 27bd
00000180: 398a 243e f09b 5d3e 81c9 57bc 5e3c a63e
00000190: afc4 55be 4c2d 833d 8691 633e 648d 923e
000001a0: 2057 42be ac6c b8bd f4e6 46be 7047 f4bd
000001b0: 8c8f 9a3e a9dc bcbd e0da edbd 6cad 263d
000001c0: f959 cd3e 9b34 f9bd 0e8d 84be 2f3a 10be
000001d0: b251 a33d 2f3e 813e 0a14 af3c 7329 11be
000001e0: cbd5 13be 8ac6 e5be 7c4d ab3d 9515 76be
000001f0: e8ec c53b fc97 9fbe 2b82 273e 7ec6 853e
00000200: e939 02be 354d 4ebd 88d8 62bd 7417 bb3e
00000210: ba05 ff3d aa92 d4be 0f3d 5ebe 6547 523e
00000220: 96b7 dd3a 93a6 0e3e 3149 ae3e a60a 5abe
00000230: ee14 403d 50a0 233e 00b7 cd3d 268d 083d
00000240: 62c5 a1bd aba7 7b3d 0285 f63d 4519 6c3e
00000250: 42d5 693e f4e0 cbbe 4cbc 1a3d 1488 89be
00000260: fa42 8fbe a529 01be 2e7a c93d a36b 713e
00000270: 5091 563e 5d27 60be 5e91 63be 8bf4 07be
00000280: 188d 353e d039 3d3e 0e72 3ebd 0fbe a2be
00000290: cc8c 91be 415f 883e 1c84 243e 7038 c93d
000002a0: 9379 8d3e 6c62 80bd 5c9b afbe 31d1 4e3e
000002b0: f06f 0cbe 1c52 e7bd c7e8 bbbb 79b1 7f3e
000002c0: 4387 c03d af7d 9bbe 53f7 e83d e92b fa3e
000002d0: 2b9c b83d 870d d6bd df0c beba ffeb 103c
000002e0: 3c83 8fbc 5df5 a43d 09bd 903e f6c6 dc3c
000002f0: 5a43 773e 4cd9 d13c 0e8b 503d c482 2ebe
00000300: c2cd 393e 36df 823e 5507 60bd e42c 083d
00000310: bc72 503c 8309 40be 8913 653d 6e1c 4dbe
00000320: c9df 30be e3b8 ba3e 8ae8 d63d 4c64 2cbe
00000330: 102b f4be edc2 2a3e c3fe 46bc 1b4a 203c
00000340: 795d 28be 3ae0 e03d b6a7 b13d 24c4 2dbd
00000350: fc7e 903e 4ab6 9d3e 0bf2 d43d cc98 693d
00000360: 3c8d acbd 63b1 c83e d44c 4fbe 09c1 f33c
00000370: 50d4 25be e4db 4cbe 38cf 59be b74a 5ebd
00000380: 8640 32bc c7b6 f2bc 3006 cbbd 808c ca3d
00000390: c0d2 97be 2a43 babd d710 063e aafb c63e
000003a0: 3090 2dbd 0bc8 8f3e e621 76be 9ff4 a83e
000003b0: e43c 7abe 4e70 633d 78a6 e7be a5c1 d93d
000003c0: 43d5 b4be 8217 19be 4d68 653d cdaa 223d
000003d0: 60f8 9abe e2c4 1bbe ae09 953e 1833 053e
000003e0: 119d 843e 6541 a13d 06f7 873e 99c6 e6be
000003f0: b689 e8be 4e6c 84be 7fcb a7be c4e0 c83c

predAlpha/Mod_B0_L7/batchnorm/sub f4 [14]
-1.0275519 -0.6292667 -0.44343948 -1.0930833 -0.43742174 -1.0826759 -1.4298346 -0.55992055
-0.6376722 -0.8439566 -0.6128707 -0.7873127 -0.4314477 -0.62598425
00000000: d286 83bf 9f17 21bf 800a e3be 27ea 8bbf
00000010: bef5 dfbe 2095 8abf d204 b7bf f456 0fbf
00000020: 7c3e 23bf 8a0d 58bf 18e5 1cbf 538d 49bf
00000030: b7e6 dcbe 8140 20bf

predAlpha/Mod_B0_L7/batchnorm/mul f4 [14]
7.7206707 4.624471 2.9877563 6.1874533 1.6688855 2.2637749 2.630542 4.0655212
0.7280977 10.327357 1.2297022 6.011609 9.472932 3.04164
00000000: bc0f f740 abfb 9340 6637 3f40 9eff c540
00000010: 0a9e d53f b0e1 1040 cd5a 2840 c018 8240
00000020: 9c64 3a3f db3c 2541 e266 9d3f 1a5f c040
00000030: 2191 1741 3baa 4240

predAlpha/Mod_B0_L3/batchnorm/sub f4 [28]
-1.4959191 -1.4305855 -0.16918229 -0.55794734 -0.02382718 -1.1241425 -0.7035076 -1.4257339
-1.2876209 -0.7073676 -0.11522497 -0.61860746 -0.5420724 -0.608025 -2.3573737 -0.6492172
-1.3417645 -1.2360218 -1.4500662 -2.0029047 -1.8449384 -2.646745 -1.176121 -3.736459
-3.006228 -7.251545 -1.1239356 -4.0905743
00000000: 477a bfbf 6d1d b7bf 1f3e 2dbe a3d5 0ebf
00000010: 3831 c3bc e7e3 8fbf 1319 34bf 737e b6bf
00000020: c3d0 a4bf 0b16 35bf 12fb ebbd 0f5d 1ebf
00000030: 42c5 0abf 87a7 1bbf 36df 16c0 1933 26bf
00000040: f0be abbf f635 9ebf c59b b9bf 972f 00c0
00000050: f126 ecbf 4564 29c0 228b 96bf 2522 6fc0
00000060: 0a66 40c0 a80c e8c0 1fdd 8fbf fce5 82c0

predAlpha/Mod_B0_L3/batchnorm/mul f4 [28]
0.7964235 0.5306062 13.452562 2.372869 1.3865181 1.110655 1.5784355 3.5072677
0.70455515 2.435694 20.359297 3.3652177 1.8026079 3.8427956 8.299134 3.2789948
0.75516295 4.038258 1.3107536 5.326289 1.3126632 1.9113973 1.812236 2.8580897
10.130461 8.683405 2.6889663 3.709285
00000000: 69e2 4b3f cfd5 073f b23d 5741 16dd 1740
00000010: 6d79 b13f f129 8e3f 2d0a ca3f 1377 6040
00000020: ba5d 343f 69e2 1b40 d7df a241 ba5f 5740
00000030: dbbb e63f 5df0 7540 41c9 0441 0ddb 5140
00000040: 5c52 413f 6939 8140 c6c6 a73f f670 aa40
00000050: 5905 a83f aba8 f43f 59f7 e73f f1ea 3640
00000060: 5e16 2241 3aef 0a41 0618 2c40 ed64 6d40

predAlpha/Mod_B1_L0/BiasAdd/ReadVariableOp f4 [32]
0.009585108 0.024867747 0.07576412 -0.030244911 0.02557878 -0.0861093 0.0812021 0.14864226
-0.07968776 -0.056459483 -0.017770585 0.16751885 0.0995667 -0.032885417 -0.09919193 0.12668972
-0.022418927 -0.02581223 0.10808496 0.06672281 -0.032372292 0.11143092 -0.016942069 0.1539583
0.13908653 0.12132125 -0.025256528 0.10926556 0.12851945 -0.043368764 0.014575128 0.11524362
00000000: db0a 1d3c 72b7 cb3c 382a 9b3d 2dc4 f7bc
00000010: 978a d13c 135a b0bd 494d a63d ad35 183e
00000020: 5633 a3bd 0f42 67bd 9e93 91bc 108a 2b3e
00000030: a0e9 cb3d dcb2 06bd 2325 cbbd f3ba 013e
00000040: e6a7 b7bc 2b74 d3bc a65b dd3d f8a5 883d
00000050: cf98 04bd e535 e43d 18ca 8abc 3fa7 1d3e
00000060: b36c 0e3e 4777 f83d c7e6 cebc 9fc6 df3d
00000070: 9a9a 033e 72a3 31bd 85cc 6e3c d904 ec3d

predAlpha/Mod_B0_L5/BiasAdd/ReadVariableOp f4 [14]
-0.050592873 -0.012641525 0.010818329 0.0048143086 0.059465453 -0.1268785 -0.025327848 -0.058291182
0.039829236 -0.09658397 0.070073195 -0.12785009 -0.16885251 -0.050087284
00000000: 793a 4fbd 661e 4fbc 5c3f 313c 59c1 9d3b
00000010: 0c92 733d 70ec 01be 597c cfbc bcc2 6ebd
00000020: fb23 233d d1cd c5bd 8982 8f3d 22eb 02be
00000030: ace7 2cbe 5328 4dbd

predAlpha/Mod_B0_L1/BiasAdd/ReadVariableOp f4 [28]
0.008413491 0.01009545 -0.004152079 0.009321843 -0.021107418 0.00024774834 0.0092215855 -0.023261888
0.026388226 -0.054214217 -0.04765337 0.02573762 -0.0044902884 0.02408109 -0.03302263 -0.023785008
0.052710373 -0.05017979 -0.013669599 0.010612609 0.02793727 -0.041970436 0.063767776 -0.0017396715
-0.01963064 -0.013878597 0.07648654 -0.039597407
00000000: bdd8 093c 6367 253c 2a0e 88bb a5ba 183c
00000010: 77e9 acbc 38e4 8139 2216 173c b78f bebc
00000020: 1f2c d83c ba0f 5ebd 2e30 43bd b4d7 d23c
00000030: 4523 93bb b545 c53c bd42 07bd c7d8 c2bc
00000040: d5e6 573d 5389 4dbd 74f6 5fbc 82e0 2d3c
00000050: b4dc e43c 31e9 2bbd ae98 823d b005 e4ba
00000060: 70d0 a0bc 0e63 63bc faa4 9c3d e430 22bd

predAlpha/Mod_B0_L1/Tensordot/MatMul1 i1 [28, 57] scale=0.0030925493 zero_point=0
0.120609425 -0.2010157 -0.19173805 0.09586903 -0.03711059 -0.17936786 0.04638824 -0.2072008
0.2010157 -0.058758438 -0.05257334 0.09277648 -0.09277648 -0.07422118 -0.13916472 -0.061850987
-0.108239226 0.26286668 -0.117516875 -0.015462747 -0.058758438 -0.18555295 -0.24431139 -0.0061850986
0.18864551 -0.20410825 0.0 0.120609425 0.09586903 0.17009021 0.027832944 -0.117516875
0.25977415 0.08040628 -0.111331776 -0.281422 0.04948079 -0.27214435 -0.15462746 0.18246041
-0.25049648 -0.015462747 0.108239226 -0.04329569 0.15153491 -0.34945807 0.20410825 0.07422118
0.24740395 0.2257561 0.08040628 -0.17936786 -0.10514668 0.18246041 -0.09277648 0.17009021
-0.18246041 -0.04329569 0.16081256 0.10514668 0.108239226 0.04020314 0.07731373 0.281422
0.09586903 0.36182827 -0.012370197 -0.018555295 -0.009277647 0.0061850986 -0.08968393 0.0061850986
0.21029335 -0.012370197 0.027832944 0.04948079 0.08659138 -0.07422118 0.0030925493 -0.18246041
-0.18555295 0.021647844 -0.06803609 -0.058758438 -0.015462747 -0.030925494 -0.018555295 -0.06494354
0.09586903 -0.08040628 -0.14844236 -0.08968393 -0.009277647 0.0 -0.055665888 -0.015462747
0.061850987 -0.08659138 -0.12988707 0.009277647 -0.27832943 0.19173805 0.114424326 0.06803609
-0.04948079 -0.0030925493 -0.021647844 -0.25977415 -0.009277647 0.29997727 -0.015462747 -0.117516875
0.07112864 0.009277647 0.17009021 -0.08659138 -0.12988707 0.18555295 0.21647845 0.10514668
0.034018043 -0.117516875 -0.034018043 0.114424326 -0.024740394 0.08040628 0.03711059 -0.24431139
-0.04948079 0.030925494 0.034018043 0.0030925493 -0.2010157 -0.07422118 0.05257334 0.2010157
-0.09277648 0.117516875 0.24740395 0.09586903 -0.27832943 -0.07422118 0.17009021 -0.06803609
0.10205413 0.2133859 0.061850987 0.25358903 0.04329569 0.111331776 -0.058758438 -0.16081256
0.15153491 -0.04329569 -0.14534982 0.27523687 0.114424326 -0.17009021 -0.15153491 -0.2072008
-0.06494354 0.29069963 -0.06494354 -0.16390511 0.027832944 0.05257334 -0.027832944 -0.015462747
0.17627531 0.15153491 0.2690518 0.0 0.25049648 -0.15772001 -0.27523687 0.009277647
-0.06494354 0.13916472 0.14534982 0.04638824 0.08968393 0.0 -0.055665888 -0.0061850986
0.08968393 -0.07422118 -0.04948079 0.219571 -0.030925494 0.04329569 0.36492082 -0.021647844
-0.018555295 0.12988707 -0.219571 -0.08659138 -0.16699766 -0.024740394 0.07112864 0.19483061
-0.15772001 0.29069963 0.08968393 0.18555295 -0.14225727 0.29997727 0.111331776 0.26286668
0.14225727 0.17009021 -0.14225727 0.08349883 0.04948079 0.04020314 0.06494354 0.034018043
0.08659138 0.22266355 0.24121885 -0.061850987 0.030925494 0.23503375 0.09896158 -0.19792315
0.21647845 0.14844236 0.012370197 0.30306983 -0.027832944 -0.04638824 0.07112864 0.03711059
0.09277648 0.17627531 -0.08659138 -0.16390511 -0.09586903 -0.12679452 -0.04948079 0.015462747
0.055665888 -0.27214435 -0.04638824 -0.22884865 -0.15462746 -0.2257561 -0.2133859 -0.04329569
-0.219571 0.06803609 -0.12988707 0.10514668 0.15772001 0.2072008 -0.18555295 0.111331776
00000000: 27bf c21f f4c6 0fbd 41ed ef1e e2e8 d3ec
00000010: dd55 dafb edc4 b1fe 3dbe 0027 1f37 09da
00000020: 541a dca5 10a8 ce3b affb 23f2 318f 4218
00000030: 5049 1ac6 de3b e237 c5f2 3422 230d 195b
00000040: 1f75 fcfa fd02 e302 44fc 0910 1ce8 01c5
00000050: c407 eaed fbf6 faeb 1fe6 d0e3 fd00 eefb
00000060: 14e4 d603 a63e 2516 f0ff f9ac fd61 fbda
00000070: 1703 37e4 d63c 4622 0bda f525 f81a 0cb1
00000080: f00a 0b01 bfe8 1141 e226 501f a6e8 37ea
00000090: 2145 1452 0e24 edcc 31f2 d159 25c9 cfbd
000000a0: eb5e ebcb 0911 f7fb 3931 5700 51cd a703
000000b0: eb2d 2f0f 1d00 eefe 1de8 f047 f60e 76f9
000000c0: fa2a b9e4 caf8 173f cd5e 1d3c d261 2455
000000d0: 2e37 d21b 100d 150b 1c48 4eec 0a4c 20c0
000000e0: 4630 0462 f7f1 170c 1e39 e4cb e1d7 f005
000000f0: 12a8 f1b6 ceb7 bbf2 b916 d622 3343 c424
