indian-sign-language-learning-app-win32-x64/resources/app/Models/Words/_you.tflite (tflite, 15504 bytes, 11 tensors)

predAlpha/Mod_B3_Lo/MatMul f4 [1, 32]
000000 ac 59 64 3e bb 24 11 bf e0 ae 52 be df cb d9 3d
       0.22299832 -0.5669667 -0.20574522 0.106345885
000010 47 54 de be 3b d6 ff be 31 45 a3 be cf d4 d6 be
       -0.43423674 -0.49968132 -0.31888726 -0.41959235
000020 20 fd e6 3e 64 87 ec 3e 73 f5 8d be 69 8d 85 be
       0.45114994 0.46197045 -0.27726325 -0.2608445
000030 6b 08 0e bf 17 7e ad 3e a1 55 85 be 72 36 bc 3e
       -0.55481595 0.3388526 -0.26041892 0.36760288
000040 5a ce ae be 42 9d a3 be 61 1b c1 3e ad 7d f4 be
       -0.3414181 -0.31955916 0.377162 -0.47752133
000050 d1 c4 76 be ea f4 ea 3e 83 d5 03 3e fb 39 7c be
       -0.24098517 0.4588998 0.12874417 -0.24631493
000060 6f 16 e2 bd 45 ec 75 3e 8b a1 ed bd e4 a2 c4 be
       -0.11039435 0.24015911 -0.116030775 -0.38405526
000070 55 3f c1 3e a0 ea 99 3e 87 d4 85 3e 63 a5 b8 3e
       0.3774363 0.30061817 0.26138708 0.3606368

predAlpha/Mod_B1_L0/MatMul f4 [32, 28]
000000 f8 43 7e 3e 6f 90 85 3d d3 63 22 3d 3f 8d ab be
       0.24830616 0.06521689 0.03964598 -0.335062
000010 a4 c6 8f 3d c5 9e 00 3e 80 80 f4 3d 9a f4 5a 3e
       0.070203096 0.12560566 0.11938572 0.2138237
000020 5f 76 cd 3c 42 e2 af 3d 36 64 28 bd d0 3c af 3d
       0.025080858 0.08588077 -0.041111194 0.08556521
000030 9d d2 a0 3e b0 71 c9 bc 60 3a 69 bd e5 66 ad 3e
       0.31410685 -0.024590343 -0.056940436 0.33867565
000040 6f 9c e2 bd 70 58 aa 3d 39 dc d0 bd 0c 58 d0 3d
       -0.110649936 0.08317649 -0.10198254 0.101730436
000050 55 f5 83 be 2a ef 66 3e 9e 76 0e 3e 00 84 cc bd
       -0.2577311 0.22552171 0.13912436 -0.099861145
000060 e5 53 31 3d d6 19 e5 3c a0 2f b2 bd c0 44 fb bc
       0.0432929 0.027966421 -0.0870049 -0.030672431
000070 2d 2a 71 be a7 92 0f 3e 3a 4c c4 3e c7 ca 1c be
       -0.23551245 0.14020787 0.38339406 -0.15311728
000080 cf ba db 3e 78 ee dc bd 5c d0 d6 bd ed 6b cd 3e
       0.4291596 -0.10787672 -0.1048896 0.40121403
000090 39 4b f5 3c 45 3c 39 3e 1f f9 89 3e 98 7c c3 be
       0.029943096 0.18089397 0.26947877 -0.38180995
0000a0 61 bf 9a be 4d d6 03 3e e6 3d 66 3e 8c 6b 5f 3c
       -0.30224136 0.12874718 0.2248455 0.013636481
0000b0 e0 ef d8 3d 2d 33 38 be a6 e7 04 bd 5f 52 68 bd
       0.105926275 -0.17988272 -0.03244748 -0.05671918
0000c0 9f ba b1 3e 42 33 4a 3e 85 08 30 be ba c8 16 be
       0.34712693 0.19746116 -0.1719075 -0.14725009
0000d0 4a 27 33 3e f6 16 0f bf a0 65 8f bd a1 a7 fb 3d
       0.17495456 -0.5589441 -0.07001805 0.12287832
0000e0 54 19 ad bd 7a 63 77 3c e0 75 81 3e ac 2b b4 bd
       -0.084520966 0.015099401 0.25285244 -0.08797392
0000f0 0d 2b a7 bd 30 81 34 bc ca 97 9f 3d c2 fb 85 bd
       -0.08162508 -0.011017129 0.07792623 -0.065421596
000100 b5 23 89 3e 9d 8a 9b 3e 2c 74 fc bd 97 52 1d bc
       0.26785055 0.3037919 -0.123268455 -0.0096022105
000110 bc e0 b9 be ae 8a 22 3e 96 73 b4 3d f8 a7 4d 3e
       -0.3630427 0.15873215 0.08811109 0.20083606
000120 3b 80 97 be 91 e9 8b 3e 3d e5 de be 84 3e 26 3d
       -0.2959002 0.27326635 -0.4353427 0.040586963
000130 3a a0 52 3e 6f 4d f0 be fe cb 32 ba 22 f3 1e bc
       0.20568934 -0.46934077 -0.00068205583 -0.009701522
000140 6a 5e d8 bd 65 d9 3b bd 09 df 41 3d 4a 27 1c 3e
       -0.10564883 -0.04586162 0.047331844 0.15249363
000150 10 c8 be 3e 7f 35 9c bd ac a4 5c 3c 81 7b 9c be
       0.3726201 -0.07627391 0.013466995 -0.30562976
000160 33 94 cd 3d db 35 d3 3a 98 e6 96 3d 50 a8 80 be
       0.100380324 0.0016114073 0.07368201 -0.25128412
000170 9c 63 23 be fb c1 df 3e f1 04 00 3e 80 4e 1b 3d
       -0.15955967 0.43702683 0.12501885 0.03791666
000180 21 12 f2 3d 6e c2 92 ba 2f 04 a8 3c dc f9 90 3e
       0.11819864 -0.001119686 0.020509807 0.28315628
000190 80 cd 81 bd 60 e5 36 bd f5 99 21 bd 6c 91 13 3e
       -0.06338024 -0.044652343 -0.039453465 0.14410943
0001a0 f6 f3 0b be b0 61 13 3e a5 dc 06 be 29 1f 17 be
       -0.13667282 0.14392734 -0.13170107 -0.1475798
0001b0 8e 8d f6 3d 49 b5 79 3e f7 7b 27 be 91 d8 aa 3c
       0.12038718 0.24385561 -0.16355883 0.02085522
0001c0 61 01 dd 3d 7a 51 1a 3d f4 8e ca 3d 8b f7 f4 bd
       0.10791279 0.03767536 0.098905474 -0.119612776
0001d0 a7 b3 88 bd ad 86 ea 3d 4d 32 05 3f 9b 03 05 bd
       -0.06674891 0.114514686 0.5202988 -0.03247414
0001e0 1f b4 4c 3e 20 be 86 3e bf ec 83 3e 58 08 26 be
       0.19990586 0.2631693 0.2576656 -0.1621412
0001f0 e3 73 56 be ef cf 72 be 99 12 2a be d3 e2 53 be
       -0.20942645 -0.23712133 -0.16608657 -0.20691995
000200 d9 44 43 3e 5f f7 c7 be e8 62 e5 bc 4c f6 02 be
       0.19069232 -0.39055917 -0.028001264 -0.12789267
000210 a4 83 46 3e 51 02 44 3e 85 ca 67 bc ce 21 20 be
       0.19386154 0.19141509 -0.0141474055 -0.15637895
000220 c3 66 56 3e 42 4e 90 bc 0f 4d 10 3e fe c1 05 be
       0.20937638 -0.017615441 0.14091896 -0.13062283
000230 d3 0f 26 be 63 d1 17 be 91 64 bf be cc a2 f9 3d
       -0.16216974 -0.14825968 -0.37381414 0.12189254
000240 67 ec 6c bd d5 a1 59 3e 0c 0a fb 3d f2 bb 84 be
       -0.05784264 0.2125314 0.12257776 -0.2592464
000250 63 2a f9 3d a3 26 2e 3e 16 d3 fb 3d 7b 5c f4 bd
       0.12166288 0.17006926 0.12296121 -0.11931702
000260 4a 43 f6 bd e8 ef a6 3c 97 32 78 3e b4 98 ee 3d
       -0.12024553 0.020378068 0.24238048 0.116502196
000270 33 97 58 be ea 77 94 3e 40 ec aa be 11 17 66 3d
       -0.21151428 0.28997737 -0.3338337 0.05617434
000280 01 1d 95 3d f8 07 38 be 28 e2 38 be 5c 7f 24 be
       0.07280923 -0.1797179 -0.18055022 -0.16064209
000290 6e 42 e9 bc 47 b6 64 be e0 7e 4c bb 75 21 8a 3d
       -0.028474059 -0.22335158 -0.0031203553 0.06744663
0002a0 4c 18 7d 3b a5 59 13 3e 72 40 99 3c dd b3 df 3c
       0.0038619218 0.14389665 0.018707488 0.027307445
0002b0 c9 8a 31 3e 7c 09 03 be 54 b7 b3 be 1f 55 ed 3d
       0.17338099 -0.12796587 -0.35100806 0.11588501
0002c0 5d 85 51 be 28 d9 02 3d fd ca c4 3e ce f0 b8 3d
       -0.2046103 0.031945378 0.38436118 0.09030305
0002d0 24 6d 8f 3e d7 e5 a0 3c 99 2e be bd 18 44 7c 3e
       0.28012955 0.019640846 -0.092862315 0.2463535
0002e0 90 15 96 3d eb b9 d2 3d 81 56 ce 3d af 44 58 be
       0.073283315 0.10289367 0.10075093 -0.2111995
0002f0 30 f8 3d 3e 08 a0 2d 3e 80 27 2c be 74 80 85 be
       0.18551707 0.16955578 -0.16811943 -0.26074564
000300 31 0b a2 3d bf d6 03 3e 44 c0 e9 bd 4e 6e 00 3f
       0.07912291 0.12874888 -0.11413625 0.5016831
000310 7b fd a0 bd ef 9e bf 3e b3 cf 85 3d 22 26 04 3e
       -0.078608476 0.37425944 0.06533756 0.12905172
000320 9a 9a ad 3e 06 3e 81 3d f1 83 eb be 52 19 ec 3d
       0.33907014 0.06310658 -0.459991 0.11528267
000330 a4 2f ae bd b0 9f 9c be 11 22 47 be fb ce 17 be
       -0.085051805 -0.30590582 -0.19446589 -0.1482505
000340 f3 6d 0e be d8 ec f9 bd 85 46 a7 3d 9c 46 72 3e
       -0.1390913 -0.122033775 0.081677474 0.23659748
000350 c8 35 89 be 85 25 84 3e 61 e0 34 3e dc ad 03 be
       -0.26798844 0.25809875 0.17663719 -0.12859291
000360 21 8d 19 3e c5 e6 7b 3e b8 3b 33 bd 36 36 6d 3e
       0.14995243 0.2459975 -0.043758124 0.23165211
000370 96 ac a9 3e a8 54 a4 3e be 9e 8c be 7d d3 93 3e
       0.33139485 0.32095838 -0.2746486 0.2887229
000380 85 4c 6b be 23 d2 ad 3e ed c1 91 be ba c4 b1 3d
       -0.22978409 0.33949384 -0.28468266 0.08680101
000390 3a 04 85 bd c5 4d 93 be 9d 7a 74 3e 0b 5d 04 be
       -0.06494947 -0.2877027 0.23874898 -0.12926118
0003a0 c4 ed 8f 3d 9b 24 9f be 51 aa 96 be c3 33 59 3e
       0.07027772 -0.31082615 -0.29426816 0.21211152
0003b0 ed 8f 42 bd 3b 96 08 3e a4 07 82 be 74 22 68 be
       -0.04750054 0.13338558 -0.25396454 -0.22669393
0003c0 39 68 43 3d 8b 4f 9f 3c ce 96 9a bc 89 8b 57 bd
       0.047706816 0.019447109 -0.018870737 -0.052623305
0003d0 60 d7 47 3e 95 85 6b be da a9 b5 be 82 fc 6e be
       0.19515753 -0.23000176 -0.3548115 -0.23338512
0003e0 f2 3d 12 be 29 37 5e 3e 59 10 07 be c3 b7 8d be
       -0.14281443 0.2170073 -0.1318983 -0.27679262
0003f0 5f 43 3e be 40 35 89 3d 3a d2 c2 be 62 fe 32 3e
       -0.18580388 0.0669961 -0.38051015 0.17479852

predAlpha/Mod_B0_L5/Tensordot/MatMul f4 [14, 28]
000000 1c 0e 12 3e a8 8e 1c be 1c 8c 3c be 46 7c 32 3e
       0.14263195 -0.15288794 -0.18412822 0.17430219
000010 f1 87 32 3b db d4 30 3e f3 ce 74 bc f1 96 65 bc
       0.0027241672 0.17268698 -0.014941919 -0.014013038
000020 c3 01 40 3d 73 8a 8d 3e 05 26 73 3c b1 19 8e be
       0.04687668 0.2764469 0.0148406075 -0.27753976
000030 c6 33 33 3d 6a d6 53 3e ec 74 96 be 24 de 91 be
       0.043750547 0.20687261 -0.2938608 -0.28489792
000040 32 a9 d7 3c c7 5f 33 be e3 6d b1 3d c9 85 85 3d
       0.026325796 -0.17517005 0.08663537 0.06519658
000050 94 29 6a bd c6 3b 5f bc 17 66 12 be 7e 29 dd bd
       -0.05716856 -0.013625091 -0.14296757 -0.1079893
000060 22 27 b9 3e 73 14 51 3e 3f 07 3e 3e d5 8d bf 3e
       0.36162668 0.20417957 0.18557452 0.37412897
000070 2a db f9 bc 5e f8 0e be 1a f7 32 3e e9 39 75 3e
       -0.030500013 -0.13961932 0.17477074 0.23947872
000080 ec 25 ee bd ec 43 3c be 1d 4a b4 3e 23 8a f8 bd
       -0.11628327 -0.18385285 0.35212794 -0.121357225
000090 1a d3 17 3d 09 b7 8f bc 3f d3 84 3b c1 43 84 3d
       0.037066557 -0.017543333 0.004053503 0.064582355
0000a0 be 84 3c be cb c0 2b 3e 2f 96 86 be 3e 74 ab be
       -0.18410012 0.16772763 -0.26286456 -0.33487123
0000b0 7d 5b c5 be 2e ad fa bc 77 57 bf 3e 02 9e 87 3d
       -0.38546363 -0.030600157 0.37371418 0.066219345
0000c0 e5 b0 db bd 40 74 aa bd 45 2d 39 bd f5 a3 18 be
       -0.10727099 -0.08322954 -0.045209188 -0.14906295
0000d0 27 b4 68 3e 2a 85 59 bd 12 db 9f bd f2 0e 25 be
       0.22724973 -0.05310551 -0.07805456 -0.16118982
0000e0 5c 98 98 3e a1 c8 6e 3d 93 8e b6 3e ed ba 83 be
       0.2980374 0.058296803 0.3565565 -0.2572855
0000f0 bf 1c 93 bd ce 26 8a be ca c2 3f be bc da 72 bd
       -0.07183217 -0.2698273 -0.1872665 -0.059290633
000100 5f a5 84 3d 8c 6c bc bd 17 3a 73 bc f5 5d 1a be
       0.064768545 -0.09200391 -0.014845393 -0.15074904
000110 9a c2 36 bd e7 22 9c be 9e 87 30 be 50 e2 06 3e
       -0.04461918 -0.30495378 -0.17239234 0.13172269
000120 12 1a 98 be 47 15 05 be 83 c4 03 3e 68 72 f1 bd
       -0.2970739 -0.12996398 0.12867932 -0.117893994
000130 4d ea 23 bc d4 72 cb 3e a4 64 ad be 5c 5a 37 3d
       -0.010004592 0.39736044 -0.33865845 0.044763908
000140 76 02 96 3d c8 57 28 3e 1a ea 92 3e 3d c5 3a 3d
       0.07324688 0.16439736 0.2869423 0.045598257
000150 ab 90 83 3c 42 1d ae 3d 3d a1 a7 3d ac 23 e3 3d
       0.016060194 0.08501674 0.08185051 0.11090788
000160 b6 06 a1 bb 76 d0 76 3e 81 e6 f7 3c 44 30 66 be
       -0.00491413 0.24102959 0.03026128 -0.2247935
000170 e7 2e 01 bf e2 2c a7 3e cb 58 79 bd d4 cf 6c be
       -0.5046219 0.3265143 -0.060875695 -0.23126155
000180 65 f9 a1 3e 1b ba 8b bd 6e fd 31 3e e0 b0 3f 3c
       0.31635585 -0.06822606 0.17381832 0.011699885
000190 e6 54 8a 3c de 4a 89 bc be ef 1b bd 8f 72 38 3e
       0.016886186 -0.016759332 -0.038070433 0.1801245
0001a0 1a a9 0c 3e 64 7b aa be be d3 8a 3c b6 b9 46 be
       0.13736382 -0.33297265 0.01694667 -0.1940678
0001b0 31 67 8e be 76 a4 ef bd f1 56 26 3e 1b 07 8a bd
       -0.27813104 -0.1170129 0.16244103 -0.067396365
0001c0 15 fb 93 3d 80 4c 74 be d3 45 5f 3e 6d 55 49 be
       0.072256245 -0.23857307 0.2180398 -0.19661494
0001d0 13 ce b5 bc 75 16 b9 be bb 1e 68 be c2 71 16 3d
       -0.02219299 -0.36149946 -0.22667973 0.03672958
0001e0 8b 9a e1 3e 3c bd d3 3d cd c3 96 be b7 b6 06 be
       0.4406322 0.10338828 -0.2944626 -0.13155638
0001f0 1b ab 1f 3e 86 56 b7 bd c1 18 af 3e f4 10 65 3d
       0.15592615 -0.0895205 0.34198573 0.05592437
000200 d8 53 da be e9 d9 1f 3c ca 34 97 3d fb 19 80 be
       -0.42642093 0.009756544 0.073831156 -0.25019822
000210 0c 44 00 3e 8c 09 cf bd 9a 70 bd 3e 14 44 5e 3e
       0.12525958 -0.10109243 0.3699997 0.21705657
000220 cb d4 8b be 4e ad 48 3e 89 79 2a be 61 5b 93 3d
       -0.27310786 0.1959736 -0.16647924 0.071951635
000230 06 a8 5b 3c 6a 5b 08 be 51 37 05 3e 32 30 9b 3d
       0.013406759 -0.13316122 0.13009383 0.07577552
000240 5e bf f7 b9 99 ab 38 3e f6 f3 12 3d 10 fc d3 3d
       -0.0004725409 0.1803421 0.03587719 0.103508115
000250 eb 04 30 be b8 a0 92 3e d8 d0 52 bc bd ca f0 bd
       -0.17189376 0.28638244 -0.012867175 -0.11757419
000260 3e 77 fd bd 7d 2b da bd 96 1d e6 bd c7 fc cb 3d
       -0.12376259 -0.10652826 -0.11236112 0.09960323
000270 0b 7a 19 bd 03 a8 83 bd 58 03 32 3e a4 55 74 3e
       -0.037469905 -0.0642853 0.17384088 0.23860794
000280 dc 01 9c bd 1d 4c 0a be 15 da 13 3d 01 80 b8 be
       -0.07617542 -0.13505597 0.03609665 -0.3603516
000290 a9 ea 27 be e6 e8 45 be 11 63 aa be 97 54 bf 3e
       -0.1639811 -0.19327125 -0.33278707 0.37369224
0002a0 bb fe 82 be 28 ac 7e be f8 42 8a be e0 5e 87 3e
       -0.2558497 -0.2487036 -0.27004218 0.2643957
0002b0 5a 51 19 3d 7f b5 aa 3d b0 be 98 be 8b c9 a2 be
       0.0374311 0.08335399 -0.29832983 -0.3179439
0002c0 62 2a 1c bc 7c 99 f1 3d 03 0d 32 be 4f 2f 36 3e
       -0.009531589 0.11796853 -0.17387776 0.17791484
0002d0 60 16 a0 bd e3 1f a4 3e 71 6c 7b bd 80 96 88 be
       -0.07816768 0.32055578 -0.061382715 -0.26677322
0002e0 b9 fe 81 be 9e a8 f5 be ab 9d 8b be d7 39 91 be
       -0.2538965 -0.47980207 -0.2726873 -0.2836444
0002f0 a1 b9 ac be 5f 42 94 bc 5c 47 17 bd c1 ed 3d 3e
       -0.33735374 -0.018098054 -0.036933288 0.18547727
000300 67 ec 0b be f5 a9 2d be ff b7 00 3c 62 e0 b5 bd
       -0.13664399 -0.16959365 0.007856368 -0.08880688
000310 e2 17 bb 3d 5f 73 4c 3e 4c d7 e4 3d 69 64 b1 3e
       0.09135415 0.19965886 0.11173877 0.3464692
000320 3a 49 48 ba 5c 59 ad bc 4c 29 20 3e 44 4c a2 be
       -0.0007640306 -0.021160774 0.15640754 -0.3169881
000330 88 41 05 3e 6c cd 84 3e cf 0f c1 bc 09 a3 39 be
       0.1301328 0.25937974 -0.023567108 -0.18128599
000340 cf ba cd 3d 24 0a b7 3d 66 8b 33 bd f1 87 a2 3e
       0.100453965 0.08937481 -0.043834113 0.3174434
000350 84 da ae 3e 98 01 b8 3d ef ea 0b bd 80 c1 c9 3c
       0.3415109 0.08984679 -0.034159597 0.0246284
000360 ec c3 39 3e 03 40 0f be e1 25 2c be 92 57 58 be
       0.18141145 -0.13989262 -0.16811325 -0.21127155
000370 4b bf 90 3d 7a 81 ac bb 72 ad 34 be f6 40 7e be
       0.07067736 -0.0052644582 -0.17644289 -0.24829468
000380 5d 68 32 bd 38 19 9a be 7a fc ce 3d 0e 82 de bd
       -0.04355656 -0.30097365 0.1010675 -0.1086465
000390 a8 b2 6a 3a 13 ac b5 bc 4f eb 54 bd a9 00 a0 3e
       0.00089530135 -0.022176778 -0.05198222 0.31250504
0003a0 0d 7e eb be cd f8 00 3d a6 50 52 be e0 50 64 3d
       -0.45994607 0.031487275 -0.20538577 0.05574119
0003b0 94 f2 7f 3e 7d 9c ab be 31 c3 dc bd 2c 14 2c 3e
       0.2499488 -0.3351783 -0.10779417 0.1680457
0003c0 ab 94 4b bc 00 1a 1d 3e a3 ea 27 be 38 17 cd be
       -0.012425582 0.1534195 -0.163981 -0.40056777
0003d0 61 34 41 be ad 96 16 bb 2a 5e 0c 3b 1a 75 49 3e
       -0.18867637 -0.0022977993 0.002141843 0.19673577
0003e0 eb c3 be 3c f4 30 b7 3e f9 05 21 be 7a eb a4 3e
       0.02328678 0.35779536 -0.15724935 0.32210904
0003f0 07 19 9f 3d ed f0 ce 3d 29 9b eb 3b ea 44 5f 3e
       0.077684455 0.10104547 0.0071901274 0.21803632

predAlpha/Mod_B0_L7/batchnorm/sub f4 [14]
000000 7e 8b 44 bf 9e ea 5b bf a7 a9 7f bf 42 4b 57 bf
       -0.7677535 -0.8590487 -0.99868244 -0.8409921
000010 2e 74 2e bf 3d 5e 2f bf 2a 4a e1 bf c4 e3 35 bf
       -0.68146026 -0.6850317 -1.7600758 -0.7105067
000020 3a 8e 32 bf 91 04 c5 be 23 94 e3 be 07 d2 9d bf
       -0.6974827 -0.38480046 -0.44448957 -1.232972
000030 f7 15 77 bf 0c 77 4d bf
       -0.9651789 -0.80259776

predAlpha/Mod_B0_L7/batchnorm/mul f4 [14]
000000 0f 3b cc 40 3c 2f ea 40 e5 71 fa 40 9c e3 5f 40
       6.3822093 7.318266 7.826403 3.4982672
000010 5c b7 af 40 b7 02 19 40 bc 22 b2 40 21 c1 14 41
       5.4911327 2.3907907 5.56674 9.297151
000020 3e 7e f0 3f f8 4d 6b 40 d5 5f 0e 41 b2 18 a8 40
       1.8788526 3.6766338 8.8983965 5.2530146
000030 be 23 ac 3f f5 de 81 40
       1.3448408 4.0584664

predAlpha/Mod_B0_L3/batchnorm/sub f4 [28]
000000 a7 a4 1b bf 4b 07 58 be c1 de b1 bf dd 25 1b bf
       -0.60798115 -0.21096532 -1.3896104 -0.6060465
000010 d2 ff 70 3c 98 14 27 bf 27 c8 29 bf 99 0c 62 bf
       0.01470943 -0.652658 -0.66321033 -0.8830047
000020 93 d3 23 c0 d0 d8 15 ba 77 58 5a bf b4 21 cc bd
       -2.5597885 -0.00057162065 -0.85291237 -0.09967366
000030 e7 70 b5 bf dc d4 7d bf 5e 1d 3f be e7 5d 3f bf
       -1.417508 -0.9915292 -0.18663546 -0.7475266
000040 92 58 ad bf d1 85 05 c0 3f be 26 be 9c 1b fd bf
       -1.3542655 -2.0862925 -0.1628351 -1.9774051
000050 24 93 32 bf c2 a1 93 c0 7e 18 23 bc 8d 62 29 bf
       -0.6975577 -4.613496 -0.00995457 -0.66166
000060 8a 89 f6 be 71 4f 4f be f6 e4 c6 bf 13 6f 5a c0
       -0.4815181 -0.20245148 -1.5538623 -3.4130294

predAlpha/Mod_B0_L3/batchnorm/mul f4 [28]
000000 ef 70 f2 40 25 15 17 40 6e ad 0b 40 85 32 1d 40
       7.576286 2.3606656 2.1824603 2.4562085
000010 1b 1c a6 41 e2 cf 5e 40 a9 45 af 3f 97 23 16 40
       20.763723 3.4814382 1.3693134 2.3459222
000020 c1 96 08 41 c3 1d a6 41 95 8b 39 40 28 f7 c6 40
       8.536805 20.764532 2.8991444 6.2176704
000030 24 b8 6d 3f 03 90 4b 41 4b 33 b7 3f 99 31 f7 3f
       0.928591 12.722659 1.4312528 1.9312011
000040 90 fd 3a 3f d6 93 ed 3f 71 e2 ae 3f c8 d1 22 40
       0.73043156 1.8560741 1.3662854 2.544054
000050 8e 1e d4 3f f6 b3 7f 40 8c 5a a6 41 20 fc d4 3f
       1.6571825 3.995359 20.794212 1.6639442
000060 4c 00 b7 3f 1b eb a2 3f be 9e 2e 3f cc f1 da 40
       1.4296966 1.2727998 0.6821097 6.842016

predAlpha/Mod_B1_L0/BiasAdd/ReadVariableOp f4 [32]
000000 7f 00 8c bd 68 55 59 3e da 9b 1f 3e 2e 53 aa bd
       -0.06836032 0.21223986 0.15586796 -0.083166465
000010 ac 35 be 3d 47 dc 19 3e f4 f2 07 3e d3 89 c5 3d
       0.09287581 0.15025435 0.13276273 0.096454285
000020 73 9f 6c bd 98 63 74 bd d3 01 10 3e 15 97 1b 3e
       -0.05776925 -0.059665293 0.14063196 0.15194352
000030 51 45 f3 3d 73 e6 19 bd 55 3c 20 3e 73 31 48 3c
       0.118784554 -0.03757329 0.15648015 0.012218821
000040 41 f4 97 3d 4c d0 6b 3e c0 62 0d bd b7 0b 12 3e
       0.074196346 0.23028678 -0.034518003 0.14262281
000050 a2 56 76 3e 0a fd 90 3d dd 32 64 3d 8a e4 9d 3d
       0.24056485 0.07079513 0.05571257 0.07709606
000060 01 84 00 3e ed 40 eb 3c c5 8f 6b 3e e5 54 cd 3d
       0.12550355 0.028717482 0.23004062 0.10025958
000070 2d eb e1 3c 3a 3d 6e bb b3 3f 31 3d ad af 9d bd
       0.02757796 -0.0036352412 0.04327364 -0.07699523

predAlpha/Mod_B0_L5/BiasAdd/ReadVariableOp f4 [14]
000000 06 1f de 3b cc 69 4d 3c 5f 59 c5 3b 2a 0a 81 bd
       0.0067786006 0.012537431 0.0060226168 -0.06300767
000010 19 84 0a be a0 2e 07 3b de 91 90 3d 14 ae 40 bd
       -0.13526954 0.0020627156 0.07059072 -0.047041014
000020 1f 94 a2 3d 3b a3 0c be 1a b9 f1 bc d0 6f 28 bc
       0.07938408 -0.13734142 -0.029507209 -0.010280564
000030 13 e5 e5 3d bc 00 a9 bd
       0.11225333 -0.08252093

predAlpha/Mod_B0_L1/BiasAdd/ReadVariableOp f4 [28]
000000 f7 0b fe bb 47 5f fa bc be e7 8d bc 7a b0 aa 3c
       -0.007752891 -0.03056301 -0.017322417 0.020836104
000010 b4 b2 2d bc 84 45 9c 3d c1 41 c7 3d 43 aa 8d 3c
       -0.010601688 0.076304466 0.097293384 0.017293101
000020 35 44 8f bc a5 cc 70 bc 92 b3 2e bd 95 0d 95 bd
       -0.017488578 -0.014697229 -0.04265172 -0.07277981
000030 7b a3 45 bd 5b 34 af bc 66 6d 1f bb 17 79 62 3c
       -0.04825161 -0.02138727 -0.002432668 0.013822815
000040 b2 f9 9b 38 a4 ef 42 3d ba e6 91 bd 4d c9 06 3d
       7.437485e-05 0.04759182 -0.07124086 0.03290682
000050 5f d0 0b 3d 90 07 cd 3c b7 ba 36 bd 3a 31 9c bd
       0.034134265 0.02502802 -0.04461166 -0.07626577
000060 f2 ef ae bb ca b0 da 3c 83 e9 55 3d f7 af 86 3c
       -0.0053386623 0.026695628 0.052224647 0.016441328

predAlpha/Mod_B0_L1/Tensordot/MatMul1 i1 [28, 57] scale=0.002923892 zero_point=0
000000 00 02 04 0d 05 03 05 05 05 02 03 03 03 00 02 02
       0.0 0.005847784 0.011695568 0.038010597 0.01461946 0.008771677 0.01461946 0.01461946 0.01461946 0.005847784 0.008771677 0.008771677 0.008771677 0.0 0.005847784 0.005847784
000010 02 ff 01 01 02 f8 fc 00 03 05 00 06 08 0a fe 04
       0.005847784 -0.002923892 0.002923892 0.002923892 0.005847784 -0.023391137 -0.011695568 0.0 0.008771677 0.01461946 0.0 0.017543353 0.023391137 0.02923892 -0.005847784 0.011695568
000020 04 05 fc 01 02 0a fb ff ff 08 0d 0d 02 ff 06 02
       0.011695568 0.01461946 -0.011695568 0.002923892 0.005847784 0.02923892 -0.01461946 -0.002923892 -0.002923892 0.023391137 0.038010597 0.038010597 0.005847784 -0.002923892 0.017543353 0.005847784
000030 07 02 08 05 08 05 fc f6 04 16 3b d7 ec 2c c4 fa
       0.020467244 0.005847784 0.023391137 0.01461946 0.023391137 0.01461946 -0.011695568 -0.02923892 0.011695568 0.06432562 0.17250964 -0.11987957 -0.05847784 0.12865125 -0.17543353 -0.017543353
000040 17 13 fa d9 d4 a1 09 c6 32 0b e4 e7 a9 0a 9a 3e
       0.06724952 0.05555395 -0.017543353 -0.11403179 -0.12865125 -0.27776974 0.02631503 -0.16958575 0.1461946 0.03216281 -0.08186898 -0.0730973 -0.25437862 0.02923892 -0.298237 0.18128131
000050 b7 6d d1 b2 e6 c7 19 e8 08 31 1f 26 d0 66 fa 2e
       -0.21344413 0.31870425 -0.13742293 -0.22806358 -0.076021194 -0.16666184 0.0730973 -0.07017341 0.023391137 0.14327072 0.09064066 0.1111079 -0.14034683 0.298237 -0.017543353 0.13449904
000060 f5 d2 61 d6 00 fc e7 43 13 75 e1 26 5e d4 45 ac
       -0.03216281 -0.13449904 0.28361753 -0.12280347 0.0 -0.011695568 -0.0730973 0.19590077 0.05555395 0.34209538 -0.09064066 0.1111079 0.27484587 -0.12865125 0.20174855 -0.24560694
000070 dc 05 9c 18 1c 3a ee c5 02 04 39 fe c7 b4 02 1b
       -0.10526012 0.01461946 -0.2923892 0.07017341 0.08186898 0.16958575 -0.05263006 -0.17250964 0.005847784 0.011695568 0.16666184 -0.005847784 -0.16666184 -0.2222158 0.005847784 0.078945085
000080 1e be 3f 13 70 3d 0f bd dc dc df 4e f1 d5 09 03
       0.087716766 -0.19297688 0.1842052 0.05555395 0.3274759 0.17835742 0.043858383 -0.19590077 -0.10526012 -0.10526012 -0.09648844 0.22806358 -0.043858383 -0.12572736 0.02631503 0.008771677
000090 19 dd b7 f1 46 c8 e6 56 ef dd 32 13 d8 d5 33 3f
       0.0730973 -0.10233622 -0.21344413 -0.043858383 0.20467244 -0.16373795 -0.076021194 0.2514547 -0.049706165 -0.10233622 0.1461946 0.05555395 -0.11695568 -0.12572736 0.1491185 0.1842052
0000a0 fd dc f6 25 af 01 ea e0 ec db 27 f0 b9 54 1b f2
       -0.008771677 -0.10526012 -0.02923892 0.10818401 -0.23683526 0.002923892 -0.06432562 -0.09356455 -0.05847784 -0.10818401 0.11403179 -0.046782274 -0.20759635 0.24560694 0.078945085 -0.04093449
0000b0 11 4a 0b fe d7 03 f8 09 03 e1 ed 4f 25 2b f0 14
       0.049706165 0.21636802 0.03216281 -0.005847784 -0.11987957 0.008771677 -0.023391137 0.02631503 0.008771677 -0.09064066 -0.05555395 0.23098747 0.10818401 0.12572736 -0.046782274 0.05847784
0000c0 60 e7 0c ba 2c f4 19 b1 b9 1a 42 d3 38 11 f0 f4
       0.28069365 -0.0730973 0.035086706 -0.20467244 0.12865125 -0.035086706 0.0730973 -0.23098747 -0.20759635 0.076021194 0.19297688 -0.13157515 0.16373795 0.049706165 -0.046782274 -0.035086706
0000d0 0b 75 2b 52 1c 51 0c 20 24 f0 3e 4b 2a 04 50 bc
       0.03216281 0.34209538 0.12572736 0.23975915 0.08186898 0.23683526 0.035086706 0.09356455 0.10526012 -0.046782274 0.18128131 0.21929191 0.12280347 0.011695568 0.23391137 -0.19882466
0000e0 f7 17 26 54 ed 61 bb 46 28 de ed 0b 33 3e dd bd
       -0.02631503 0.06724952 0.1111079 0.24560694 -0.05555395 0.28361753 -0.20174855 0.20467244 0.11695568 -0.09941233 -0.05555395 0.03216281 0.1491185 0.18128131 -0.10233622 -0.19590077
0000f0 16 b7 0c 00 1a 49 08 ed 03 f9 e2 f6 41 fe 13 3c
       0.06432562 -0.21344413 0.035086706 0.0 0.076021194 0.21344413 0.023391137 -0.05555395 0.008771677 -0.020467244 -0.087716766 -0.02923892 0.19005299 -0.005847784 0.05555395 0.17543353
