Project/Models/Words/_hello.tflite (tflite, 15504 bytes, 11 tensors)

predAlpha/Mod_B3_Lo/MatMul f4 [1, 32]
-0.25478208 -0.2687919 -0.5124604 -0.17985962 -0.1449923 -0.48966503 -0.13921203 -0.097884856
0.15537374 0.43441704 0.45239747 -0.29174238 0.31691295 0.07596602 -0.0010346958 0.022065049
0.46090612 0.06205978 -0.5035485 -0.2178083 -0.16392715 0.29937518 0.25155768 0.19986638
0.0012517695 -0.04904241 -0.18676904 0.5076939 0.07592239 -0.51361597 -0.01838754 0.2910867
00000000: cc72 82be 189f 89be 9b30 03bf 1f2d 38be
00000010: dd78 14be 60b5 fabe 998d 0ebe db77 c8bd
00000020: 4b1a 1f3e e96b de3e a4a0 e73e 425f 95be
00000030: 6a42 a23e 1394 9b3d a19e 87ba c3c1 b43c
00000040: e3fb eb3e 6532 7e3d 8ee8 00bf 2409 5fbe
00000050: 85dc 27be b447 993e 2bcc 803e c6a9 4c3e
00000060: 6a12 a43a b2e0 48bd 6240 3fbe 3af8 013f
00000070: 337d 9b3d 567c 03bf 77a1 96bc 5109 953e

predAlpha/Mod_B1_L0/MatMul f4 [32, 28]
-0.35592562 0.14008124 0.0880229 0.19928738 -0.49989492 0.11660323 -0.14100632 0.045901693
0.18206035 -0.14801307 -0.013850314 -0.037721753 -0.15406153 -0.17588733 -0.12118673 0.12685509
-0.13956273 -0.08925148 0.11268151 -0.051841103 0.13971874 -0.1409378 0.47821245 0.05511786
-0.29029754 -0.404493 0.0155328605 0.20675842 0.2807383 -0.26952714 -0.011779703 -0.05531974
-0.05222736 0.07165277 -0.04460768 -0.25520316 -0.36600167 0.2793869 0.0052659987 -0.04800623
0.17703725 -0.35711214 0.3393092 0.19606884 0.27974546 -0.062371884 -0.1770508 -0.4746295
0.21216416 0.0679432 -0.08382228 0.070891924 0.039300963 0.22371809 -0.34885252 0.4318748
0.19614457 0.12347012 -0.27821538 0.07845143 -0.14381772 -0.39508247 -0.030652307 -0.40681437
0.17102769 0.38164318 0.34789434 -0.12420045 -0.0834265 -0.20886566 0.4380244 0.28911415
0.10613157 0.11287496 -0.04805245 -0.01625784 0.005706453 -0.020727955 -0.21790083 0.022213139
0.036205377 -0.011957612 -0.13013566 0.3709502 -0.09561522 -0.2869604 -0.08601692 0.05309269
-0.33853957 0.22086357 0.1889913 0.16310453 0.3427221 0.20515504 0.007288389 0.037247226
-0.18053393 0.1348443 0.25384867 0.053801842 0.2975069 0.008745289 0.19279127 -0.06303948
0.08116918 -0.112839654 0.2250358 -0.18826339 -0.128796 -0.22532216 0.05304413 -0.09893923
0.08859877 -0.13238932 0.123072855 -0.0053607523 -0.21079476 -0.2067333 -0.022402173 -0.08272877
-0.22286355 0.46024647 0.19670595 0.29216558 -0.044486336 0.37355667 0.020504931 0.21616235
0.078812346 -0.29388773 -0.097234055 -0.2314515 0.04664986 -0.04162 -0.07746753 0.11251322
0.0014502463 0.1791146 -0.36007047 0.26785856 0.42650405 0.0032294807 0.22685471 -0.0074571064
0.06395399 -0.37711376 -0.11905586 -0.34402528 -0.26229608 0.12309385 0.16936116 0.21604392
-0.044828445 -0.043243725 0.123905025 0.1791617 -0.10068154 -0.13660853 -0.10595142 -0.11649124
-0.4624224 -0.23522572 -0.0077156774 0.09363392 0.040929392 0.3309116 -0.25562552 0.040410083
-0.22899547 0.17266616 -0.05991553 0.32124248 -0.14322785 0.11092335 0.016085222 0.27160478
0.30039203 -0.074935235 -0.0576436 0.2835516 -0.08068233 -0.064048566 -0.10534137 -0.084172435
0.012580311 0.22809163 -0.016400294 0.19259834 0.010388613 -0.2641494 0.020927507 -0.26528665
-0.08766792 0.20233127 0.031662297 0.22513929 0.015207341 -0.043476753 -0.16148221 0.1942987
-0.06921856 -0.21904688 -0.23540547 -0.23261648 -0.0013387243 0.14692034 0.013138376 -0.010071203
0.32625642 -0.20138597 -0.18366209 0.5301709 0.44617704 -0.047551904 -0.15536356 -0.34449717
0.09322532 0.0032028446 0.12835433 -0.25854385 0.039829876 0.013245638 -0.030454027 -0.13395604
-0.24054007 0.2759971 -0.28655902 -0.049133163 0.31521875 0.14064635 -0.3455791 0.22179773
0.11538969 -0.06783886 0.05163536 -0.13810061 -0.035664544 -0.11940017 -0.07217032 -0.06333221
-0.018410934 -0.04165138 0.2715789 0.10329252 -0.18207313 0.20184995 0.12289707 -0.0854606
-0.057547633 0.14167261 0.051104717 0.15636432 -0.015176206 -0.09928142 -0.16801897 -0.34853074
00000000: e23b b6be 7571 0f3e 5a45 b43d fe11 4c3e
00000010: 3af2 ffbe adcd ee3d f663 10be 6a03 3c3d
00000020: 076e 3a3e bd90 17be 6dec 62bc 2082 1abd
00000030: 4ec2 1dbe cf1b 34be c030 f8bd 4de6 013e
00000040: 88e9 0ebe 7bc9 b6bd 90c5 e63d 5657 54bd
00000050: 6e12 0f3e 0052 10be 43d8 f43e 44c3 613d
00000060: e1a1 94be b519 cfbe 8a7d 7e3c 7bb8 533e
00000070: eebc 8f3e 76ff 89be a8ff 40bc f496 62bd
00000080: 5bec 55bd b0be 923d 8bb6 36bd fda9 82be
00000090: 9264 bbbe cd0b 8f3e 668e ac3b 2ea2 44bd
000000a0: 4149 353e 67d7 b6be efb9 ad3e 45c6 483e
000000b0: cc3a 8f3e a979 7fbd ce4c 35be a302 f3be
000000c0: 9041 593e ce25 8b3d 04ab abbd c92f 913d
000000d0: 0cfa 203d 5b16 653e cc9c b2be b21e dd3e
000000e0: 1fda 483e e7dd fc3d 3f72 8ebe 25ab a03d
000000f0: f444 13be 4048 cabe 8c1a fbbc f949 d0be
00000100: e221 2f3e bc66 c33e 351f b23e ce5c febd
00000110: 83db aabd e1e0 55be bc44 e03e c506 943e
00000120: 825b d93d fd2a e73d a5d2 44bd 292f 85bc
00000130: 33fd ba3b accd a9bc 6521 5fbe 54f8 b53c
00000140: 174c 143d dce9 43bc 4842 05be 2fed bd3e
00000150: ead1 c3bd 79ec 92be a429 b0bd b877 593d
00000160: 0f55 adbe 0f2a 623e ef86 413e e004 273e
00000170: 4579 af3e 2a14 523e 70d3 ee3b 8c90 183d
00000180: e3dd 38be a014 0a3e 74f8 813e 525f 5c3d
00000190: d352 983e 6748 0f3c 136b 453e d81a 81bd
000001a0: 073c a63d 7a18 e7bd c96f 663e 1ec8 40be
000001b0: 19e3 03be daba 66be cd44 593d a7a0 cabd
000001c0: 4673 b53d 1191 07be 9f0d fc3d 40a9 afbb
000001d0: 95da 57be e5b1 53be c384 b7bc b46d a9bd
000001e0: 5836 64be 6da5 eb3e 496d 493e ba96 953e
000001f0: 4e37 36bd d242 bf3e f5f9 a73c aa59 5d3e
00000200: 5e68 a13d 7478 96be a622 c7bd 9f01 6dbe
00000210: ec13 3f3d bc79 2abd 4ca7 9ebd 556d e63d
00000220: 3116 be3a d169 373e 285b b8be c224 893e
00000230: bd5e da3e b2a5 533b 9a4c 683e be5a f4bb
00000240: 4ffa 823d 0e15 c1be 8fd3 f3bd 1524 b0be
00000250: ac4b 86be a118 fc3d 036d 2d3e 9e3a 5d3e
00000260: 089e 37bd 5520 31bd ebc1 fd3d 2a76 373e
00000270: 2032 cebd 1be3 0bbe 0ffd d8bd f692 eebd
00000280: a1c2 ecbe 03df 70be cbd3 fcbb 24c3 bf3d
00000290: 94a5 273d 3f6d a93e 59e1 82be 0b85 253d
000002a0: ca7d 6abe 66cf 303e fd69 75bd e579 a43e
000002b0: 52aa 12be c82b e33d 28c5 833c c80f 8b3e
000002c0: fccc 993e a577 99bd b21b 6cbd ad2d 913e
000002d0: c73c a5bd e52b 83bd 37bd d7bd 9962 acbd
000002e0: a61d 4e3c da90 693e e959 86bc 8038 453e
000002f0: 0035 2a3c 973e 87be 2a70 ab3c a7d3 87be
00000300: 3d8b b3bd ee2f 4f3e 53b0 013d ea8a 663e
00000310: 3628 793c ae14 32bd 985b 25be 3df6 463e
00000320: 76c2 8dbd d34d 60be 220e 71be 0433 6ebe
00000330: 2278 afba 4972 163e 5842 573c b001 25bc
00000340: 150b a73e 2038 4ebe ea11 3cbe 48b9 073f
00000350: 5171 e43e c9c5 42bd a017 1fbe ef61 b0be
00000360: ebec be3d d1e6 513b 516f 033e dc5f 84be
00000370: a724 233d 3c04 593c b97a f9bc c62b 09be
00000380: 2350 76be 7e4f 8d3e ddb7 92be db3f 49bd
00000390: 5a64 a13e 9905 103e beef b0be f21e 633e
000003a0: 6e51 ec3d 1aef 8abd 997f 533d 3f6a 0dbe
000003b0: fc14 12bd 1488 f4bd 08ce 93bd 51b4 81bd
000003c0: 87d2 96bc a39a 2abd 640c 8b3e 078b d33d
000003d0: 6171 3abe c1b1 4e3e 76b1 fb3d f805 afbd
000003e0: 11b7 6bbd a012 113e 2e53 513d f81d 203e
000003f0: 9fa5 78bc 0f54 cbbd 2a0d 2cbe 9f72 b2be

predAlpha/Mod_B0_L5/Tensordot/MatMul f4 [14, 28]
0.2704134 0.00044829366 -0.36966866 0.06238813 -0.32141265 -0.27624166 -0.0757533 0.014922046
0.20779072 0.12769058 -0.1745343 0.18802938 -0.17311586 0.12378525 0.040277034 -0.114015505
0.052198753 -0.11520331 0.16453108 0.3101816 -0.22183126 0.062254895 -0.104125366 0.062456995
-0.0979108 -0.05764154 -0.35608882 0.097488016 0.08346394 -0.0190575 -0.13340002 -0.11452138
-0.48561537 0.4218693 -0.02443323 -0.35052285 -0.27372634 0.41071698 0.098940074 0.032818373
0.13677529 -0.24656704 0.18535662 0.26354307 -0.15643232 0.09762401 0.10595771 -0.10565317
0.3520373 0.0372376 -0.033963904 -0.1098212 0.004542915 0.4180124 0.05319692 -0.04673583
0.16405536 -0.030030519 -0.4152728 -0.08432043 0.1063316 0.2177769 0.39236167 0.54605615
-0.3126284 -0.14847411 -0.01033399 0.09120438 0.18058218 -0.038493887 0.23373422 -0.3952381
-0.27867332 0.1805717 -0.29519898 0.079151295 -0.30469418 -0.31003284 -0.043665987 -0.36314735
0.14832501 0.18808529 0.21474396 -0.10019202 0.32227972 -0.07606359 0.30180693 -0.22570129
0.2660378 0.09565458 0.38967857 -0.06196186 0.26827353 0.015975507 0.18416476 -0.096203305
0.17732163 0.014240223 -0.00011294415 -0.46652564 0.21740808 -0.08626455 -0.3149012 0.099567845
-0.35584477 -0.15422985 -0.043068945 -0.37145612 -0.30823734 0.06580367 0.24598002 0.2811475
-0.24943067 0.012304098 0.011413298 0.11982975 -0.4813683 0.16784646 -0.061413985 -0.031215986
0.04952444 0.17269003 -0.35919428 0.00984952 -0.038880512 0.04013172 -0.036454912 -0.061560355
-0.3263567 0.014872012 -0.031820234 0.0661817 0.07897637 0.054338496 0.0411651 -0.15469293
0.006329849 -0.014107894 -0.24349147 0.1413544 -0.29576573 -0.19504765 0.13605827 0.08977794
0.16305505 -0.2976219 0.22290935 -0.114627 -0.18843403 -0.043626364 -0.0903169 0.036814358
-0.056565814 -0.045369048 0.041873448 -0.2668089 0.13549036 0.14193377 -0.049934044 -0.026034601
0.04194937 0.21931683 -0.0076898127 0.27385414 0.07761309 0.07075167 -0.062153816 0.28436962
-0.026880583 0.38110796 -0.29687333 -0.13681787 -0.05308659 -0.0044621914 -0.0059350487 -0.026787352
-0.2763531 -0.2566353 0.22720301 -0.0013843041 0.15406643 0.1076467 -0.09773369 0.098213956
0.07390481 0.341376 0.18834582 -0.43632224 -0.0658495 0.10279809 -0.07144129 0.013944695
0.107173406 0.10175865 0.19568312 -0.037138637 0.27656394 0.4061161 0.12112146 0.056612823
-0.019780228 -0.16903538 0.036961578 -0.18369965 -0.22437738 0.082659476 -0.52851534 -0.0861462
0.29390234 -0.016907869 -0.038477696 -0.3867819 0.27126995 -0.19726759 -0.28910437 -0.15778497
0.015101634 0.013604584 -0.3825248 0.111444175 -0.06655625 0.08304137 0.33301097 0.112650074
-0.031176383 -0.26801443 -0.04151568 -0.12453651 -0.21388985 0.18499172 0.03507656 0.21099722
0.111287154 -0.110806495 0.50241077 0.11474125 -0.006596005 0.37639287 -0.27663818 0.271816
0.28330332 0.036933523 0.18835253 0.05636436 -0.2863808 0.22345111 -0.13233322 -0.27508706
0.18270941 -0.011530761 -0.16000429 0.14952414 0.03672123 -0.12260582 -0.44327703 0.051406313
00000000: a073 8a3e f508 eb39 3645 bdbe b28a 7f3d
00000010: 3390 a4be 8c6f 8dbe 8c24 9bbd 997b 743c
00000020: 17c7 543e 52c1 023e 1fb9 32be c68a 403e
00000030: 4945 31be 1f83 fd3d 88f9 243d f680 e9bd
00000040: 5cce 553d b7ef ebbd d67a 283e 1fd0 9e3e
00000050: bc27 63be fdfe 7e3d ae3f d5bd e8d2 7f3d
00000060: 7585 c8bd 8919 6cbd 4651 b6be cca7 c73d
00000070: 24ef aa3d 791e 9cbc 049a 08be 2f8a eabd
00000080: 94a2 f8be 41ff d73e 3228 c8bc bb77 b3be
00000090: dc25 8cbe 7f49 d23e 18a1 ca3d 8f6c 063d
000000a0: d20e 0c3e 127c 7cbe 20ce 3d3e 1eef 863e
000000b0: cb2f 20be 19ef c73d 5b00 d93d b060 d8bd
000000c0: 3c3e b43e 7486 183d bc1d 0bbd f0e9 e0bd
000000d0: bcdc 943b b905 d63e 03e5 593d 126e 3fbd
000000e0: 21fe 273e 9002 f6bc a39e d4be 31b0 acbd
000000f0: 62c4 d93d e800 5f3e a1e3 c83e 56ca 0b3f
00000100: d410 a0be 9909 18be e54f 29bc 5dc9 ba3d
00000110: 89ea 383e c4ab 1dbd 0658 6f3e a65c cabe
00000120: 45ae 8ebe cae7 383e 5224 97be 131a a23d
00000130: e000 9cbe a0bc 9ebe 1bdb 32bd 73ee b9be
00000140: 83e2 173e 6e99 403e d7e5 5b3e 7931 cdbd
00000150: d901 a53e 3ac7 9bbd 7086 9a3e 3d1e 67be
00000160: 1b36 883e 8ce6 c33d f383 c73e b8cb 7dbd
00000170: 265b 893e 11df 823c b095 3c3e 3d06 c5bd
00000180: cd93 353e d34f 693c 6edc ecb8 73dc eebe
00000190: 39a0 5e3e 78ab b0bd bb3a a1be 3aea cb3d
000001a0: 4931 b6be 6eee 1dbe 1069 30bd 7f2f bebe
000001b0: 49d1 9dbe 13c4 863d 30e2 7b3e 91f2 8f3e
000001c0: c16a 7fbe 2197 493c d7fe 3a3c 4d69 f53d
000001d0: e875 f6be f1df 2b3e 3b8d 7bbd abb8 ffbc
000001e0: 24da 4a3d a8d5 303e 50e8 b7be e25f 213c
000001f0: 2c41 1fbd 2961 243d bf51 15bd b626 7cbd
00000200: 3a18 a7be bda9 733c ef55 02bd 458a 873d
00000210: 5dbe a13d 0b92 5e3d bc9c 283d d367 1ebe
00000220: 9f6a cf3b cc24 67bc d455 79be 35bf 103e
00000230: 9b6e 97be 92ba 47be dc52 0b3e 7fdd b73d
00000240: e7f7 263e e661 98be 5942 643e 90c1 eabd
00000250: daf4 40be 8fb1 32bd 11f8 b8bd a7ca 163d
00000260: 8eb1 67bd e5d4 39bd 7e83 2b3d 2d9b 88be
00000270: fcbd 0a3e 1657 113e a487 4cbd 8446 d5bc
00000280: 1ad3 2b3d 9794 603e d3fa fbbb 9c36 8c3e
00000290: 9df3 9e3d 40e6 903d 0095 7ebd e598 913e
000002a0: ab34 dcbc 9520 c33e c8ff 97be fc19 0cbe
000002b0: 5371 59bd 9337 92bb cc7a c2bb 2671 dbbc
000002c0: 277e 8dbe b465 83be e8a7 683e 8a71 b5ba
000002d0: 97c3 1d3e e075 dc3d 9a28 c8bd 6624 c93d
000002e0: 685b 973d d6c8 ae3e badd 403e a165 dfbe
000002f0: 1adc 86bd ce87 d23d d04f 92bd 4a78 643c
00000300: bb7d db3d d766 d03d 2861 483e af1e 18bd
00000310: ca99 8d3e 73ee cf3e 870e f83d d9e2 673d
00000320: 250a a2bc 9c17 2dbe 0665 173d c31b 3cbe
00000330: 2fc3 65be 5f49 a93d c84c 07bf 6b6d b0bd
00000340: 5e7a 963e 5f82 8abc ca9a 1dbd 4708 c6be
00000350: e5e3 8a3e 8400 4abe 7d05 94be 6292 21be
00000360: d86c 773c c3e5 5e3c 4ada c3be d83c e43d
00000370: a54e 88bd 9811 aa3d 6a80 aa3e 15b5 e63d
00000380: 9d65 ffbc 3039 89be 580c 2abd ff0c ffbd
00000390: f105 5bbe 786e 3d3e 70ac 0f3d a80f 583e
000003a0: 85ea e33d 84ee e2bd fe9d 003f 76fd ea3d
000003b0: 4d23 d8bb 91b6 c03e 85a3 8dbe 772b 8b3e
000003c0: 220d 913e 9b47 173d 7cdf 403e 51de 663d
000003d0: 81a0 92be 5ed0 643e 5c82 07be 36d8 8cbe
000003e0: 2d18 3b3e 84eb 3cbc 2ad8 23be db1c 193e
000003f0: 0069 163d c318 fbbd 35f5 e2be 6d8f 523d

predAlpha/Mod_B0_L7/batchnorm/sub f4 [14]
-0.71680635 -0.54405886 -0.6609864 -0.5914591 -0.6887765 -0.5643326 -0.7774894 -0.8179903
-0.82358015 -0.74835026 -0.46558744 -0.65541315 -0.22431317 -0.5986302
00000000: 9f80 37bf 7147 0bbf 6836 29bf dd69 17bf
00000010: a853 30bf 1a78 10bf 8c09 47bf d067 51bf
00000020: 26d6 52bf e293 3fbf 7a61 eebe 28c9 27bf
00000030: 5ab2 65be d43f 19bf

predAlpha/Mod_B0_L7/batchnorm/mul f4 [14]
1.5289285 3.7618911 2.434593 3.258405 2.6220317 3.768449 3.198721 2.9250162
2.1402884 1.1183807 1.0557053 3.1805205 3.474803 1.6861649
00000000: eeb3 c33f d3c2 7040 5fd0 1b40 b589 5040
00000010: 5ecf 2740 452e 7140 d8b7 4c40 7733 3b40
00000020: 7cfa 0840 1927 8f3f 5a21 873f a68d 4b40
00000030: 2c63 5e40 40d4 d73f

predAlpha/Mod_B0_L3/batchnorm/sub f4 [28]
-0.1015538 -0.5236733 -1.4037766 -0.18337207 -0.62456036 0.06277789 -0.5891918 -1.1455883
-0.010602802 -0.41486892 -2.2895594 -1.3408096 -1.3914824 -0.40951416 -0.55368394 -0.3893603
-0.21681055 -1.1840314 -0.22525738 -0.57494706 -1.4692627 -2.0850635 -0.47499537 -0.5345833
-1.5938368 -0.38426167 -2.4478319 -1.8639325
00000000: 70fb cfbd 740f 06bf f4ae b3bf e3c5 3bbe
00000010: 30e3 1fbf b291 803d 46d5 16bf a3a2 92bf
00000020: 60b7 2dbc b369 d4be 2488 12c0 a69f abbf
00000030: 181c b2bf d7ab d1be 3bbe 0dbf 3c5a c7be
00000040: 9603 5ebe 578e 97bf dfa9 66be bb2f 13bf
00000050: cd10 bcbf ae71 05c0 9832 f3be 73da 08bf
00000060: d802 ccbf f2bd c4be 47a9 1cc0 5795 eebf

predAlpha/Mod_B0_L3/batchnorm/mul f4 [28]
3.8296912 2.532859 2.4914334 1.0858109 2.293893 4.023331 1.7135849 1.7986015
3.7015247 2.3948147 3.8081915 0.44521707 0.37582818 2.8528674 1.4789398 3.2144446
3.9386797 1.8646959 3.993934 1.8491493 0.9897928 1.1075493 1.3137032 2.806151
2.4807618 2.9128332 1.7190204 2.1965241
00000000: a919 7540 5d1a 2240 a573 1f40 dafb 8a3f
00000010: 25cf 1240 21bf 8040 c056 db3f 9338 e63f
00000020: c8e5 6c40 a544 1940 69b9 7340 7ef3 e33e
00000030: 8d6c c03e 6195 3640 e64d bd3f 76b9 4d40
00000040: 5413 7c40 5bae ee3f 9d9c 7f40 edb0 ec3f
00000050: 1063 7d3f 2dc4 8d3f 6d27 a83f fa97 3340
00000060: cdc4 1e40 dc6b 3a40 dc08 dc3f da93 0c40

predAlpha/Mod_B1_L0/BiasAdd/ReadVariableOp f4 [32]
0.08930996 0.08262792 0.09191073 0.14396113 0.07771983 0.06045272 0.1042752 0.1849048
-0.0038542615 -0.009431399 0.060291007 0.14408994 0.03058379 0.03530013 -0.03507588 -0.03575283
0.006065253 -0.037531007 0.091716826 0.05017146 0.121734716 0.009301865 -0.019408999 -0.017492091
-0.043503027 0.00063490815 0.10522111 0.03558645 -0.0453231 0.09421528 0.057288785 0.049092554
00000000: 24e8 b63d d438 a93d b13b bc3d 8c6a 133e
00000010: 932b 9f3d 459d 773d 3c8e d53d af57 3d3e
00000020: c797 7cbb 2886 1abc b4f3 763d 508c 133e
00000030: db8a fa3c de96 103d baab 0fbd 8f71 12bd
00000040: 08bf c63b 1dba 19bd 08d6 bb3d 9780 4d3d
00000050: 0d50 f93d d966 183c 9fff 9ebc 934b 8fbc
00000060: 3b30 32bd f76f 263a 2a7e d73d 19c3 113d
00000070: b7a4 39bd f1f3 c03d a5a7 6a3d 4615 493d

predAlpha/Mod_B0_L5/BiasAdd/ReadVariableOp f4 [14]
0.03830326 -0.014018541 0.032918528 0.030956866 0.034142457 -0.09753496 -0.03596459 -0.091925345
-0.023695499 -0.0034657526 0.008532195 0.011728232 -0.1681202 0.019850058
00000000: e1e3 1c3d 06ae 65bc 94d5 063d 4199 fd3c
00000010: f6d8 0b3d 69c0 c7bd 9b4f 13bd 5b43 bcbd
00000020: 101d c2bc ae21 63bb 9fca 0b3c c527 403c
00000030: b427 2cbe 979c a23c

predAlpha/Mod_B0_L1/BiasAdd/ReadVariableOp f4 [28]
0.0126004005 -0.04360019 -0.016252605 0.023007961 0.009969931 -0.0074056047 0.0075955736 0.001991619
-0.018269897 0.036764175 0.024621116 9.492979e-05 0.06360531 -0.0042328066 0.0008362877 -0.0016253745
-0.002888519 -0.010890358 -0.0097495215 0.0013771347 -0.016607944 0.00018515358 -0.009414278 0.024887392
-0.017402718 0.029745815 -0.019447738 -0.003693229
00000000: e971 4e3c 1d96 32bd 2f24 85bc 317b bc3c
00000010: ec58 233c b7aa f2bb 4ae4 f83b d285 023b
00000020: c0aa 95bc 0896 163d 39b2 c93c 0b15 c738
00000030: 8043 823d 5bb3 8abb 513a 5b3a 850a d5ba
00000040: 4f4d 3dbb 796d 32bc 75bc 1fbc f980 b43a
00000050: 620d 88bc c925 4239 583e 1abc a5e0 cb3c
00000060: 2590 8ebc 7fad f33c dd50 9fbc 1a0a 72bb

predAlpha/Mod_B0_L1/Tensordot/MatMul1 i1 [28, 57] scale=0.0033354138 zero_point=0
-0.056702033 0.023347896 -0.08004993 0.13675196 0.08672076 0.1701061 0.18344776 -0.09339158
-0.06003745 -0.3402122 -0.0100062415 0.20679565 0.09005617 0.05336662 -0.013341655 -0.113404065
0.10673324 0.100062415 -0.15676445 -0.26349768 -0.10673324 0.11006866 0.17677693 -0.013341655
0.0066708275 -0.04669579 0.23014355 0.0033354138 0.33354136 0.13341655 0.030018725 0.020012483
-0.06003745 -0.08672076 -0.096727 -0.0033354138 0.17344151 0.076714516 -0.103397824 0.076714516
-0.03668955 0.013341655 0.27350393 0.09005617 0.23681438 -0.113404065 -0.1434228 -0.03668955
0.22680813 0.076714516 -0.41025588 0.033354137 -0.07004369 0.040024966 -0.13008113 -0.18011235
0.11006866 -0.113404065 0.26016226 0.100062415 -0.21346648 0.020012483 0.12674572 -0.050031208
0.020012483 -0.27350393 -0.11006866 -0.03668955 0.09005617 0.09339158 0.16677068 0.33020595
0.11006866 0.13008113 -0.013341655 -0.2168019 -0.096727 0.193454 -0.013341655 -0.0033354138
0.19678941 0.08338534 0.11006866 0.22680813 -0.3602247 0.22680813 0.11673948 0.103397824
-0.15676445 0.1467582 -0.04669579 -0.20012483 -0.16343528 -0.11673948 -0.04336038 0.13341655
0.0 0.20012483 0.0033354138 -0.09339158 -0.18344776 -0.05336662 0.07004369 -0.03668955
0.03668955 0.2401498 -0.023347896 0.11006866 0.016677069 0.11673948 0.05336662 0.03668955
0.21346648 0.09339158 -0.040024966 0.06003745 -0.15676445 -0.12341031 0.0066708275 0.0033354138
-0.02668331 -0.08004993 -0.07004369 0.15009362 0.08004993 -0.023347896 -0.11006866 -0.08004993
-0.14008738 -0.040024966 0.14008738 0.24682061 0.013341655 -0.020012483 -0.0066708275 0.22013731
-0.14008738 -0.28351018 -0.0100062415 0.0033354138 -0.31019348 0.030018725 -0.0066708275 0.1701061
0.10673324 -0.193454 0.26349768 -0.16009986 -0.1200749 0.016677069 -0.23347896 0.03668955
-0.16009986 0.22680813 0.15342903 0.30685806 0.09005617 0.42359754 0.016677069 -0.05336662
0.030018725 -0.056702033 0.08338534 0.19011858 0.33687678 -0.26016226 0.050031208 -0.08672076
0.20012483 -0.19011858 0.020012483 -0.11673948 -0.26349768 -0.0733791 -0.1200749 0.040024966
-0.1200749 -0.07004369 0.06337286 -0.11006866 0.0 0.0100062415 -0.18344776 0.1200749
-0.076714516 -0.040024966 -0.050031208 -0.09005617 -0.12674572 -0.100062415 -0.22347271 0.030018725
0.0033354138 0.22680813 -0.23347896 -0.09339158 -0.20679565 -0.0033354138 0.056702033 0.19011858
-0.2401498 0.0 0.013341655 -0.066708274 0.016677069 0.13341655 -0.0733791 0.013341655
0.113404065 -0.16677068 -0.11673948 0.16343528 0.12674572 -0.100062415 0.030018725 0.21346648
0.17677693 0.12341031 0.016677069 -0.033354137 0.0033354138 0.25682685 -0.0100062415 -0.20679565
0.07004369 -0.06003745 -0.19678941 0.1434228 0.0033354138 0.18011235 0.08004993 0.20346025
-0.26016226 0.21013106 0.0100062415 -0.113404065 -0.013341655 -0.09005617 -0.1701061 0.06003745
0.013341655 -0.30685806 0.06003745 -0.0033354138 0.13008113 -0.04336038 -0.103397824 -0.2434852
0.27350393 0.22013731 -0.076714516 0.016677069 -0.1467582 0.056702033 -0.2168019 -0.20012483
00000000: ef07 e829 1a33 37e4 ee9a fd3e 1b10 fcde
00000010: 201e d1b1 e021 35fc 02f2 4501 6428 0906
00000020: eee6 e3ff 3417 e117 f504 521b 47de d5f5
00000030: 4417 850a eb0c d9ca 21de 4e1e c006 26f1
00000040: 06ae dff5 1b1c 3263 2127 fcbf e33a fcff
00000050: 3b19 2144 9444 231f d12c f2c4 cfdd f328
00000060: 003c 01e4 c9f0 15f5 0b48 f921 0523 100b
00000070: 401c f412 d1db 0201 f8e8 eb2d 18f9 dfe8
00000080: d6f4 2a4a 04fa fe42 d6ab fd01 a309 fe33
00000090: 20c6 4fd0 dc05 ba0b d044 2e5c 1b7f 05f0
000000a0: 09ef 1939 65b2 0fe6 3cc7 06dd b1ea dc0c
000000b0: dceb 13df 0003 c924 e9f4 f1e5 dae2 bd09
000000c0: 0144 bae4 c2ff 1139 b800 04ec 0528 ea04
000000d0: 22ce dd31 26e2 0940 3525 05f6 014d fdc2
000000e0: 15ee c52b 0136 183d b23f 03de fce5 cd12
000000f0: 04a4 12ff 27f3 e1b7 5242 e905 d411 bfc4
