Project/Models/Words/_welcome.tflite (tflite, 15504 bytes, 11 tensors)

predAlpha/Mod_B3_Lo/MatMul f4 [1, 32]
-0.21635541 -0.30098256 -0.03810311 0.3678837 -0.26620716 -0.4366294 -0.60465735 -0.029418293
-0.33659548 0.26956996 0.35141 -0.226438 0.08278456 0.22017054 -0.2954591 -0.25410196
0.039594267 0.30893633 -0.4194027 0.3224509 0.1770691 -0.20901851 -0.06449137 0.72275954
-0.13578011 0.5335903 -0.34611598 0.22370602 -0.61966044 0.20131926 0.27596357 -0.4323265
00000000: 468c 5dbe 631a 9abe 0212 1cbd 415b bc3e
00000010: 4e4c 88be e48d dfbe d3ca 1abf a2fe f0bc
00000020: 3e56 acbe 1305 8a3e 03ec b33e 5ddf 67be
00000030: f48a a93d 6374 613e 6a46 97be a719 82be
00000040: 992d 223d e72c 9e3e f3bb d6be 4918 a53e
00000050: 9a51 353e f308 56be 0d14 84bd c506 393f
00000060: f109 0bbe 6099 083f 1d36 b1be 3113 653e
00000070: 11a2 1ebf a326 4e3e 194b 8d3e e659 ddbe

predAlpha/Mod_B1_L0/MatMul f4 [32, 28]
-0.005921155 -0.14327121 -0.0010489101 -0.015372183 0.42462915 -0.027331263 0.11156122 -0.39357018
0.06971946 0.23515399 0.08121057 -0.00944861 -0.18433541 -0.30920196 0.3381781 -0.012721755
0.12263693 0.3811781 0.106638804 -0.12279632 -0.1139142 0.1679322 0.12300418 -0.073697165
0.08984638 -0.03735592 -0.3697168 -0.20954393 -0.16043994 -0.014535462 0.0066020824 -0.056137536
-0.14851291 0.08945632 0.0096427305 0.009460639 -1.320753e-05 0.27932933 0.105804004 0.13120577
-0.07138246 -0.066702 -0.28347486 -0.14786965 0.20718838 -0.023236647 0.1128484 0.17268433
-0.06267196 0.2502373 -0.14692132 0.28419244 -0.058031388 0.2529845 -0.31709138 -0.36468416
0.2545514 -0.033140138 0.27755874 0.16944636 0.013770301 0.14518161 -0.044856697 -4.9784514e-05
-0.055273335 0.06117321 0.0008182393 -0.052592307 -0.07690215 -0.1738257 -0.16941261 -0.21434294
0.15585671 0.18685126 -0.25609177 -0.19566828 -0.10810466 -0.012863335 -0.045587644 0.20012517
0.0370964 0.10955681 -0.15290713 -0.18881074 -0.027212292 -0.3145271 -0.20526676 -0.26790825
-0.046527185 -0.10659898 -0.091845 0.024551485 -0.2810321 0.10450614 0.14840713 -0.19122118
-0.15459445 0.31871498 -0.054816704 -0.22946581 0.0082752295 0.019982412 0.018280515 0.08000466
-0.42129537 0.10573211 0.05027827 0.28632373 -0.30001917 0.0022738315 -0.26886865 0.26725966
0.09318485 -0.0530715 0.32676494 0.33277825 0.092624016 -0.15677872 -0.25269413 -0.19976158
0.2523458 0.041260548 0.055657748 -0.16134757 -0.14775315 -0.35922414 0.27801058 -0.007882596
0.28032678 0.18222737 -0.26639768 -0.054207988 -0.13045917 0.039632216 0.16985548 -0.3529208
-0.011607321 0.23831123 0.13106412 -0.24722458 0.22835734 0.06651961 -0.17468311 0.09178762
0.28882986 -0.17365423 0.28215754 0.100738116 -0.006006813 -0.35315728 -0.079240896 0.3676541
-0.27415356 -0.13296802 0.19710918 -0.10691028 0.058896814 -0.23914824 -0.40807018 0.44890305
-0.1548744 -0.038606577 -0.09893054 -0.14568874 0.4136759 0.019878604 0.22222726 -0.20971192
-0.3372174 0.17987849 -0.37721878 0.22242919 0.21744822 -0.26443514 -0.06540169 0.113264956
-0.040511608 -0.27840093 0.2991383 0.15533109 0.10775449 0.13042632 0.09735897 0.30323836
-0.10271159 0.23036888 -0.22960275 0.4748778 -0.34282145 -0.23664333 -0.35275754 0.16149162
0.11510101 -0.113006786 0.05866256 -0.3749355 -0.06727585 0.04965142 -0.1569497 -0.023857286
0.10124152 0.092323594 0.021294292 0.11177249 -0.114554346 -0.014081478 0.12465088 0.028433029
0.07774312 0.15600125 -0.11064764 -0.24491683 0.2169373 -0.082280554 -0.046345126 0.15487312
0.0017209131 -0.117424786 -0.04897648 0.034971878 0.15127686 -0.16119666 0.250872 -0.00013653273
-0.20381887 0.17297421 -0.021433953 0.04215428 0.3782938 -0.037993148 0.10413686 0.1074488
-0.20703746 -0.02313156 -0.059359502 -0.1760951 -0.11317768 -0.3771684 -0.12800106 0.17690617
-0.22488266 -0.1718889 -0.10245031 0.24278465 -0.22393319 -0.0401712 0.017057965 0.07190674
0.44467613 -0.13202398 -0.037426345 -0.13955863 0.19919287 -0.18642153 -0.05653472 0.05939868
00000000: 4006 c2bb b0b5 12be 957b 89ba 9cdb 7bbc
00000010: fe68 d93e d0e5 dfbc 357a e43d 0882 c9be
00000020: 14c9 8e3d 35cc 703e ba51 a63d 58ce 1abc
00000030: 6cc2 3cbe b84f 9ebe ae25 ad3e e86e 50bc
00000040: 1229 fb3d c729 c33e 7265 da3d a37c fbbd
00000050: d94b e9bd 6bf6 2b3e 9ee9 fb3d 8aee 96bd
00000060: 6101 b83d 8502 19bd 854b bdbe af92 56be
00000070: 5e4a 24be 2526 6ebc 4856 d83b 79f0 65bd
00000080: c513 18be e034 b73d 8bfc 1d3c cc00 1b3c
00000090: e995 5db7 4104 8f3e c5af d83d ce5a 063e
000000a0: f830 92bd 0f9b 88bd 9e23 91be 246b 17be
000000b0: 3129 543e c85a bebc 101d e73d 29d4 303e
000000c0: 285a 80bd 1a1f 803e 8b72 16be ac81 913e
000000d0: 52b2 6dbd 2f87 813e cd59 a2be e2b7 babe
000000e0: 9054 823e f4bd 07bd 2e1c 8e3e 5983 2d3e
000000f0: d49c 613c 7daa 143e a8bb 37bd b7cf 50b8
00000100: 4b66 62bd c390 7a3d 1c7f 563a 086b 57bd
00000110: e07e 9dbd 5dff 31be 807a 2dbe b77c 5bbe
00000120: e798 1f3e f055 3f3e 761e 83be 445d 48be
00000130: fa65 ddbd bdc0 52bc 1cba 3abd 9ded 4c3e
00000140: 65f2 173d 525f e03d b093 1cbe 9a57 41be
00000150: 50ec debc b209 a1be 7331 52be 452b 89be
00000160: 4a93 3ebd 9150 dabd 3b19 bcbd 3220 c93c
00000170: 70e3 8fbe 5107 d63d 0af8 173e 7ccf 43be
00000180: 024e 1ebe 9c2e a33e 7b87 60bd 16f9 6abe
00000190: d494 073c 28b2 a33c 05c1 953c 7cd9 a33d
000001a0: 07b4 d7be 148a d83d 96f0 4d3d 0699 923e
000001b0: 1d9c 99be 9004 153b 27a9 89be 42d6 883e
000001c0: b3d7 be3d 8061 59bd bc4d a73e e961 aa3e
000001d0: a9b1 bd3d 9a8a 20be 2061 81be 4d8e 4cbe
000001e0: 7833 813e d200 293d 61f9 633d 4c38 25be
000001f0: 9a4c 17be 3aec b7be 6757 8e3e 0126 01bc
00000200: fe86 8f3e d099 3a3e 4765 88be 3209 5ebd
00000210: 1797 05be 6455 223d 98ee 2d3e 09b2 b4be
00000220: a22c 3ebc dc07 743e ac35 063e 7128 7dbe
00000230: 82d6 693e 6f3b 883d 21e0 32be 26fb bb3d
00000240: 82e1 933e 6ad2 31be f476 903e c94f ce3d
00000250: cdd4 c4bb 08d1 b4be 0d49 a2bd 283d bc3e
00000260: db5d 8cbe c528 08be fdd6 493e c7f3 dabd
00000270: c93d 713d 47e3 74be 93ee d0be 9fd6 e53e
00000280: 6597 1ebe ee21 1ebd 189c cabd 6e2f 15be
00000290: 54cd d33e 74d8 a23c 8b8f 633e b9be 56be
000002a0: c2a7 acbe 1132 383e d222 c1be 7ac4 633e
000002b0: bfaa 5e3e 0b64 87be 52f1 85bd 75f7 e73d
000002c0: 80ef 25bd 918a 8ebe a828 993e 1d0f 1f3e
000002d0: 63ae dc3d 7a8e 053e 2464 c73d 0f42 9b3e
000002e0: 745a d2bd d2e5 6b3e fc1c 6bbe 2f23 f33e
000002f0: 4b86 afbe a152 72be a39c b4be 0f5e 253e
00000300: 14ba eb3d 1a70 e7bd 2748 703d 8cf7 bfbe
00000310: ecc7 89bd 4a5f 4b3d 6cb7 20be 5b70 c3bc
00000320: b757 cf3d 2714 bd3d 5e71 ae3c fae8 e43d
00000330: 789b eabd 00b6 66bc f648 ff3d 62ec e83c
00000340: c937 9f3d cbbe 1f3e 3b9b e2bd 7acb 7abe
00000350: d024 5e3e b582 a8bd 63d4 3dbd 0f97 1e3e
00000360: 4390 e13a 687c f0bd 909b 48bd ac3e 0f3d
00000370: 52e8 1a3e bd10 25be 4b72 803e 3a2a 0fb9
00000380: e5b5 50be 2720 313e 4296 afbc f7a9 2c3d
00000390: baaf c13e b49e 1bbd b545 d53d 1e0e dc3d
000003a0: a101 54be 667e bdbc f322 73bd 4652 34be
000003b0: b3c9 e7bd 371c c1be b612 03be e426 353e
000003c0: a447 66be a503 30be 78d1 d1bd 8a9c 783e
000003d0: be4e 65be 8e8a 24bd 25bd 8b3c d743 933d
000003e0: 97ac e33e 4b31 07be 5e4c 19bd 75e8 0ebe
000003f0: 37f9 4b3e 49e5 3ebe f390 67bd 084c 733d

predAlpha/Mod_B0_L5/Tensordot/MatMul f4 [14, 28]
-0.122493245 0.13770069 -0.2964383 0.08647904 -0.26655337 0.5833153 -0.09336271 -0.098850556
0.00704594 -0.09717522 -0.12547481 -0.12334774 0.15995112 -0.2245298 -0.011749669 0.04765834
-0.12474491 -0.27452683 0.41563386 0.115537755 -0.016901352 -0.2822095 0.02913179 0.22755224
0.14845595 0.026441682 0.18272023 -0.13343601 -0.14323075 0.06845926 -0.09728636 0.45052168
-0.14255573 0.38417467 0.06213418 0.08599801 0.068649605 -0.1328457 -0.4402695 0.44955197
-0.046682067 0.08198956 -3.077666e-05 -0.283879 -0.2613554 0.35017332 -0.12651071 -0.21194091
-0.030151414 0.08997377 0.39286137 0.066666424 0.33647177 -0.43277255 0.043018855 -0.10773973
-0.15585902 0.13554694 0.2161369 -0.2046381 -0.013513593 -0.30806375 -0.33240828 0.0776281
-0.4784871 0.2454351 0.27426174 0.06143906 0.14799619 0.033344436 -0.08125871 -0.08179155
0.5265089 -0.26424688 -0.044811442 -0.32040468 0.15600449 0.23590775 0.16000712 0.12572648
-0.12865485 0.2232083 0.21878073 -0.018144887 -0.32036477 0.4342645 -0.11128917 0.25063387
-0.07119186 -0.1364343 -0.001844817 0.011478107 -0.089328885 -0.07890769 0.26924762 -0.0070664794
0.043436848 0.32258275 0.12674953 0.24763396 0.15545876 -0.3989104 -0.0023465669 -0.41233808
-0.34154642 -0.010704172 -0.005225727 -0.0495364 -0.03617146 0.1437925 0.2964768 0.09933606
-0.18821684 0.009184216 0.24529424 0.0001410413 0.42623436 -0.036754593 -0.515877 -0.20069487
-0.2482603 -0.008511127 -0.24465598 -0.020747595 -0.02191299 -0.015572382 0.13340282 -0.06755166
0.05631716 0.2413225 -0.2033955 -0.12952368 0.038591266 0.27036133 0.28448477 0.18157975
-0.30797818 -0.42310038 -0.24034663 -0.31265467 -0.0985962 0.2028689 0.12875782 -0.06068866
-0.074180305 0.21026455 -0.013417814 0.21728027 0.06569125 -0.16072528 -0.22526994 0.07299062
0.19223528 0.13331069 -0.32198015 -0.053230364 0.1749889 0.17152578 0.1443973 -0.21137065
-0.46411207 0.1205253 0.021561785 -0.4870416 0.50148976 0.09753428 -0.22045875 -0.025290178
-0.056759246 -0.4299466 -0.111055374 -0.15003999 -0.05212037 0.039414566 -0.05215828 -0.035644215
-0.19859119 0.02541849 -0.009734435 0.009414011 0.085156076 0.13632388 -0.20086916 0.33298853
-0.06465081 0.063225366 0.10877018 0.18782885 0.15772185 -0.07566364 0.017168732 0.40311447
-0.21760881 0.2314263 -0.110885195 -0.04876986 -0.072174944 0.027748534 -0.05586695 0.031512756
-0.15004031 -0.2604713 0.061497696 -0.021204585 0.06463614 -0.22281432 -0.08398864 -0.098306276
0.035225485 -0.1782095 0.00023817774 0.27223197 -0.11359994 0.03565259 -0.13589671 0.29914853
-0.14843161 -0.024490124 0.35640815 0.09832733 -0.4444667 -0.00310527 -0.18169847 0.115059786
-0.12526427 0.15821664 0.10041918 -0.032826718 0.28969535 -0.25647905 0.12515642 -0.06806922
-0.11081811 -0.10417956 0.10375349 0.10793618 -0.27147156 -0.2555006 -0.14088601 -0.029325811
-0.33367315 0.1619498 0.028305406 -0.014945398 -0.086158626 0.15390302 -0.048024174 0.11207654
0.103145674 -0.0336932 -0.07271639 0.046535276 -0.07466247 -0.31406975 -0.05043029 0.1173275
00000000: bddd fabd 6901 0d3e c3c6 97be ec1b b13d
00000010: af79 88be 2754 153f f334 bfbd 2972 cabd
00000020: a1e1 e63b cd03 c7bd 787c 00be bd9d fcbd
00000030: 3aca 233e 24eb 65be af81 40bc 6435 433d
00000040: 427a ffbd c88e 8cbe f6cd d43e 0f9f ec3d
00000050: b474 8abc c37d 90be cba5 ee3c 7403 693e
00000060: d604 183e 3a9c d83c 031b 3b3e 73a3 08be
00000070: 15ab 12be 5e34 8c3d 123e c7bd c7aa e63e
00000080: 21fa 11be 8bb2 c43e 6980 7e3d ba1f b03d
00000090: 2a98 8c3d b408 08be 016b e1be ad2b e63e
000000a0: b235 3fbd 24ea a73d 3016 01b8 9758 91be
000000b0: 60d0 85be eb49 b33e 068c 01be 0a07 59be
000000c0: 1900 f7bc 2b44 b83d 2025 c93e 6888 883d
000000d0: 0746 ac3e 5d94 ddbe 8a34 303d a6a6 dcbd
000000e0: 8299 1fbe d1cc 0a3e fe52 5d3e a68c 51be
000000f0: 1e68 5dbc 88ba 9dbe 6b31 aabe 7bfb 9e3d
00000100: 43fc f4be 5753 7b3e 096c 8c3e 86a7 7b3d
00000110: 508c 173e 2d94 083d f76a a6bd 5482 a7bd
00000120: 4ac9 063f 5e4b 87be 348c 37bd 150c a4be
00000130: a4bf 1f3e cd91 713e e8d8 233e 71be 003e
00000140: 19be 03be b790 643e 0e08 603e 96a4 94bc
00000150: da06 a4be eb57 de3e 94eb e3bd 1553 803e
00000160: 0acd 91bd 6fb5 0bbe c9cd f1ba ac0e 3c3c
00000170: 10f2 b6bd 5b9a a1bd d3da 893e ed8d e7bb
00000180: d6ea 313d 9129 a53e a1ca 013e c293 7d3e
00000190: 9530 1f3e fc3d ccbe dcc8 19bb fa1d d3be
000001a0: 2cdf aebe 8d60 2fbc 933c abbb aee6 4abd
000001b0: 8628 14bd 573e 133e cfcb 973e b470 cb3d
000001c0: eabb 40be 6579 163c 6a2e 7b3e 7ce4 1339
000001d0: 643b da3e fc8b 16bd 8410 04bf f582 4dbe
000001e0: f337 7ebe 4172 0bbc 1987 7abe dcf6 a9bc
000001f0: df82 b3bc 4e23 7fbc c09a 083e 8658 8abd
00000200: d3ac 663d 3f1d 773e e946 50be dba1 04be
00000210: e011 1e3d cd6c 8a3e fda7 913e 0bf0 393e
00000220: 51af 9dbe 9da0 d8be 6d1d 76be 4614 a0be
00000230: ceec c9bd ddbc 4f3e 17d9 033e ac94 78bd
00000240: d8eb 97bd 974f 573e 64d6 5bbc b87e 5e3e
00000250: 2289 863d 2b95 24be 2aad 66be 1b7c 953d
00000260: 53d9 443e 9982 083e 95da a4be 1508 5abd
00000270: 4a30 333e 74a4 2f3e e3dc 133e 8c71 58be
00000280: 19a0 edbe f8d5 f63d 57a2 b03c 845d f9be
00000290: a261 003f 0dc0 c73d f0bf 61be 592d cfbc
000002a0: 627c 68bd f621 dcbe 0071 e3bd 15a4 19be
000002b0: 2b7c 55bd 2b71 213d eca3 55bd abff 11bd
000002c0: 7d5b 4bbe 703a d03c 2e7d 1fbc 393d 1a3c
000002d0: 4f66 ae3d 7d98 0b3e a5b0 4dbe 797d aa3e
000002e0: a567 84bd 4d7c 813d e6c2 de3d 3556 403e
000002f0: d681 213e 8af5 9abd 71a5 8c3c 0565 ce3e
00000300: d8d4 5ebe 04fb 6c3e c717 e3bd e8c2 47bd
00000310: 75d0 93bd e550 e33c bed4 64bd 8513 013d
00000320: 2ba4 19be 7f5c 85be 02e5 7b3d 3db5 adbc
00000330: f45f 843d 7029 64be 3c02 acbd cd54 c9bd
00000340: 9948 103d 8d7c 36be 5abf 7939 fd61 8b3e
00000350: 16a7 e8bd 7308 123d 8228 0bbe ff29 993e
00000360: 75fe 17be 839f c8bc 217b b63e d75f c93d
00000370: 2491 e3be c981 4bbb 2a0f 3abe 77a4 eb3d
00000380: 4745 00be 8b03 223e 92a8 cd3d 4f75 06bd
00000390: f352 943e 3951 83be 0129 003e e067 8bbd
000003a0: 9bf4 e2bd 185c d5bd b67c d43d a50d dd3d
000003b0: 52fe 8abe fad0 82be 6c44 10be af3c f0bc
000003c0: 35d7 aabe 2bd6 253e bde0 e73c 8bdd 74bc
000003d0: ef73 b0bd c198 1d3e ffb4 44bd 6388 e53d
000003e0: 0a3e d33d e201 0abd 55ec 94bd c69b 3e3d
000003f0: a3e8 98bd c0cd a0be fe8f 4ebd 6649 f03d

predAlpha/Mod_B0_L7/batchnorm/sub f4 [14]
-0.60044247 -0.70352274 -0.8482935 -0.5767877 -0.9531348 -0.6435606 -0.51257914 -0.95472527
-0.24323459 -0.27326617 -0.6778265 -0.6554188 -0.8042942 -1.0129323
00000000: 99b6 19bf 111a 34bf c329 59bf 5ca8 13bf
00000010: a400 74bf 63c0 24bf 6338 03bf e068 74bf
00000020: 7d12 79be 8be9 8bbe 0a86 2dbf 87c9 27bf
00000030: 3ae6 4dbf c4a7 81bf

predAlpha/Mod_B0_L7/batchnorm/mul f4 [14]
2.8126042 3.1627307 2.0961015 3.6943421 4.6976366 3.451054 4.0446167 3.0228589
2.5525172 0.9131741 3.235336 4.056655 3.3758996 8.774835
00000000: b501 3440 2e6a 4a40 8726 0640 1a70 6c40
00000010: 0a53 9640 12de 5c40 806d 8140 8576 4140
00000020: 715c 2340 c7c5 693f bf0f 4f40 1ed0 8140
00000030: bd0e 5840 b965 0c41

predAlpha/Mod_B0_L3/batchnorm/sub f4 [28]
-0.6839784 -1.261057 -1.3549296 -1.1815686 -0.15717931 -4.010753 -0.44360933 -1.2396023
-1.4450276 -0.08884889 -1.5373113 -0.6562955 -0.13238032 -1.6196272 -0.0019263437 -0.6872838
-0.6027981 -1.3274263 -0.1876467 -1.4311191 -1.355436 -0.62456936 -1.1980884 -0.1786929
-3.0015583 -2.1467493 -0.6046053 -1.271933
00000000: 3519 2fbf 516a a1bf 556e adbf a43d 97bf
00000010: 9df3 20be 1758 80c0 c320 e3be 4aab 9ebf
00000020: aaf6 b8bf 68f6 b5bd 9ec6 c4bf fb02 28bf
00000030: b58e 07be f24f cfbf 5e7d fcba d5f1 2fbf
00000040: fa50 1abf 1be9 a9bf 7526 40be e92e b7bf
00000050: ed7e adbf c7e3 1fbf f65a 99bf 46fb 36be
00000060: 8819 40c0 5764 09c0 6ac7 1abf b3ce a2bf

predAlpha/Mod_B0_L3/batchnorm/mul f4 [28]
2.527566 1.2160916 0.7970556 2.400655 2.3536036 5.3250623 2.8475335 4.251601
1.5399494 5.601809 5.664762 1.5739894 8.493824 0.9925697 29.061914 1.6913445
6.8225107 1.1336949 10.1603775 2.2367408 1.4486576 0.99632263 4.688399 3.022381
4.282704 2.1433947 5.745498 2.058385
00000000: a4c3 2140 e4a8 9b3f d60b 4c3f 55a4 1940
00000010: 71a1 1640 e966 aa40 fd3d 3640 1e0d 8840
00000020: 101d c53f 0542 b340 bb45 b540 7c78 c93f
00000030: b4e6 0741 0c19 7e3f cd7e e841 fa7d d83f
00000040: 0252 da40 ea1c 913f e890 2241 c326 0f40
00000050: 9d6d b93f 000f 7f3f 5d07 9640 b16e 4140
00000060: e90b 8940 612d 0940 1fdb b740 94bc 0340

predAlpha/Mod_B1_L0/BiasAdd/ReadVariableOp f4 [32]
0.07271344 0.0067974124 -0.020470103 0.06647723 0.08019472 0.13022147 0.09944692 -0.025596857
0.12544304 0.06346805 0.10485175 -0.026447697 0.085805126 0.09288586 0.08703905 0.18371554
-0.030884182 0.062660806 0.10453445 -0.06300332 0.034005713 0.17616053 0.1475843 0.116636105
0.12031991 0.039564967 0.17425579 0.10784415 0.118591994 -0.07222144 0.1355215 0.05944623
00000000: c9ea 943d d4bc de3b ebb0 a7bc 3725 883d
00000010: 213d a43d c758 053e d4aa cb3d 80b0 d1bc
00000020: 2474 003e 89fb 813d 84bc d63d d7a8 d8bc
00000030: 99ba af3d f13a be3d 8841 b23d ed1f 3c3e
00000040: d300 fdbc 4f54 803d 2816 d63d e207 81bd
00000050: 9349 0b3d 6d63 343e 5720 173e e9de ee3d
00000060: 496a f63d e00e 223d 1c70 323e 65dd dc3d
00000070: 5ce0 f23d d6e8 93bd 26c6 0a3e e47d 733d

predAlpha/Mod_B0_L5/BiasAdd/ReadVariableOp f4 [14]
-0.040785186 0.021328695 -0.0244128 -0.010631535 -0.029039932 0.008061611 -0.033510525 -0.08894877
-0.013279239 -0.009708961 -0.012182929 -0.098444626 -0.02542829 -0.15088981
00000000: 5e0e 27bd 84b9 ae3c 5afd c7bc e42f 2ebc
00000010: 27e5 edbc d914 043c 5542 09bd c62a b6bd
00000020: 2a91 59bc 5512 1fbc e89a 47bc 569d c9bd
00000030: fd4e d0bc dc82 1abe

predAlpha/Mod_B0_L1/BiasAdd/ReadVariableOp f4 [28]
-0.026267882 -0.016969236 -0.0077486606 -0.025427248 -0.03670312 -0.0019913625 0.007352942 -0.047623716
0.0069190306 -0.07777389 -0.011218893 0.01367381 0.009568438 0.050443213 -0.016662799 0.07580559
0.061961636 0.0093623 -0.010816873 0.025670521 0.00085216237 0.001749532 -0.0028121043 -0.020493068
0.0041580014 -0.005072431 -0.045205053 -0.01368355
00000000: be2f d7bc 1103 8bbc 7ae8 fdbb ce4c d0bc
00000010: 0356 16bd 8581 02bb f3f0 f03b 1611 43bd
00000020: 09b9 e23b eb47 9fbd 73cf 37bc 1e08 603c
00000030: f0c4 1c3c 8b9d 4e3d 6c80 88bc f63f 9b3d
00000040: 7ccb 7d3d 5564 193c 4139 31bc fc4a d23c
00000050: a663 5f3a 8d50 e53a 484b 38bb 14e1 a7bc
00000060: d83f 883b a336 a6bb ef28 39bd f830 60bc

predAlpha/Mod_B0_L1/Tensordot/MatMul1 i1 [28, 57] scale=0.0034954378 zero_point=0
-0.31808484 0.2306989 0.17826733 0.041945253 -0.19574451 -0.1398175 0.0069908756 0.20972627
-0.038449816 -0.14331295 -0.16778101 0.11534945 -0.09437682 0.19923995 -0.013981751 -0.017477188
0.1013677 0.14680839 0.03145894 -0.017477188 -0.090881385 -0.090881385 0.09437682 -0.083890505
0.08039507 -0.027963502 -0.14331295 0.017477188 0.17826733 0.07689963 0.16778101 0.020972626
-0.06990875 0.027963502 -0.2586624 0.18875363 0.24817608 -0.06990875 0.017477188 0.12583576
0.11884488 0.05243157 0.16428557 0.13282664 0.11884488 0.038449816 0.2306989 0.15030383
-0.038449816 0.13282664 0.3320666 -0.010486313 0.045440692 -0.027963502 -0.0034954378 0.0034954378
0.083890505 -0.038449816 -0.23768976 0.04893613 0.25167152 0.09437682 -0.23768976 0.15030383
0.13282664 0.25516695 0.0034954378 0.19224907 -0.28313047 -0.11185401 -0.08039507 0.024468064
-0.1293312 0.14331295 0.0034954378 0.0034954378 0.18525821 -0.03145894 -0.1572947 -0.024468064
0.25167152 0.010486313 0.0 0.09437682 -0.17826733 0.010486313 0.23419434 -0.08039507
-0.22021258 -0.090881385 0.14680839 -0.18176277 -0.13632208 0.045440692 -0.15030383 -0.19923995
-0.20972627 0.10486314 0.1572947 -0.10835857 -0.090881385 0.14680839 -0.33905748 0.11884488
0.17477189 -0.041945253 0.1293312 0.19574451 0.045440692 -0.045440692 -0.2027354 0.1013677
-0.26565328 0.1293312 0.06291788 0.0069908756 -0.25516695 -0.12234032 0.07340419 0.2761396
0.2132217 0.13632208 -0.26565328 -0.038449816 -0.013981751 -0.32857114 0.11534945 0.0069908756
0.09787226 -0.22720346 -0.26565328 0.33905748 0.17826733 0.17826733 -0.10486314 -0.2866259
-0.17826733 -0.1398175 -0.0069908756 0.1013677 -0.16079015 -0.13632208 0.06291788 -0.13632208
0.25516695 -0.25167152 -0.013981751 -0.11534945 -0.2027354 0.21671714 -0.2691487 0.045440692
0.18525821 0.279635 -0.3145894 0.25516695 0.045440692 -0.07689963 0.013981751 -0.22021258
0.0069908756 0.10835857 -0.083890505 -0.11534945 0.1398175 -0.30410308 -0.024468064 0.055927005
0.15030383 0.19923995 0.0 -0.07340419 0.06990875 0.04893613 0.13282664 0.07340419
-0.055927005 -0.041945253 -0.010486313 0.11884488 0.034954377 -0.10486314 0.0069908756 -0.34954378
-0.1013677 -0.010486313 0.06990875 -0.25167152 0.18176277 0.09437682 0.2411852 -0.06641332
-0.010486313 -0.07340419 -0.034954377 0.27264416 -0.017477188 -0.083890505 -0.2691487 -0.12583576
-0.14680839 -0.11884488 -0.10835857 0.12583576 0.08039507 0.33556202 0.13632208 -0.1398175
-0.12234032 0.06641332 -0.07340419 -0.055927005 0.04893613 -0.22370802 -0.16079015 0.21671714
-0.21671714 -0.06641332 -0.13282664 -0.041945253 0.23419434 0.055927005 -0.083890505 -0.038449816
0.16778101 0.045440692 -0.11185401 0.07340419 -0.11185401 -0.2866259 0.19224907 -0.055927005
0.03145894 -0.045440692 -0.017477188 -0.15030383 -0.25516695 0.07340419 -0.18176277 0.090881385
0.17127645 0.13282664 0.034954377 -0.23768976 -0.14680839 0.087385945 0.0069908756 -0.30759853
0.11534945 -0.010486313 -0.2761396 0.28313047 0.22370802 -0.16778101 0.09437682 0.11534945
00000000: a542 330c c8d8 023c f5d7 d021 e539 fcfb
00000010: 1d2a 09fb e6e6 1be8 17f8 d705 3316 3006
00000020: ec08 b636 47ec 0524 220f 2f26 220b 422b
00000030: f526 5ffd 0df8 ff01 18f5 bc0e 481b bc2b
00000040: 2649 0137 afe0 e907 db29 0101 35f7 d3f9
00000050: 4803 001b cd03 43e9 c1e6 2acc d90d d5c7
00000060: c41e 2de1 e62a 9f22 32f4 2538 0df3 c61d
00000070: b425 1202 b7dd 154f 3d27 b4f5 fca2 2102
00000080: 1cbf b461 3333 e2ae cdd8 fe1d d2d9 12d9
00000090: 49b8 fcdf c63e b30d 3550 a649 0dea 04c1
000000a0: 021f e8df 28a9 f910 2b39 00eb 140e 2615
000000b0: f0f4 fd22 0ae2 029c e3fd 14b8 341b 45ed
000000c0: fdeb f64e fbe8 b3dc d6de e124 1760 27d8
000000d0: dd13 ebf0 0ec0 d23e c2ed daf4 4310 e8f5
000000e0: 300d e015 e0ae 37f0 09f3 fbd5 b715 cc1a
000000f0: 3126 0abc d619 02a8 21fd b151 40d0 1b21
