indian-sign-language-learning-app-win32-x64/resources/app/Models/Alphabets/E.tflite (tflite, 15504 bytes, 11 tensors)

predAlpha/Mod_B3_Lo/MatMul f4 [1, 32]
000000 71 45 b3 be 1b 63 a9 be 9c ef ee 3e 62 34 93 be
       -0.35013917 -0.33083424 0.46667182 -0.28750902
000010 c3 be ab be 8e 96 b3 bd a5 c4 41 bb 6b d8 7b 3e
       -0.33543977 -0.087689504 -0.0029566672 0.24594276
000020 91 68 99 3e d2 08 e4 be c0 fc 5d 3c 7e f8 ce be
       0.2996259 -0.4453798 0.01354903 -0.4042396
000030 8a 2a 1c 3f 4e 73 97 be 50 ac c9 be 96 55 b1 be
       0.6100241 -0.29580158 -0.39389277 -0.3463561
000040 59 0b 98 be 64 d9 cf 3e 63 c1 93 3e 8e 68 00 bf
       -0.29696158 0.40595543 0.2885848 -0.5015954
000050 ba 2b a3 be 48 ce 75 be 49 3d ca be 0e 58 06 3f
       -0.31869298 -0.24004471 -0.39499882 0.5247811
000060 87 8a 89 be 34 c3 40 3e 5d 17 0a bc 9f 07 b0 3e
       -0.268635 0.18824464 -0.008428422 0.34380814
000070 7e 04 b2 be 5c 60 0e 3e a2 2f 24 bf 26 aa 86 3e
       -0.34769052 0.13903946 -0.6413518 0.26301688

predAlpha/Mod_B1_L0/MatMul f4 [32, 28]
000000 34 f6 5c 3e 31 43 b1 bc 05 f4 ca 3b f7 52 98 be
       0.21578294 -0.021638485 0.00619364 -0.29750797
000010 6e ad cf 3e 44 6b d0 be 13 a9 17 3d 06 9a 9d bd
       0.40562004 -0.40706837 0.037026476 -0.07695393
000020 45 7b ca be 54 ee a8 3d ed b6 00 bd 58 13 9a bd
       -0.39547172 0.082485825 -0.03142445 -0.07523221
000030 bb 6d a2 be ee 0b 04 be 73 65 59 3e 8a f3 db 3c
       -0.31724343 -0.12895176 0.21230106 0.026849527
000040 73 2f c2 3d f3 7c 8b 3e ef 16 28 3d ba 7e 10 3e
       0.094817065 0.27243766 0.041037496 0.14110842
000050 42 18 70 3e 15 ee 92 bb 82 c1 ac 3d 33 24 20 be
       0.23446754 -0.004483948 0.08435346 -0.15638809
000060 ee 96 33 bc 47 12 3c be 48 c4 17 be 8f fb 9a 3e
       -0.010961277 -0.18366347 -0.14820969 0.3027005
000070 f2 8b db 3e e5 ff 87 3e 19 40 95 bd 07 bb 5e be
       0.42880207 0.2656242 -0.07287616 -0.21751033
000080 db 09 ca 3c d8 37 a9 be 79 e6 bd 3d 81 1e 8c bd
       0.024662903 -0.33050418 0.09272475 -0.06841756
000090 07 ef 4c be 6c d3 32 3d 12 9e 04 bd ac 56 85 3d
       -0.20013057 0.04365866 -0.03237731 0.06510672
0000a0 35 2f af be 12 f5 b3 be a9 70 7d 3e 07 ce 33 be
       -0.34215704 -0.3514791 0.24750008 -0.17559062
0000b0 2a e3 16 be 2e 39 da 3d 76 97 72 3e 8f 4f 9c bd
       -0.14735094 0.106554374 0.2369059 -0.07632362
0000c0 d9 85 0a 3e e7 a2 cc 3d 1d c1 a0 3e 18 d0 89 be
       0.13527621 0.09992009 0.31397334 -0.26916575
0000d0 8e 70 37 3e 59 59 af 3e fd 3e 12 3c f6 aa 8a bd
       0.1791403 0.34247854 0.00892615 -0.067708895
0000e0 c7 b4 3e be 4a b2 83 bd 08 a0 16 3e 38 da fb 3d
       -0.18623649 -0.0643049 0.14709485 0.12297481
0000f0 ae 54 36 bc 07 1a d7 be 41 7c 8a be ef b2 d7 bd
       -0.011128588 -0.42012045 -0.27047923 -0.10532176
000100 72 51 8f be 5e 24 eb ba d8 ac d7 be e0 15 9f be
       -0.27991825 -0.0017939915 -0.42124057 -0.31071377
000110 ff a4 c4 be 0c 22 2a be 43 e9 b3 be 33 82 a0 bc
       -0.38407132 -0.1661455 -0.35138902 -0.019593334
000120 de 62 cd bc 3a 15 93 be da c4 49 be 84 0e f2 be
       -0.025071558 -0.28727132 -0.19703999 -0.472767
000130 a8 fb 51 be 1f 33 d7 3b ad 0c 52 be dd db d1 b8
       -0.20506155 0.0065673734 -0.20512648 -0.00010006849
000140 ae 26 4b be d4 73 09 be 5a 67 54 be 03 d3 e8 3c
       -0.19838974 -0.13423091 -0.2074255 0.02842093
000150 4f 4e 84 be 36 03 61 be 53 39 bf be da b0 d7 3e
       -0.25840995 -0.21973881 -0.37348422 0.42127115
000160 cf ac 27 bd ba b1 ac 3e 8f 84 6f 3e 8d 5b 3f 3a
       -0.040936287 0.33729345 0.23390411 0.0007299714
000170 9c 28 a6 3e 32 42 08 3d 07 5f a2 be 20 75 26 3e
       0.32452857 0.033266254 -0.31713125 0.16255617
000180 6d ba f6 3e 65 17 e7 bc 44 4b 87 3d 12 a5 c6 be
       0.48189107 -0.028209398 0.06606153 -0.38797814
000190 39 3c 8b bd 37 1c 43 3d 20 86 39 be 45 1a 96 3e
       -0.06798596 0.04763433 -0.18117571 0.29316917
0001a0 3c 79 49 3e ce a8 ca be 88 6a d5 3e b5 7a 0d 3b
       0.19675153 -0.39581913 0.4168284 0.0021588032
0001b0 96 d1 9b be bd 3d 15 3d ae fe 1e be dc 71 f2 3d
       -0.3043334 0.03643583 -0.1552684 0.11838123
0001c0 89 6f 61 3e b9 fc 79 be d0 ef 3a be 78 0e 8a 3e
       0.22015204 -0.24412812 -0.18255544 0.26964164
0001d0 8e 3e c0 be 7b 8e 4d 3e 96 b2 8a 3d 3f 75 0b bd
       -0.37547725 0.20073883 0.06772344 -0.03404736
0001e0 1d 3c e6 3d a5 5b 49 3e 0b 0b 3d bd 48 53 25 be
       0.112419344 0.19663866 -0.04615311 -0.1614505
0001f0 e9 f5 b6 3e f7 6a a4 be 0f 6d 7c be a5 cc 6f be
       0.3573449 -0.32112858 -0.24650978 -0.2341791
000200 84 ee 95 3e 3d da 9f 3e f7 9b 66 3e 47 bd 91 3e
       0.29283535 0.3122119 0.22520433 0.2846472
000210 4f 96 52 3e c5 29 95 be ad 10 08 3e 37 f4 21 be
       0.2056515 -0.2913343 0.13287611 -0.15815817
000220 36 45 1c be c9 6f ad be 1c a2 93 bd da c3 4a 3e
       -0.15260777 -0.33874348 -0.07208654 0.19801274
000230 24 b6 69 bb fa 7f c8 3d 32 a2 d1 3b f4 62 2c 3d
       -0.0035661543 0.097900346 0.006397509 0.042086557
000240 cb cc e0 3d 93 e7 90 3d 9a 9e 0f 3e f3 ef 51 bd
       0.10976561 0.07075419 0.14025345 -0.051254224
000250 a8 53 3e 3e 68 d1 3b 3e 60 1e 50 3e 6a f7 74 3d
       0.185866 0.18341601 0.20324087 0.059806265
000260 bc 6c 1d 3e c4 52 85 ba 8f 04 e4 bc 59 e4 41 be
       0.1537351 -0.0010171761 -0.027834205 -0.18934764
000270 af f7 86 3c 03 f9 3f be 4a bc c2 3d e9 9d 15 be
       0.016475527 -0.18747334 0.095085695 -0.14611019
000280 a1 db 2d be 81 6f 00 be 4d 7e 3e bd 1c 3c 49 be
       -0.16978313 -0.12542535 -0.04650717 -0.19651836
000290 77 a5 45 3e ac eb ed 3d 19 44 85 bd 2a 26 81 bb
       0.19301401 0.116172165 -0.06507129 -0.003941317
0002a0 a5 28 6e 35 ca 39 d0 bb c8 8e 36 b5 9c f5 5b bd
       8.8721055e-07 -0.0063545452 -6.800806e-07 -0.05370103
0002b0 2b b0 41 3e 45 5f fa 3d 15 fa 1c be 87 22 49 bd
       0.18914859 0.122252025 -0.15329774 -0.049105193
0002c0 52 ad 45 3d 61 d2 8d bd b6 9b 5d 3e f4 46 2c b6
       0.048260994 -0.06924892 0.2164143 -2.5671297e-06
0002d0 16 90 ab 3d 7a 7a c2 3d ac 19 79 3d 54 ec fb 3d
       0.083770916 0.09496017 0.0608155 0.123009354
0002e0 8b ff 43 3d e7 a2 8b 3e 81 e9 18 be 56 8b 50 3e
       0.047851127 0.27272722 -0.14932825 0.20365652
0002f0 28 ed fc bd 70 99 8f bc a6 a8 1e be d2 ce fd 3d
       -0.123499215 -0.01752922 -0.15494022 0.123929635
000300 55 76 82 be 0c d9 98 3e 11 47 f4 bc ee 04 11 3d
       -0.25480905 0.29853094 -0.029819043 0.035405092
000310 6d 33 cc bd 03 73 89 bd e9 01 3f be 1f a0 94 be
       -0.09970746 -0.0671139 -0.18653072 -0.29028413
000320 e5 7a 6c be 21 51 6f be f4 69 01 be 41 9f 16 3d
       -0.23093756 -0.23370792 -0.12638074 0.03677297
000330 6f d2 08 be 99 aa 01 3e 8b ad 84 be 25 23 8d be
       -0.13361524 0.12662734 -0.25913653 -0.27565876
000340 a1 d4 a5 bd 21 6a 94 3e 34 a8 28 be ae 5d 54 be
       -0.08097196 0.2898722 -0.16470414 -0.20738861
000350 34 1d 94 3e a4 61 ea 3c a2 a0 db bd 57 34 9d be
       0.2892853 0.028611012 -0.10723998 -0.30703995
000360 a0 0c fb be 7b 1f 43 3e d3 f7 76 bc 3f 4c 59 be
       -0.4903307 0.19054978 -0.015073734 -0.21220492
000370 b5 6b 31 3e 5d fd 2a be 10 c4 78 be 44 ff a8 be
       0.17326243 -0.16698213 -0.24293542 -0.33007252
000380 9a 1a 1f 3e f6 13 4b be eb d6 80 be 1d 59 cc bd
       0.15537491 -0.19831833 -0.2516397 -0.099779345
000390 89 1c d4 bd 7e fe b8 be 84 eb ce bd 71 21 d2 3e
       -0.10357005 -0.36131662 -0.10103515 0.4104114
0003a0 94 05 1b 3c 1c d7 81 be 5b 2e 96 ba 3c 07 26 3e
       0.009461779 -0.25359428 -0.0011457907 0.16213697
0003b0 b1 f7 5b be 85 3f cb bd 42 2f 99 bd ef 1a a1 be
       -0.21481206 -0.09924225 -0.07479717 -0.3146586
0003c0 c5 ca 4c 3c 48 34 85 be 2b f7 81 be 87 fc b8 be
       0.012499516 -0.2601645 -0.25383887 -0.36130163
0003d0 9b 11 0e 3d 2c 12 3e 3d d6 88 9e be 47 ee 5d 3d
       0.03468476 0.04640405 -0.30963773 0.054182317
0003e0 90 91 43 bb 6c e4 35 be ac 33 46 3e b7 05 47 bd
       -0.00298414 -0.17762917 0.19355649 -0.048589434
0003f0 41 45 e5 be 39 15 d0 bd c0 19 0b be d8 25 fd 3e
       -0.447794 -0.10160298 -0.13584042 0.49442935

predAlpha/Mod_B0_L5/Tensordot/MatMul f4 [14, 28]
000000 f2 60 a4 3e 18 63 0b 3e 28 86 24 3e 7e 8e 91 3e
       0.32105213 0.1361202 0.16066802 0.28429025
000010 ce 05 97 3c ac 53 6f be ef c1 03 3e a6 7d 9b 3e
       0.018435385 -0.23371762 0.12866949 0.303693
000020 18 d2 6e bd 1c b8 a9 bd 95 0d 81 3e 15 06 fc bd
       -0.05830583 -0.08287069 0.25205675 -0.123058476
000030 6c f4 3f bd d1 20 a6 3e dc 0e 65 3d 05 77 06 3e
       -0.04686396 0.32446912 0.055922374 0.1313134
000040 b8 36 21 bd 42 bf 66 3e a2 03 ab be 0a 3d 8c 3e
       -0.039358824 0.22533897 -0.3340121 0.2739032
000050 62 03 bc 3e 4c 6c d8 3d cb 4b 6d 3e 35 90 3b 3d
       0.3672133 0.10567531 0.23173444 0.045791823
000060 07 aa 24 3d f6 14 da bb 08 26 2f 3e 80 0a cc 3d
       0.040201213 -0.006655331 0.17104352 0.0996294
000070 53 98 21 bd 39 bc 6c 3e e8 58 99 3e 00 ef 99 3e
       -0.03945191 0.23118676 0.29950643 0.30065155
000080 7a aa 0c 3e c1 d8 03 3e 4e 1b 3d 3e 7a 58 a1 bc
       0.13736907 0.12875654 0.18467447 -0.01969551
000090 75 ab 64 be 4e ee e1 be 41 c8 2f 3e 07 ab 5b be
       -0.2233103 -0.44127125 0.17166235 -0.2145196
0000a0 a2 dd 99 be f7 7c c2 bd 61 79 87 3e a7 ee 06 be
       -0.30051905 -0.094964914 0.26459792 -0.13176976
0000b0 0d ec 15 3c a2 54 b7 bb ff ef 27 be 18 de fc bd
       0.009150517 -0.005594806 -0.16400145 -0.123470485
0000c0 0d eb ac 3d e3 be 47 3e 8e 95 a7 3e 7c b7 60 3e
       0.0844327 0.19506411 0.3273129 0.21944994
0000d0 41 54 1f be 61 57 88 be 30 b1 35 3e fe 45 ad 3c
       -0.15559484 -0.26629165 0.17743373 0.021151539
0000e0 dd 2f c5 3d 79 87 9e 3d 47 c0 81 3d e4 f7 aa 3e
       0.0962827 0.07740683 0.06335502 0.3339225
0000f0 b4 e5 28 bd 46 7b 18 3e 86 aa fb bd a4 7d fa bd
       -0.041234687 0.14890775 -0.12288384 -0.12230995
000100 48 63 6a 3e 83 b4 1e bd a2 75 05 be 2b 2a 8e 3d
       0.22889435 -0.03874637 -0.13033155 0.06941637
000110 cb ae a0 3e c2 24 66 b6 f5 60 5b ba b1 ef 82 3e
       0.31383356 -3.4294067e-06 -0.0008368635 0.25573495
000120 fb ce 4c bd 73 89 3f 3e 0d 70 c0 bd 99 29 ab be
       -0.05000208 0.18704776 -0.09396372 -0.33430174
000130 6f cd 80 3c f3 7b 7c 3d b5 6d 3a bc f3 42 c2 3d
       0.015722958 0.061641645 -0.011378695 0.09485426
000140 27 05 48 3d a4 25 88 3d d1 d4 9e 3e bc ba 74 be
       0.04883304 0.066478044 0.3102174 -0.23899359
000150 3e b8 d3 3e 83 fc af 3d 6c c0 c1 3e 67 bb f3 bd
       0.41351503 0.08593085 0.3784212 -0.119009785
000160 d0 0f 08 3d 40 62 38 bd d6 38 b4 3d ef 4e 1c 3d
       0.033218205 -0.045015574 0.08799903 0.038161214
000170 24 8a 85 3e 02 49 a4 3d 01 8d ef bd 46 3c 49 be
       0.26081955 0.08021738 -0.11696816 -0.19651899
000180 46 f7 90 3c 02 be 6e 3e b2 1e dd bc 3d 92 0c be
       0.017696034 0.2331467 -0.026992176 -0.1372766
000190 e1 7d f1 3d 35 59 fb bd a0 ba 9b be a0 d6 de 3d
       0.117915876 -0.12272874 -0.3041582 0.1088078
0001a0 a3 24 c3 3e 7f 2e 91 be ff 8d b0 be 9e dd 97 be
       0.3811389 -0.28355786 -0.34483334 -0.29661268
0001b0 77 50 dc bd 17 ac 72 be 14 4e a2 be a5 7c c9 3a
       -0.10757535 -0.2369846 -0.31700194 0.001537223
0001c0 6e 1e 9a 3c 96 e1 21 be 95 69 fa bd b7 fd 88 3c
       0.018813338 -0.1580871 -0.122271694 0.016722543
0001d0 6c ea 84 3d c1 c4 ef bd 31 b0 54 3d e5 5e 1a ba
       0.06490025 -0.1170745 0.05192584 -0.0005888774
0001e0 2e fe 63 3e 86 f9 61 3d 37 3e 4e be 38 6b 88 3e
       0.2226493 0.055169605 -0.2014092 0.266443
0001f0 80 72 70 3e 50 16 c6 3d c1 bd 2c be 0a 33 00 b8
       0.23481178 0.096722245 -0.1686926 -3.0565112e-05
000200 ca 81 6c 3c 86 55 95 3b 87 99 09 bc 72 e3 63 bd
       0.014435241 0.0045573143 -0.00839842 -0.05563683
000210 e5 42 21 3e 9d 0d 24 be 56 1d 97 3a 2e 92 85 3d
       0.15748174 -0.16020818 0.0011529129 0.06522022
000220 ba 8a ff bd 06 29 38 38 47 c9 e9 3b bc 38 10 3b
       -0.12477632 4.3907225e-05 0.00713459 0.0022006473
000230 61 86 3e bd 10 e7 a5 be b3 0e 3f 3e a7 a6 18 3e
       -0.046514872 -0.3240285 0.18657951 0.14907323
000240 a8 63 57 be d1 53 2d 3e 3a 3a 03 be 76 df a3 bd
       -0.2103411 0.16926505 -0.1281518 -0.08001606
000250 96 c7 b2 3e 53 a8 99 be dd 0e 37 3d 3e 68 c4 3d
       0.34917897 -0.30011234 0.04469191 0.09590195
000260 df 97 af be e5 c6 dd 3b bd ef 69 be f3 cb ef bd
       -0.34295556 0.006768095 -0.22845359 -0.11708822
000270 9d de 5d be 94 03 cf bd 8e fa 28 be 03 37 ed bd
       -0.21666951 -0.10108104 -0.16501829 -0.11582758
000280 cc 5a 5a 3e ec 72 b3 be 4e b7 99 3e 2e b1 8d 3e
       0.21323699 -0.35048616 0.30022663 0.2767424
000290 f8 d3 e3 bd f4 f0 94 be b5 96 93 bc 92 fb 9b be
       -0.11124414 -0.29090083 -0.018016199 -0.3046537
0002a0 65 7e 81 3d 7f 1d 03 be 2e d5 93 3e b3 09 c2 bd
       0.06322936 -0.1280422 0.2887358 -0.09474506
0002b0 d1 7c ef be c7 01 fc 3c 08 2a 9a 3c ad 1f 38 3e
       -0.46774915 0.030762566 0.01881887 0.17980833
0002c0 00 a5 d8 3c e2 02 c0 3d a2 db 4d 3d 3e 72 65 bc
       0.026445866 0.0937555 0.050258286 -0.014004288
0002d0 f6 69 5d 3e 8d 37 55 3c 73 f3 5e be 16 d2 33 3e
       0.21622452 0.013013733 -0.21772556 0.1756061
0002e0 d3 17 fb 3d 3e fa 85 3e 1d dd c3 be 78 9b bc 3d
       0.122604035 0.26167482 -0.38254634 0.09209341
0002f0 50 97 95 3d 0f 1e 5e be b8 8e 81 3d 5b 97 73 bb
       0.07304251 -0.21691154 0.063260496 -0.0037169072
000300 68 4f b4 3d 62 f7 63 be 59 6c 92 be 67 2c 98 be
       0.08804208 -0.22262338 -0.28598288 -0.29721376
000310 5a d3 9a be 24 6b c7 bd 69 2e 29 be e8 a5 a0 3d
       -0.30239373 -0.09737232 -0.1652161 0.07844144
000320 3c dd e3 3d 90 12 43 bd 00 3f 2e 3e 9a 27 74 3e
       0.111261815 -0.047625124 0.1701622 0.23843232
000330 eb 2c 9e bd d9 59 6b 3d 49 d4 09 3a 84 bc ec 3c
       -0.07723411 0.057458732 0.0005257768 0.028898485
000340 90 1f 0c 3e 90 27 f1 bc 46 e1 4b 3e 43 c8 97 3d
       0.13683915 -0.02943781 0.19910154 0.07411244
000350 4f 65 96 bd d2 cc dc bd 07 7b 2a 3e 67 4c 50 be
       -0.07343542 -0.10781254 0.16648494 -0.20341645
000360 44 79 30 be 5d 9b 91 be d0 51 90 3e 92 da 72 be
       -0.17233759 -0.28438845 0.28187418 -0.2371619
000370 85 db 3f be f8 dd 9b be 2b 7d 68 3e 69 eb 39 3e
       -0.18736084 -0.30442786 0.22703998 0.18156208
000380 85 22 59 3d 25 e1 d4 3d c9 cc a6 3d 0a 15 c1 bd
       0.053011436 0.103945054 0.081445284 -0.09427841
000390 82 87 02 3f 7a c0 d1 3e 60 60 05 be 3b 92 2d 3e
       0.5098802 0.4096716 -0.13025045 0.16950314
0003a0 fe e1 7a be 5b 67 f6 be e4 76 17 bd e6 ed 48 be
       -0.24500272 -0.4812573 -0.036978617 -0.19622001
0003b0 07 46 21 be bd 97 82 3e b0 46 6a 3e e2 d9 e8 3b
       -0.1574937 0.25506392 0.22878528 0.007106052
0003c0 2f 5e c1 3e 22 8e ad be 30 74 29 be 24 33 ef 3d
       0.3776717 -0.338975 -0.16548228 0.11679676
0003d0 6a 5a 1d 3e e5 8e b7 bd 37 9b e1 3c 10 ee 1a 3d
       0.15366521 -0.08962802 0.027539833 0.03782469
0003e0 06 a6 44 be 24 20 9e 3c e4 7d a3 be 38 98 38 be
       -0.19203958 0.019302435 -0.31931984 -0.18026817
0003f0 af f2 0d bf 50 33 c7 bb f9 21 ac bd 57 ed 80 3d
       -0.5544843 -0.006079115 -0.08404917 0.06295269

predAlpha/Mod_B0_L7/batchnorm/sub f4 [14]
000000 0a 69 23 bf b9 d9 5a bf e7 ed ee be ce 0e 23 bf
       -0.6383215 -0.8548847 -0.4666588 -0.63694465
000010 0c 4d 0b bf fe e8 fe be 82 65 15 bf 95 99 bf bf
       -0.5441444 -0.49787134 -0.58358014 -1.4968745
000020 3c d2 f4 be e6 28 9b be 06 89 16 bf 73 96 6d be
       -0.47816646 -0.3030464 -0.5880283 -0.23201923
000030 dc 3e e9 be 9e 94 85 be
       -0.4555577 -0.26089948

predAlpha/Mod_B0_L7/batchnorm/mul f4 [14]
000000 6c 7f 94 3f fa c1 ab 40 eb 0b 9f 3f ea a4 ce 40
       1.1601386 5.367429 1.2425512 6.457631
000010 aa 6d a8 3f c9 53 fa 40 f7 2e d9 40 f9 18 82 40
       1.3158467 7.8227277 6.786983 4.0655484
000020 5a b2 01 41 9e 2f a3 40 a6 2a 8f 40 ad 20 47 41
       8.106043 5.0995626 4.473956 12.4454775
000030 01 08 6f 41 82 4b 17 41
       14.939454 9.455935

predAlpha/Mod_B0_L3/batchnorm/sub f4 [28]
000000 19 8f ae bf 2e cb bd bf 75 a2 9d bf 0d dc 0b bf
       -1.363742 -1.482763 -1.2315203 -0.54632646
000010 b0 2a 12 bf 1d 05 bf bf 3c 38 d4 bd cd c3 c9 bf
       -0.57096386 -1.4923435 -0.10362288 -1.5762879
000020 e2 05 da be 3d 4a ae bf 27 19 c4 bf 59 a0 06 be
       -0.42582613 -1.3616406 -1.5320176 -0.13147105
000030 43 52 12 bf 46 06 8b bd 9a 97 c8 bf 2c fe 61 3d
       -0.5715677 -0.06788306 -1.5671265 0.055174038
000040 37 44 20 bf fa 34 0e bf 3b 8e a3 bf 16 0d ca bd
       -0.6260409 -0.55549586 -1.277778 -0.09865777
000050 ca f9 1f bf 7c 67 0c be 71 e2 18 bf 9a c4 17 be
       -0.6249052 -0.13711351 -0.5972052 -0.14821091
000060 6d eb 00 bf f3 22 1e bf 31 f4 e7 be 78 c7 ec be
       -0.5035923 -0.6177208 -0.4530349 -0.46245933

predAlpha/Mod_B0_L3/batchnorm/mul f4 [28]
000000 dd ed 93 40 53 e6 2b 40 e6 f3 36 41 c5 33 53 3f
       4.622786 2.6859329 11.4345455 0.8250087
000010 f1 db a8 3f b5 d1 e8 40 d5 44 4b 40 01 f9 bd 3f
       1.3192121 7.275599 3.1760762 1.4841615
000020 12 f4 cc 3f f0 7a e8 40 9b 98 51 40 21 b7 42 40
       1.6011984 7.265007 3.2749393 3.0424273
000030 8a de a6 3f ac af c6 41 3a 73 c6 40 64 15 d0 41
       1.3036664 24.835777 6.2015657 26.010445
000040 39 56 98 3f 7c 4f 28 3f 7f 65 20 41 2f 4d 03 40
       1.1901313 0.65746284 10.024779 2.051586
000050 43 cd 73 3f c8 1e 02 40 35 49 58 3f 65 b9 d3 40
       0.9523508 2.0331287 0.84486705 6.616381
000060 82 22 a0 3f 4f 4d 67 40 e5 bc aa 3f ce 8e 7d 3f
       1.2510531 3.6140935 1.3338896 0.9904603

predAlpha/Mod_B1_L0/BiasAdd/ReadVariableOp f4 [32]
000000 e4 00 11 3e 53 ed 0a 3e 26 50 97 bc d9 cf 62 3e
       0.14160496 0.13567095 -0.018470835 0.221496
000010 e7 57 06 3e 8c 0a 8f 3d 2c 9a 5c bd e8 d5 e1 bc
       0.1311947 0.069844335 -0.053857967 -0.027567819
000020 6d 07 c4 3b 53 dd 6f 3e 5e 24 8a bd c6 63 09 3e
       0.0059823305 0.23424272 -0.06745218 0.13416967
000030 2e 54 54 bc 6f 71 34 3e 13 d5 5c 3e 9a d9 f2 3d
       -0.012959523 0.17621396 0.21565656 0.118579105
000040 25 85 83 3e 1f b9 38 bd 41 84 eb bc a8 76 df 3d
       0.2568752 -0.04509842 -0.028749587 0.10911304
000050 c1 7a 6b 3e 09 ad 93 3e 64 d7 26 3e 05 e8 ca bb
       0.22996046 0.28842953 0.16293103 -0.0061922097
000060 79 e8 66 3e 1d 95 85 bc 5d 57 96 bd ac 0f 06 bb
       0.22549619 -0.016306454 -0.07340882 -0.0020456119
000070 4a f0 1c 3e e1 92 5f bd 9b 3f 27 3e e9 3d 9b ba
       0.15326038 -0.054583434 0.16332857 -0.0011844012

predAlpha/Mod_B0_L5/BiasAdd/ReadVariableOp f4 [14]
000000 64 ea 5c 3d 37 02 0e 3e 82 d9 79 bc fd 16 2b bd
       0.05393447 0.13868032 -0.015249612 -0.04176997
000010 94 4e f3 3d 3a 3c 12 bd eb 38 97 bd 63 27 08 3d
       0.11880222 -0.035701968 -0.07383903 0.033240687
000020 d2 2d 78 bd fc e1 0f be 0f 53 12 bc 14 d2 3e be
       -0.060590573 -0.1405105 -0.0089309355 -0.18634826
000030 cd d3 7b bd c8 a2 01 be
       -0.061481286 -0.12659752

predAlpha/Mod_B0_L1/BiasAdd/ReadVariableOp f4 [28]
000000 21 af cd 3d 74 53 7a 3d 92 b9 04 bd 56 67 29 3d
       0.10043169 0.061114743 -0.032403536 0.041358314
000010 cd 24 87 3c 81 18 2e bd 0c fd b1 3c fb cc a3 3d
       0.01649704 -0.042503837 0.021727107 0.07998081
000020 70 ba 40 bb e4 df 20 bc be 61 20 3d 4c c4 ee 3c
       -0.0029408 -0.009819005 0.039155714 0.029146336
000030 6e 5c 0b 3c 95 28 9c bc 94 9f 40 bd 1f d8 a0 bc
       0.008505924 -0.01906232 -0.047027186 -0.019634305
000040 4d f4 44 3c 49 42 18 3d e6 2d 8f bd 22 89 2e bd
       0.0120211365 0.03717259 -0.06991176 -0.04261125
000050 9d 4a 02 bd 75 bc c4 bc e3 bb ac bb b3 a0 66 bc
       -0.031809438 -0.024015645 -0.0052714213 -0.0140764
000060 66 16 db 3c e1 45 f0 bb 6d a4 e2 bb 9f 20 6e 3c
       0.026744079 -0.007332549 -0.0069165737 0.014534145

predAlpha/Mod_B0_L1/Tensordot/MatMul1 i1 [28, 57] scale=0.003434356 zero_point=0
000000 16 d5 e8 fc d8 4d 41 26 e5 ef 31 1d c7 3d 04 c4
       0.07555583 -0.14767732 -0.082424544 -0.013737424 -0.13737424 0.26444542 0.22323315 0.13050553 -0.09272762 -0.058384053 0.16828345 0.09959633 -0.1957583 0.20949572 0.013737424 -0.20606136
000010 fe a2 00 03 d6 f6 02 e1 cc bb 09 56 4f b7 f5 1a
       -0.006868712 -0.32282948 0.0 0.010303068 -0.14424296 -0.03434356 0.006868712 -0.10646504 -0.17858651 -0.23697057 0.030909205 0.29535463 0.27131414 -0.25070798 -0.037777916 0.08929326
000020 46 0d 21 2c dd df fd 0d bf d7 f2 f4 04 14 d9 2f
       0.24040492 0.04464663 0.11333375 0.15111166 -0.12020246 -0.11333375 -0.010303068 0.04464663 -0.22323315 -0.1408086 -0.048080985 -0.041212272 0.013737424 0.06868712 -0.13393989 0.16141474
000030 a3 26 1f f4 f4 f4 e3 38 d9 0b 1f dc d5 cf 04 e1
       -0.31939512 0.13050553 0.10646504 -0.041212272 -0.041212272 -0.041212272 -0.09959633 0.19232394 -0.13393989 0.037777916 0.10646504 -0.12363682 -0.14767732 -0.16828345 0.013737424 -0.10646504
000040 fa 2d 26 ce 43 dd f6 c5 eb 3b e8 2b df 22 ea 3e
       -0.020606136 0.15454602 0.13050553 -0.17171781 0.23010185 -0.12020246 -0.03434356 -0.202627 -0.07212148 0.202627 -0.082424544 0.14767732 -0.11333375 0.11676811 -0.07555583 0.21293008
000050 f2 fd c2 ae 15 11 3a 28 d8 17 ec fe 3f 12 e7 48
       -0.048080985 -0.010303068 -0.21293008 -0.2816172 0.07212148 0.058384053 0.19919266 0.13737424 -0.13737424 0.07899019 -0.06868712 -0.006868712 0.21636443 0.06181841 -0.085858904 0.24727364
000060 f3 eb 03 e8 3b e7 40 16 cc f9 e4 fb c0 10 22 30
       -0.04464663 -0.07212148 0.010303068 -0.082424544 0.202627 -0.085858904 0.21979879 0.07555583 -0.17858651 -0.024040492 -0.09616197 -0.01717178 -0.21979879 0.054949697 0.11676811 0.16484909
000070 00 cd ff 0c 2b 07 03 29 eb eb fd d3 b4 2b 1a 4a
       0.0 -0.17515215 -0.003434356 0.041212272 0.14767732 0.024040492 0.010303068 0.1408086 -0.07212148 -0.07212148 -0.010303068 -0.15454602 -0.26101106 0.14767732 0.08929326 0.25414234
000080 d4 ea 20 06 1b ca f2 34 c1 1f 2d 07 b1 25 3d 26
       -0.15111166 -0.07555583 0.109899394 0.020606136 0.09272762 -0.18545523 -0.048080985 0.17858651 -0.21636443 0.10646504 0.15454602 0.024040492 -0.27131414 0.12707117 0.20949572 0.13050553
000090 4d 27 1e b4 3f d6 06 c5 5b eb 48 53 d5 ff fc f7
       0.26444542 0.13393989 0.10303068 -0.26101106 0.21636443 -0.14424296 0.020606136 -0.202627 0.3125264 -0.07212148 0.24727364 0.28505155 -0.14767732 -0.003434356 -0.013737424 -0.030909205
0000a0 ff e5 ba 07 b9 dd 0a fa 0f 10 15 22 18 e2 bd 0d
       -0.003434356 -0.09272762 -0.24040492 0.024040492 -0.24383928 -0.12020246 0.03434356 -0.020606136 0.05151534 0.054949697 0.07212148 0.11676811 0.082424544 -0.10303068 -0.23010185 0.04464663
0000b0 03 fb de ca e4 f4 10 e5 14 08 d1 e5 07 ee ca 1b
       0.010303068 -0.01717178 -0.11676811 -0.18545523 -0.09616197 -0.041212272 0.054949697 -0.09272762 0.06868712 0.027474849 -0.16141474 -0.09272762 0.024040492 -0.06181841 -0.18545523 0.09272762
0000c0 ff f0 cf fe f8 05 fe 02 c1 e6 f5 f3 f6 06 cd 06
       -0.003434356 -0.054949697 -0.16828345 -0.006868712 -0.027474849 0.01717178 -0.006868712 0.006868712 -0.21636443 -0.08929326 -0.037777916 -0.04464663 -0.03434356 0.020606136 -0.17515215 0.020606136
0000d0 01 ed bf fe 02 01 05 09 2e d6 06 21 fd 10 1a 01
       0.003434356 -0.065252766 -0.22323315 -0.006868712 0.006868712 0.003434356 0.01717178 0.030909205 0.15798038 -0.14424296 0.020606136 0.11333375 -0.010303068 0.054949697 0.08929326 0.003434356
0000e0 02 dd c2 f2 24 c1 e9 b6 35 fb 0f 00 e6 04 fd f4
       0.006868712 -0.12020246 -0.21293008 -0.048080985 0.12363682 -0.21636443 -0.07899019 -0.25414234 0.18202087 -0.01717178 0.05151534 0.0 -0.08929326 0.013737424 -0.010303068 -0.041212272
0000f0 d5 02 ce 1c 46 03 b1 d9 06 fa ae b2 06 3c 2b e7
       -0.14767732 0.006868712 -0.17171781 0.09616197 0.24040492 0.010303068 -0.27131414 -0.13393989 0.020606136 -0.020606136 -0.2816172 -0.26787978 0.020606136 0.20606136 0.14767732 -0.085858904
