indian-sign-language-learning-app-win32-x64/resources/app/Models/Alphabets/H.tflite (tflite, 15504 bytes, 11 tensors)

predAlpha/Mod_B3_Lo/MatMul f4 [1, 32]
000000 fe fb fc 3d b6 43 82 be a3 92 a4 3d 54 33 9d bd
       0.12352751 -0.25442284 0.08035781 -0.07675806
000010 fe 27 f3 bc ef f0 c9 be 10 06 9a 3c dd 12 81 3e
       -0.029682156 -0.3944163 0.018801719 0.25209704
000020 d0 fa 59 be 4b ee ce be 75 a1 d2 3e 80 c3 d9 bd
       -0.21287084 -0.40416178 0.41138807 -0.10632992
000030 44 7e bd 3d a3 35 c5 bd 9e 65 88 bd 63 d9 9b 3e
       0.09252599 -0.09629371 -0.06660007 0.3043929
000040 a0 b0 0c bf e1 a5 8e be cc 2c d5 be 6a a2 71 be
       -0.5495701 -0.2786093 -0.4163574 -0.23597112
000050 d6 0e b0 be 81 c2 85 3e 28 83 00 3e 15 1d ca be
       -0.3438632 0.26124957 0.12550032 -0.39475313
000060 b5 64 01 3f 1d 57 58 bd ea f5 c7 bc e7 a9 e6 bb
       0.5054429 -0.052817453 -0.024409253 -0.007039297
000070 09 f5 c5 3d 67 2c bb be a9 4f be 3e 22 d2 8a be
       0.09665877 -0.36557314 0.3717015 -0.27113444

predAlpha/Mod_B1_L0/MatMul f4 [32, 28]
000000 93 a6 bb be 69 b6 2f 3e a3 3d 03 be b1 cd 81 3d
       -0.36650524 0.17159428 -0.12816481 0.06338061
000010 63 62 7c be 69 0e 82 3d b9 64 6c be 0c a5 31 3e
       -0.24646907 0.06350405 -0.23085298 0.17348117
000020 6a ad 83 3d 22 47 99 3d 44 9e b3 3d b9 48 26 3e
       0.064295605 0.07484271 0.08770421 0.16238679
000030 7b 6f 7b 3e c2 43 8c 3d 5f 5e c3 be 8a 00 af be
       0.24554245 0.06848861 -0.38157937 -0.341801
000040 65 b8 7b be 27 c9 96 3d 9c 95 b0 bb d2 00 8d be
       -0.2458206 0.073625855 -0.0053889286 -0.27539688
000050 de e6 a1 be 73 2e 06 be 02 c5 ca 3d 82 ce 29 3e
       -0.3162145 -0.13103656 0.099008575 0.16582683
000060 a3 38 27 3c 1c f9 9f be aa 43 51 be 61 3e 17 bd
       0.010206374 -0.31244743 -0.20435968 -0.036924724
000070 3c f5 57 3e 62 55 09 be 2e 8b ca bd 77 95 01 bc
       0.21089643 -0.13411477 -0.09889828 -0.00790917
000080 17 06 a9 be 79 90 8a 3d f2 57 94 be 8c 39 a8 3e
       -0.3301246 0.06765837 -0.28973347 0.32856405
000090 1b c1 e4 bc d0 a8 99 3d fe 5d ce 3d c7 19 86 3d
       -0.027924111 0.075029016 0.10076521 0.065478854
0000a0 de 15 a5 be 67 b3 ad 3e 3a b8 76 3c c7 6c 87 be
       -0.32243246 0.33925936 0.0150585715 -0.26450178
0000b0 d6 9a 15 bd 30 9e 32 3e c2 be 12 3d 39 6c 00 3d
       -0.036524616 0.17443156 0.035826452 0.03135321
0000c0 e7 b3 a3 3e 8b 42 ff bc bd d1 c8 bd ed c6 0b 3e
       0.31973192 -0.03115966 -0.098056294 0.13650103
0000d0 15 55 a3 3d 3d 09 ac 3e ac 7e 07 be d5 9d dd bd
       0.079752125 0.33600798 -0.13231915 -0.1082112
0000e0 da c3 2e be 05 42 15 3e 66 31 a1 bd 0d b0 8a be
       -0.17066899 0.14575966 -0.0787075 -0.2708744
0000f0 b8 ed 37 be 8c 16 19 3e 23 06 04 be 26 46 07 3d
       -0.17961776 0.14950007 -0.12892966 0.033025883
000100 56 08 85 bb 9c 86 ee bd 58 32 8b bd 1a 79 b8 bd
       -0.0040598316 -0.116467685 -0.06796712 -0.09007473
000110 81 0a 69 be 22 1c 84 3e 37 0a 9e be 87 58 85 be
       -0.22757913 0.25802714 -0.30867168 -0.26044104
000120 83 91 20 3e 8e 96 81 3e 64 22 3a be 36 57 1d 3d
       0.15680508 0.25310177 -0.18177181 0.03841325
000130 2e ef a5 be 2b 3d 58 3e 26 90 db 3d 11 f8 4c 3d
       -0.32409042 0.21117084 0.107208535 0.050041262
000140 b3 71 c3 3d 99 78 b5 be 23 ba 10 be 38 c4 70 3e
       0.09543171 -0.3544357 -0.14133506 0.23512352
000150 11 e3 ec bd 93 66 3a bd 03 d9 36 be 49 b4 b3 3e
       -0.11566747 -0.04550798 -0.17856221 0.35098484
000160 48 d4 83 bb 6f fc 36 bd 33 57 a2 be 1b e0 7f be
       -0.0040231086 -0.044674333 -0.31707153 -0.24987833
000170 98 80 a9 be 01 e4 38 3e 3a be 96 be a6 e2 23 3e
       -0.33105922 0.18055727 -0.29442006 0.16004428
000180 7f e7 a9 bd 31 75 95 be bf d8 8b 3d 4b cb 4b 3e
       -0.082961075 -0.29190972 0.068284504 0.19901769
000190 01 69 81 3e 52 2d 8d 3d 6a fe fe bc bf 74 b9 be
       0.25275424 0.0689341 -0.031127173 -0.36221883
0001a0 29 bd 9e 3e 98 09 84 3e cd d2 b5 be 12 44 63 3e
       0.31003693 0.2578857 -0.3551239 0.22193936
0001b0 b2 b2 8b be 1e f9 25 3e 7e 89 98 be 63 a0 5d bc
       -0.2728477 0.16208312 -0.29792398 -0.013527009
0001c0 dd d0 ac bd 0a 8e 82 be f3 52 c1 bd 21 16 1a 3d
       -0.08438275 -0.25498992 -0.094396494 0.03761876
0001d0 54 f9 6c be 4d c0 8e 3e 31 26 62 be d1 72 b4 bd
       -0.23141986 0.2788109 -0.22084881 -0.08810962
0001e0 43 cc f4 bd d6 e7 a9 3c 9c d4 09 3e 96 84 67 3e
       -0.11953022 0.02074043 0.1346001 0.22609171
0001f0 96 a8 16 3e 7a 4e 31 bc 1e ae 89 be aa 92 7d be
       0.14712748 -0.010821933 -0.26890653 -0.24762979
000200 b2 f1 81 3b 86 20 cc bd 76 5b 1f 3e c4 27 80 3d
       0.00396558 -0.09967141 0.15562233 0.06257585
000210 f4 18 1d 3c 76 01 46 be 0a ba 15 be 93 4f b9 bd
       0.009588469 -0.19336495 -0.1462175 -0.09048381
000220 f0 15 a4 3e de 4a 77 3e 47 eb aa 3e 03 0b 68 3e
       0.32047987 0.24149653 0.33382627 0.2266045
000230 b6 f8 a0 be 1c 81 89 3d 29 28 95 be 00 cc 01 3d
       -0.3143975 0.06714079 -0.29132202 0.03168869
000240 26 38 55 be f4 3f c5 bd 3a f2 b7 be 5d b5 4d bd
       -0.208222 -0.09631339 -0.35926992 -0.05022179
000250 25 ae 54 3e e0 03 a8 bc 68 07 23 be 29 54 16 bc
       0.20769556 -0.02050966 -0.15920794 -0.009175339
000260 fb e3 4f 3c 59 93 90 3e 15 27 13 3e e4 b9 ac 3d
       0.012688632 0.28237417 0.14370377 0.08433893
000270 6f e5 b9 3e 24 5e 9c 3e 77 29 24 bd 85 e1 86 3d
       0.36307856 0.30540574 -0.040078606 0.06585983
000280 47 7a 28 bd 35 91 21 3e ef 58 14 be c7 e4 19 3e
       -0.041132238 0.15778048 -0.1448705 0.15028678
000290 d3 6e 60 3d 0b 5c d0 3e 00 e0 cf 3e f2 cd 3f 3e
       0.05479319 0.40695223 0.40600586 0.18730906
0002a0 3c 58 d2 bd 7f b8 65 3e 5d 08 95 3d 43 4b 31 3d
       -0.102707356 0.22433661 0.07276986 0.043284666
0002b0 59 aa 7c 3e b4 a2 6e 3d 24 4d 99 be 62 72 4a 3e
       0.24674357 0.058260635 -0.29941666 0.19770196
0002c0 6e 88 ec 3d 6b 44 bc bd ad 83 b9 be 79 8e 01 3e
       0.115494594 -0.09192737 -0.36233273 0.12652005
0002d0 5f 4c 6b bd 07 8d ce bc a4 5a 2e 3e db 9b 60 3d
       -0.05744588 -0.025213731 0.17026764 0.054836135
0002e0 8a 9a e5 bc 12 a4 82 bd 16 97 aa 3c 10 2e 1e bd
       -0.028027792 -0.0637895 0.020823997 -0.038618147
0002f0 76 9b 35 3e 5c 77 8a 3e 41 03 16 3e 78 bd 58 3d
       0.17735085 0.2704419 0.14649679 0.052915066
000300 83 5e 6c be 16 2b 09 3d ac 1e 01 be 70 d6 23 3d
       -0.23082928 0.033488356 -0.12609357 0.039999425
000310 56 01 6c 3e ec a0 b3 be fd 50 27 3c a4 2a 59 3e
       0.23047385 -0.3508371 0.01021218 0.21207672
000320 45 a8 93 3d 79 7a 0a 3e c4 2d e9 3c 04 6e b2 bc
       0.07209829 0.13523282 0.028464206 -0.021780975
000330 61 47 96 be e7 e8 53 3e 80 aa 50 3d 73 da 1c 3e
       -0.29351333 0.20694314 0.05094385 0.15317707
000340 89 e9 ba 3e b1 31 c5 3d 1d 0c 75 3e ef ff 99 3d
       0.36506298 0.096286185 0.23930402 0.075195186
000350 26 f3 e0 bb c9 22 b5 be b3 bc 6b be 75 48 e5 3c
       -0.006864923 -0.353781 -0.23021202 0.027988652
000360 08 b3 bc 3d 76 cb b7 bd 46 8f 05 be 10 85 a8 36
       0.09213835 -0.08974354 -0.13042936 5.0222807e-06
000370 ee 7d 38 3e e3 42 31 bd bb 97 81 bd 2b b7 0c 3e
       0.18016788 -0.04327668 -0.063277684 0.13741748
000380 28 01 41 3e d4 04 70 3e dc 35 af 3e b3 00 0d 3e
       0.18848097 0.23439342 0.3422078 0.13769798
000390 70 a2 19 3c db a3 56 be b7 ac 13 3e a7 85 d0 bd
       0.009377107 -0.20960943 0.14421354 -0.10181742
0003a0 fd 05 85 3d 22 d9 56 be 96 1f 8b be 39 67 14 be
       0.06495283 -0.20981267 -0.27172536 -0.14492501
0003b0 3b cb 1b 3e 2a ef 80 be 98 d1 da 3d 72 17 41 3e
       0.15214245 -0.25182468 0.10684508 0.188566
0003c0 16 82 5e bd e7 75 5e bd 85 c1 d1 3e c4 2e 1f be
       -0.05432328 -0.05431166 0.40967956 -0.15545183
0003d0 bc d2 77 be a5 e2 e7 3d 04 41 70 3e ab a7 f0 3d
       -0.24201483 0.11322526 0.23462301 0.1175073
0003e0 13 19 09 be 9d 74 e5 3d a6 dd ce 3b 1b 4d 8c bc
       -0.13388471 0.11203883 0.0063130436 -0.01712661
0003f0 22 56 86 bd 07 db 51 3e 3b ed 7e 3d 95 7a 2a 3e
       -0.06559397 0.20493709 0.06223796 0.16648324

predAlpha/Mod_B0_L5/Tensordot/MatMul f4 [14, 28]
000000 3e 22 8f bd 71 68 40 bd 83 b3 3c 3d f5 9e 05 3d
       -0.06988953 -0.046974603 0.046069633 0.032622296
000010 99 11 4b be 12 45 b7 be 78 61 30 3e ea 87 a8 3d
       -0.19830932 -0.35794884 0.17224681 0.082290486
000020 5b 3d 2f bd cf e2 4a bd 19 32 a6 3e 73 df 06 be
       -0.042783123 -0.049532708 0.32460096 -0.13171177
000030 93 e4 80 bd b6 0f 9e 3e 12 e3 3e 3e 24 ba 3d 3e
       -0.06293597 0.30871361 0.18641308 0.18528038
000040 64 58 f9 bc 3e 9a 14 3d bf 22 ab 3d 3b 21 af 3d
       -0.030437656 0.03627991 0.08356237 0.0855126
000050 0c 35 8b 3e ad 88 85 be 8a d4 30 3d 73 c7 81 3e
       0.2718891 -0.26080838 0.043171443 0.2534748
000060 a6 0e 8f 3c e6 18 33 bd 5e ce 9f 3d de 60 d6 3d
       0.01746304 -0.043724917 0.07803033 0.10467695
000070 b6 0d 6f 3e 94 be 8b 3d 00 c4 bf 3e 08 7c 93 3d
       0.23345074 0.06823459 0.37454224 0.072013915
000080 8d ab e9 be 75 2a 43 3d 03 d1 52 3c 87 60 bb be
       -0.45638695 0.047647912 0.012867215 -0.36597082
000090 7e b5 9d be 0b 25 d3 3c 15 3f 4b be d7 9b 62 be
       -0.3080253 0.0257745 -0.19848283 -0.2212976
0000a0 f8 d5 23 be 68 00 f6 bd 41 b0 7e be 61 b8 ab be
       -0.15999591 -0.12011796 -0.24871923 -0.33539107
0000b0 93 e3 21 3e 33 7f 0d 3e a2 01 7d 3e 9d 1e c4 be
       0.15809469 0.13818054 0.24707654 -0.38304606
0000c0 14 de d0 bd 04 76 80 3d 4b 89 03 be 0a 22 bc be
       -0.10198608 0.0627251 -0.12845342 -0.3674472
0000d0 18 91 20 bc 7a 59 b3 3e 3d 76 3a 3e 73 2a ec bd
       -0.009800218 0.35029203 0.18209167 -0.11531534
0000e0 fb 45 f1 3e 8d 7f 8f be 78 50 e4 3d 74 42 86 be
       0.47123703 -0.28027 0.11148161 -0.26222575
0000f0 b3 8d 1e 3e 56 70 01 3d dd e4 46 be 0a 30 81 3c
       0.15483741 0.031601273 -0.19423242 0.015769977
000100 39 af de 3c 7a b9 89 3e de b8 c3 bd 13 7f f6 bd
       0.027183162 0.2689932 -0.09556745 -0.12035956
000110 b9 bc 0d be 07 df 3a be 70 63 a8 3d 8f 0f 26 be
       -0.13841523 -0.1824914 0.08222091 -0.16216873
000120 33 d9 f3 bc 39 d3 83 3e 34 39 51 be 72 d0 8d be
       -0.029766655 0.25747088 -0.20431978 -0.27698094
000130 6e 3b 96 3c 14 f6 07 be 9a c6 2c 3d 3d 99 0d 3c
       0.018338885 -0.13277465 0.04218159 0.008642492
000140 1c ad 2e be 9d 89 e9 3d 74 d5 c7 be b5 24 37 3d
       -0.17058223 0.11403201 -0.3903004 0.04471274
000150 fb a8 1c 3e c2 c4 93 bc 02 1f 09 3e aa b1 d3 be
       0.15298836 -0.018038157 0.13390735 -0.41346484
000160 41 ab 27 3d 05 ce 93 3e 07 bd 8f be 42 59 e0 3c
       0.040934805 0.28868118 -0.28073904 0.027386311
000170 f9 ca b2 bc 32 ca 20 3e a5 a8 4c 3e 85 3f 41 be
       -0.0218253 0.15702131 0.19986208 -0.18871887
000180 fc 0d 80 be 5a 3f 0d be 70 25 00 3d a8 8d 77 3d
       -0.2501067 -0.13793698 0.031285703 0.06043783
000190 18 d3 ac be 6f 4d 96 bc 10 95 c2 3c c3 c0 7e 3e
       -0.33754802 -0.01834747 0.02375272 0.2487822
0001a0 cb 95 ca be 58 80 cb be 44 fe d7 3d 5e ce 8c bd
       -0.39567408 -0.39746356 0.10546544 -0.06875299
0001b0 b8 15 1b 3d 15 31 e2 3e 54 31 02 3e 00 e3 7a be
       0.03786251 0.44178072 0.1271413 -0.24500656
0001c0 0e 58 a5 3e 11 63 ce be 85 31 1a 3d 5c b2 ab 3c
       0.32293743 -0.40309957 0.03764488 0.020959072
0001d0 92 a0 70 bc b2 ca 96 3e 44 2e 9c 3d c1 57 5c bc
       -0.01468672 0.2945152 0.07626012 -0.013448657
0001e0 57 d4 ed 3e d4 2a 4d bd a9 d3 49 3e ca c5 d6 3e
       0.46451065 -0.050089672 0.19709648 0.41947776
0001f0 b2 22 6c bd bd fe 02 3e 4f be db 3c 8b 08 2d 3e
       -0.057650276 0.12792487 0.026824145 0.1689779
000200 47 00 40 3e b0 73 d5 bb dc c6 9a be 6b 2a 51 3e
       0.18750106 -0.006514035 -0.30229843 0.20426337
000210 59 e2 a9 3e 60 f1 c4 3e 58 f6 c6 3d a2 a2 7e be
       0.33180502 0.38465405 0.09714955 -0.24866727
000220 f2 bd d8 3e 73 56 81 be 47 02 36 be e0 8f 81 bd
       0.42332417 -0.25261268 -0.17774306 -0.0632627
000230 ce 7c a4 3e 74 6c 2c bc af da ba bd bc 43 99 3e
       0.32126468 -0.010523904 -0.09123742 0.2993449
000240 ed eb 9d 3c 98 5e 89 be 46 86 85 3e 21 7a 8c be
       0.019277537 -0.26829982 0.26079005 -0.27436927
000250 4e 92 20 be 74 19 4e be 73 b5 c9 3e 57 ce 24 3e
       -0.15680811 -0.20126897 0.39396247 0.16094337
000260 ba 08 03 3e ad 4c 89 be a1 d1 8a 3e 27 25 9e be
       0.12796298 -0.2681631 0.2711306 -0.3088772
000270 cd ef 46 3e ea c0 b2 be 8d 1d 6e be 14 b1 fb 3c
       0.19427414 -0.34912807 -0.2325346 0.030724086
000280 22 8f 54 be d9 55 5f bd 04 68 c5 be cf 13 80 3d
       -0.20757726 -0.05452523 -0.3855592 0.06253778
000290 bf 34 64 3d 4f 43 0e 3e 9c 0e 1b 3e 68 50 cf 3e
       0.055714365 0.13892864 0.15142292 0.40491033
0002a0 49 10 ad 3e 03 73 41 3e 8f 1f c5 3e 73 da 4f 3e
       0.33801487 0.1889153 0.3850064 0.20298176
0002b0 83 c2 93 3e ba f0 d6 be 4a 5a 95 be d6 6a 9c be
       0.28859338 -0.41980535 -0.29170448 -0.3055026
0002c0 f8 a1 85 3e d4 c2 8e 3c 3d ad 1d bd 4a 99 57 bd
       0.26100135 0.017426886 -0.03849529 -0.052636422
0002d0 fc 69 fe 3c 0f d3 25 bd b2 c5 2d be db a5 0b be
       0.031056397 -0.040484484 -0.16969946 -0.13637488
0002e0 c3 23 36 3e f5 a1 2a 3e 34 1a 46 be 58 d8 75 3e
       0.1778708 0.16663344 -0.19345933 0.2400831
0002f0 da bd ed be 33 d0 ae be 03 f4 0a 3e 63 78 ee be
       -0.46433908 -0.34143218 0.13569646 -0.46576223
000300 e2 02 81 be ab 86 6f be 1f a3 d2 be 1d 39 62 3e
       -0.25197512 -0.23391216 -0.41140077 0.220921
000310 9e 41 81 3e f4 59 48 be 7d 55 5e bd 35 f4 20 3e
       0.25245374 -0.19565564 -0.054280747 0.15718158
000320 fe 04 b1 3c 2e 0f 48 bd 39 26 cf bd 1e 09 5a 3d
       0.021608826 -0.0488426 -0.10114712 0.05323135
000330 bf 3e 39 3c 8c 1f ac 3e 5b bc 4f 3e 92 01 9d bd
       0.011306464 0.33617818 0.20286696 -0.07666315
000340 5e fd bb bb 5a c1 1c bd 3c c5 1c be 55 dd ad 3e
       -0.005736991 -0.038270332 -0.15309614 0.33957925
000350 42 1a 80 be d2 b2 af be 13 0b 32 be 98 84 4e 3d
       -0.25020033 -0.34316117 -0.17387037 0.05041942
000360 97 bb bf 3e a9 01 3f 3e 69 1c 60 bd 2e 79 90 bc
       0.37447807 0.18652977 -0.054714594 -0.017635908
000370 c8 c7 b0 be 06 87 3d be 8a 69 6f 3e 9d 6a 4f be
       -0.3452742 -0.18508539 0.23380104 -0.20255513
000380 52 de 4f 3e 9b e0 44 bc 19 51 35 3d 53 8e cd 3d
       0.20299652 -0.012016441 0.044266794 0.10036912
000390 7b dc 5b bd 31 e9 c1 3e db 21 60 3e 07 5a 35 bd
       -0.053677063 0.37873223 0.21887915 -0.04427531
0003a0 f8 7d 3a be 4e 04 f8 3e 63 9f 6a be c7 9e 5f 3e
       -0.18212116 0.48440784 -0.22912364 0.21837912
0003b0 58 ba 0b be a7 1d 69 3d 00 40 54 3e 0e 75 9b be
       -0.13645303 0.056913044 0.20727539 -0.30362743
0003c0 9b ff 33 3e ad 1e 01 3e 2d 07 96 bd d8 79 65 be
       0.17577974 0.12609358 -0.073255874 -0.22409761
0003d0 5d 39 87 be 58 c1 3f bc 57 ba a7 3d b6 f6 85 3e
       -0.26410952 -0.011703812 0.081898384 0.26164788
0003e0 cb 85 7f be 80 e5 e0 be 9f 81 91 3e b2 77 d9 be
       -0.24953382 -0.43925095 0.28419206 -0.42474133
0003f0 f3 52 35 bd 98 dd a7 be f6 d5 c9 be 94 81 98 3c
       -0.04426856 -0.3278625 -0.39421052 0.018616475

predAlpha/Mod_B0_L7/batchnorm/sub f4 [14]
000000 b7 97 f3 be 9e 68 9a be 95 a8 3f be e4 a4 12 be
       -0.47576687 -0.30157942 -0.18716653 -0.14320713
000010 a0 06 a5 be 91 e4 82 be a2 5e d6 be fb d7 81 be
       -0.32231617 -0.25565007 -0.41869074 -0.25360093
000020 b8 dc aa be 8a f3 0f be b2 cc df be fe 9b 42 be
       -0.3337152 -0.14057747 -0.43710858 -0.19004819
000030 2d fb 92 be 41 5a 8b be
       -0.28707257 -0.27217296

predAlpha/Mod_B0_L7/batchnorm/mul f4 [14]
000000 55 13 66 3f 44 68 db 3f 44 f5 bf 3f 2e 8d de 3f
       0.8987325 1.7141194 1.4996724 1.7386835
000010 65 3f b2 3f f5 8c bb 3f a6 65 d7 3f 57 fe a4 3f
       1.3925596 1.4652392 1.6827896 1.2890118
000020 d4 42 61 3f f3 28 e5 3f 3e 64 8b 3f 39 77 c1 3f
       0.87992597 1.7903122 1.0889966 1.5114509
000030 69 23 ba 3f fa d4 e3 3f
       1.4542056 1.779937

predAlpha/Mod_B0_L3/batchnorm/sub f4 [28]
000000 97 0b a8 be d2 ca 8e 3c be 43 a9 be bb 7f e1 be
       -0.32821342 0.017430697 -0.33059496 -0.44042763
000010 93 7a e9 bc c8 d9 4e be 1a 44 26 bf 2c 48 34 bf
       -0.02850083 -0.20200264 -0.64947665 -0.70422626
000020 ce 95 90 be 2d b2 65 bf 88 9a ae be 0f b6 31 be
       -0.28239292 -0.89725 -0.34102273 -0.17354606
000030 d0 65 10 bf e8 d9 bb be 0a 8f dc be cc 42 ea bd
       -0.56405354 -0.36689687 -0.4307788 -0.11438522
000040 82 ac ff bd a4 7b 82 bf 42 1f d3 be 76 eb 70 bd
       -0.12484075 -1.0193982 -0.41234785 -0.058818303
000050 b9 07 ad be f4 cb dc bc a1 29 4a bf eb 20 20 bf
       -0.33794954 -0.026952721 -0.7896977 -0.6255023
000060 e6 07 df be 88 d3 87 bc ab e6 6a be 1a 28 ec be
       -0.43560714 -0.016580358 -0.22939555 -0.46124345

predAlpha/Mod_B0_L3/batchnorm/mul f4 [28]
000000 49 85 ac 3f 0f 84 de 3f d5 fd 9a 3f 67 48 13 3f
       1.3478175 1.7384051 1.2108713 0.5753235
000010 6d bb d8 3f 22 8d c3 3f 5e 73 c6 3f a1 dd 44 3f
       1.6932198 1.5277445 1.5503957 0.7690068
000020 d0 86 ca 3f 4f 8c ca 3f 3f be 9f 3f 62 a1 d8 3f
       1.5822392 1.5824069 1.2479934 1.692425
000030 dc cd ba 3f a1 89 34 3f 88 04 4b 3f be 66 ce 3f
       1.4594073 0.70522505 0.7930379 1.6125104
000040 9c ba bc 3f 7e 2f c2 3f 05 9e 67 3f e3 98 ea 3f
       1.4744449 1.5170743 0.90475494 1.8327907
000050 8c 9e cb 3f e0 3b cc 3f 3a 6a af 3f 4d 87 89 3f
       1.590776 1.5955772 1.3704293 1.0744416
000060 50 2d be 3f d5 8c d1 3f 2a 87 bd 3f 0d 32 d0 3f
       1.4857578 1.6371104 1.4806874 1.6265274

predAlpha/Mod_B1_L0/BiasAdd/ReadVariableOp f4 [32]
000000 fe 73 ff bb ab 36 0e 3d bb ef a3 bc 2b ad 86 3d
       -0.00779581 0.034720104 -0.020011773 0.06575998
000010 8f 3b da 3b e0 1d 2c 3d 88 76 31 bd 4e ab 1f bd
       0.006659932 0.04202068 -0.04332593 -0.03898173
000020 16 7e 3e 3d 97 3f 53 3d 5b 97 46 bc d2 46 7d 3b
       0.046506964 0.051574316 -0.012121047 0.0038646949
000030 bc 93 e4 bc ef a4 b3 3d b1 71 4b 3d 8f 41 d4 3b
       -0.027902476 0.08771693 0.04966897 0.0064775418
000040 b8 13 56 3d 43 46 23 3d ed 63 3e 3d 75 62 8e 3d
       0.0522649 0.03986193 0.046482015 0.06952373
000050 93 b1 46 3d 83 49 0e bc 20 e1 21 bc 6f b2 65 3d
       0.04850919 -0.008684519 -0.009880334 0.05607837
000060 10 f5 d4 3b db 9c 17 3d 63 72 9b bc f2 22 bc bc
       0.0064989403 0.037014823 -0.018975442 -0.022965882
000070 fd 37 10 3d 11 c5 5a 3d f4 6a ae bc 88 2e 27 3d
       0.035209645 0.053410593 -0.021291234 0.04081586

predAlpha/Mod_B0_L5/BiasAdd/ReadVariableOp f4 [14]
000000 8f c0 19 3d 28 77 8b 3c 57 d3 e5 bc ab 88 19 bd
       0.037537154 0.017024592 -0.028054876 -0.037483852
000010 71 b5 4a bd 77 3d a1 3c 3b c4 1a bd 23 32 bd bc
       -0.049489442 0.019682629 -0.037784796 -0.023095196
000020 26 ae 1d 3d e1 de 00 bd b5 ce 16 3b 78 89 55 bb
       0.03849616 -0.031462554 0.002301139 -0.0032583158
000030 ac ab 46 bc ce 97 3b bd
       -0.012125891 -0.04579907

predAlpha/Mod_B0_L1/BiasAdd/ReadVariableOp f4 [28]
000000 44 c6 5a bc 3d 2d 7b 3b 41 14 b8 bc b0 c6 cd bc
       -0.013352934 0.0038326525 -0.022470595 -0.025119156
000010 62 15 0b bc 30 88 22 bc 11 f6 b2 3c 4f 8f f1 3c
       -0.008488985 -0.009920165 0.02184585 0.02948728
000020 33 70 57 bc 4d aa 0b 3d 99 b3 d6 3b 31 4f ab 3c
       -0.013149309 0.03409796 0.0065521714 0.020911785
000030 f8 c8 ba bc 70 8e 05 bd 8d 2d 9e 3b c3 7c a3 bc
       -0.022800907 -0.032606542 0.0048272074 -0.019956952
000040 94 00 fb 3c a0 f6 f7 3c d6 61 32 ba fd ce fe bc
       0.030639924 0.030268967 -0.000680474 -0.03110456
000050 10 5a 3b 3c 3a 79 90 bc a8 41 3b bd 90 fa 17 3c
       0.011435047 -0.01763593 -0.04571691 0.009276047
000060 2b c1 3b 3d 76 22 0c bc 41 37 fd 3a 66 cb 2f 3c
       0.045838516 -0.008553138 0.0019318835 0.010729646

predAlpha/Mod_B0_L1/Tensordot/MatMul1 i1 [28, 57] scale=0.002802717 zero_point=0
000000 3b 0f d4 ff b5 ee e2 5d 42 1b 41 f2 dd 1d c0 eb
       0.1653603 0.042040754 -0.12331955 -0.002802717 -0.21020378 -0.050448906 -0.08408151 0.2606527 0.18497932 0.07567336 0.1821766 -0.03923804 -0.0980951 0.08127879 -0.17937389 -0.058857057
000010 26 18 c8 20 db 21 ac 4a 5f 22 a6 54 e4 3c a2 ec
       0.10650325 0.06726521 -0.15695216 0.089686945 -0.10370053 0.09248966 -0.23542823 0.20740107 0.26625812 0.09529238 -0.25224453 0.23542823 -0.07847608 0.16816302 -0.2634554 -0.05605434
000020 00 05 1c b1 e6 57 f7 cf d9 cc e5 e2 fb cc 18 25
       0.0 0.014013585 0.07847608 -0.22141464 -0.07287064 0.24383639 -0.025224453 -0.13733314 -0.10930596 -0.14574128 -0.07567336 -0.08408151 -0.014013585 -0.14574128 0.06726521 0.10370053
000030 2d b5 6c 3a 54 f9 29 58 3e 51 99 f0 0e b1 3f ba
       0.12612227 -0.21020378 0.30269343 0.16255759 0.23542823 -0.01961902 0.1149114 0.2466391 0.17376846 0.22702008 -0.28867987 -0.044843473 0.03923804 -0.22141464 0.17657118 -0.1961902
000040 d2 23 e2 f6 f0 20 bf 08 10 ea 26 04 31 f6 36 4a
       -0.12892498 0.0980951 -0.08408151 -0.02802717 -0.044843473 0.089686945 -0.1821766 0.022421736 0.044843473 -0.061659776 0.10650325 0.011210868 0.13733314 -0.02802717 0.15134671 0.20740107
000050 3a de 15 4a d0 f4 09 ce 15 0f d4 1e 40 1b d8 3a
       0.16255759 -0.09529238 0.058857057 0.20740107 -0.13453043 -0.033632606 0.025224453 -0.14013585 0.058857057 0.042040754 -0.12331955 0.08408151 0.17937389 0.07567336 -0.11210868 0.16255759
000060 f9 cd 19 e7 38 e4 0f fd a6 0d 9a a3 48 5c dc d3
       -0.01961902 -0.14293857 0.07006793 -0.07006793 0.15695216 -0.07847608 0.042040754 -0.008408152 -0.25224453 0.03643532 -0.28587714 -0.2606527 0.20179562 0.25784996 -0.10089781 -0.12612227
000070 04 61 19 13 34 13 57 61 71 d7 ac fa d3 ed c6 f4
       0.011210868 0.27186355 0.07006793 0.053251624 0.14574128 0.053251624 0.24383639 0.27186355 0.31670702 -0.1149114 -0.23542823 -0.016816303 -0.12612227 -0.053251624 -0.16255759 -0.033632606
000080 20 66 ff 70 f8 bd 26 33 9d 57 b0 69 2d 30 fb c8
       0.089686945 0.28587714 -0.002802717 0.31390432 -0.022421736 -0.18778203 0.10650325 0.14293857 -0.27746898 0.24383639 -0.22421736 0.2942853 0.12612227 0.13453043 -0.014013585 -0.15695216
000090 46 d7 cf 9d 00 ac 07 4a d9 eb f3 25 17 f7 74 dc
       0.1961902 -0.1149114 -0.13733314 -0.27746898 0.0 -0.23542823 0.01961902 0.20740107 -0.10930596 -0.058857057 -0.03643532 0.10370053 0.06446249 -0.025224453 0.32511517 -0.10089781
0000a0 3f 3c e1 b4 fd c1 33 95 cb c0 1d eb 0a 16 d9 f0
       0.17657118 0.16816302 -0.08688423 -0.2130065 -0.008408152 -0.17657118 0.14293857 -0.29989073 -0.148544 -0.17937389 0.08127879 -0.058857057 0.02802717 0.061659776 -0.10930596 -0.044843473
0000b0 5d c8 fe 31 1f 3a 12 0c 47 57 cc 96 c4 20 c8 d9
       0.2606527 -0.15695216 -0.005605434 0.13733314 0.08688423 0.16255759 0.050448906 0.033632606 0.19899291 0.24383639 -0.14574128 -0.297088 -0.16816302 0.089686945 -0.15695216 -0.10930596
0000c0 0f e7 ff 9a 84 b4 45 ff f4 f9 1c e3 23 ec a6 a8
       0.042040754 -0.07006793 -0.002802717 -0.28587714 -0.34753692 -0.2130065 0.19338748 -0.002802717 -0.033632606 -0.01961902 0.07847608 -0.08127879 0.0980951 -0.05605434 -0.25224453 -0.2466391
0000d0 41 c4 c4 4e d5 10 db 44 3e 0f 21 42 cf 4a f2 19
       0.1821766 -0.16816302 -0.16816302 0.21861193 -0.12051683 0.044843473 -0.10370053 0.19058476 0.17376846 0.042040754 0.09248966 0.18497932 -0.13733314 0.20740107 -0.03923804 0.07006793
0000e0 c8 09 1b e1 b5 35 06 eb 2a f7 12 93 dd 46 98 c9
       -0.15695216 0.025224453 0.07567336 -0.08688423 -0.21020378 0.148544 0.016816303 -0.058857057 0.117714114 -0.025224453 0.050448906 -0.30549616 -0.0980951 0.1961902 -0.29148257 -0.15414944
0000f0 15 e5 35 11 e1 08 2b 16 3a 03 19 c1 2f cc d7 0f
       0.058857057 -0.07567336 0.148544 0.04764619 -0.08688423 0.022421736 0.12051683 0.061659776 0.16255759 0.008408152 0.07006793 -0.17657118 0.1317277 -0.14574128 -0.1149114 0.042040754
