indian-sign-language-learning-app-win32-x64/resources/app/Models/Alphabets/R.tflite (tflite, 15504 bytes, 11 tensors)

predAlpha/Mod_B3_Lo/MatMul f4 [1, 32]
0	0xbdfe2e69	-0.12411196
1	0xbe6a6093	-0.22888403
2	0x3de1528f	0.11002075
3	0xbe523202	-0.20526889
4	0x3e7e1a47	0.24814712
5	0xbedd28c9	-0.4319518
6	0xbeaf3c1d	-0.3422555
7	0xbea41d8f	-0.320538
8	0x3e897c1d	0.26852503
9	0x3e481a3d	0.19541259
10	0xbe865480	-0.26236343
11	0x3ea77243	0.32704362
12	0x3e027457	0.12739693
13	0xbe39e69e	-0.1815438
14	0x3ebfe0f9	0.37476328
15	0x3e3ee416	0.18641695
16	0xbe84ac9d	-0.25912943
17	0x3e56c21c	0.20972484
18	0xbefa8f4f	-0.4893746
19	0xbda9bebb	-0.08288332
20	0x3e746d82	0.23869899
21	0xbefb8ca0	-0.49130726
22	0xbedac386	-0.42727298
23	0x3d978888	0.07399088
24	0xbe7875cd	-0.24263687
25	0xbdafd1c0	-0.085849285
26	0xbdb8bca0	-0.09020352
27	0x3e1c6b30	0.15275264
28	0xbe240c67	-0.16020356
29	0x3db91eec	0.09039101
30	0x3ea5087d	0.3223304
31	0x3e94fe5d	0.29100314

predAlpha/Mod_B1_L0/MatMul f4 [32, 28]
0	0xbe01bf68	-0.12670672
1	0x3ee89af5	0.45430723
2	0x3d6c6951	0.057717625
3	0xbde527df	-0.111892454
4	0x3d3745ba	0.04474423
5	0x3eda636c	0.42653978
6	0x3df6890b	0.120378576
7	0x3e91ab3c	0.28450954
8	0xbdbc5ec0	-0.0919776
9	0x3e020f20	0.12701082
10	0x3e581614	0.21102172
11	0xbddb46e0	-0.10706878
12	0xbd9a7878	-0.07542509
13	0xbbb342bd	-0.0054706023
14	0x3cf7c53c	0.030245416
15	0x3e86433e	0.26223177
16	0xbe005caf	-0.12535356
17	0xbe82436c	-0.25442064
18	0xbdb7f86f	-0.08982932
19	0x3e3dfcdd	0.18553491
20	0xbeca28ae	-0.3948416
21	0x3c0340e4	0.008011077
22	0x3e0096ec	0.12557572
23	0x3e429ce7	0.19005166
24	0xbe1e1de2	-0.15441087
25	0xbec960b8	-0.39331603
26	0xbe355f98	-0.17712247
27	0xbe6e5d14	-0.23277694
28	0xbe5696e9	-0.20956005
29	0xbefdcc20	-0.49569798
30	0xbe9a0b6b	-0.30086836
31	0x3e1952ff	0.14973067
32	0xbe2e66eb	-0.17031448
33	0xbda1b4ac	-0.078957886
34	0xbd7d2960	-0.061807036
35	0xbdc23a70	-0.09483802
36	0x3ca18da6	0.019720864
37	0xbeebe9b0	-0.46076727
38	0xbe3e986d	-0.18612833
39	0x3e26202c	0.1622321
40	0x3e6af3b9	0.22944535
41	0x3e89e635	0.26933447
42	0xbe4f2ba6	-0.20231494
43	0xbf090442	-0.5352212
44	0xbd2c2aae	-0.04203289
45	0x3dc00332	0.093756095
46	0x3d9c9966	0.07646446
47	0xbe2bfb84	-0.16795164
48	0x3ec8e261	0.39235213
49	0x3e95ee91	0.29283574
50	0x3ebe23f7	0.37136814
51	0x3e3dec53	0.18547182
52	0x3ec41040	0.38293648
53	0x3e901350	0.28139734
54	0x3d86e275	0.06586162
55	0xbe109445	-0.1411906
56	0xbd17efa8	-0.03709379
57	0x3e68d32d	0.22736807
58	0xbe490eec	-0.19634598
59	0x3ea57b6a	0.3232072
60	0x3db3fc31	0.08788336
61	0xbe0ea51c	-0.13930172
62	0x3d0f2fad	0.034957577
63	0xbdf51504	-0.11966899
64	0xbd94d02b	-0.072662674
65	0x3d8c5c6e	0.06853567
66	0x3eccb4cf	0.39981696
67	0xbe7823de	-0.24232432
68	0xbe8adfa4	-0.2712375
69	0xbeffcbcc	-0.49960172
70	0xbdd81d2f	-0.10552441
71	0xbe4da672	-0.20083025
72	0xbec23a39	-0.37935045
73	0x3ccdacc7	0.0251068
74	0x3ebc9490	0.36832094
75	0x3cd464fe	0.025927063
76	0x3e7cb23a	0.24677363
77	0x3cb1a0fe	0.021683212
78	0xbd8326a6	-0.06403856
79	0xbd1fd1a5	-0.039018292
80	0xbe147746	-0.14498624
81	0xbe2bd06e	-0.16778728
82	0xbdd6b0de	-0.104829535
83	0x3b5aa96f	0.003336515
84	0xbe9826dd	-0.2971715
85	0x3d35d4dc	0.04439245
86	0x3d6ee6ca	0.058325566
87	0xbe698294	-0.22803718
88	0xbeb2de75	-0.34935346
89	0xbe85abb7	-0.2610757
90	0xbe14288e	-0.14468595
91	0x3e2d5919	0.1692852
92	0x3e9aff4e	0.30272907
93	0xbe9ec5cd	-0.31010285
94	0xbe8a12ce	-0.26967472
95	0xbe79479f	-0.24343728
96	0xbbee2f04	-0.0072687883
97	0x3d3eed76	0.04661318
98	0xbc73a20b	-0.014870177
99	0x3dbc2d88	0.09188372
100	0xbe0781c9	-0.13233103
101	0xbe8d22c5	-0.2756559
102	0xbe338a00	-0.17533112
103	0x3d05f546	0.032704614
104	0x3e395832	0.1810005
105	0x3e33c022	0.17553762
106	0xbe8ca5c6	-0.27470225
107	0xbe1fa3bf	-0.15589808
108	0xbda49aae	-0.08037315
109	0x3eeb9b40	0.46016884
110	0xbda53145	-0.08066038
111	0xbe87b17a	-0.2650259
112	0x3e286d49	0.16447939
113	0xbdac763c	-0.08420989
114	0xbe2fe058	-0.17175424
115	0xbe02f631	-0.12789227
116	0x3e3a6ca8	0.18205512
117	0x3e9ff9b8	0.31245208
118	0x3eaae4c8	0.3337767
119	0x3dbde7a3	0.09272697
120	0xbe5038bf	-0.20334147
121	0xbe7aa6df	-0.24477719
122	0x3bb11685	0.005404296
123	0xbdea6b08	-0.11446196
124	0xbe4bed34	-0.19914705
125	0xbe2ec8b2	-0.17068747
126	0xbe5b12cd	-0.2139389
127	0x3dff5db4	0.12469044
128	0xbe8bc870	-0.2730136
129	0x3d10da22	0.035364278
130	0xbd8bb8a4	-0.06822327
131	0x3decf7b1	0.11570681
132	0xbdc741c3	-0.0972934
133	0xbde8acb9	-0.11361069
134	0x3d9c22d8	0.076238334
135	0x3e280d74	0.16411382
136	0xbe6bded1	-0.23034216
137	0xbd3e1a80	-0.04641199
138	0x3e0373ec	0.1283719
139	0x3b25351e	0.0025208662
140	0xbdee7401	-0.1164322
141	0xbe85794f	-0.26069114
142	0xbdb62996	-0.08894651
143	0xbdeca232	-0.11554374
144	0x3b4a3ee8	0.003086025
145	0xbcd9b751	-0.02657667
146	0xbe553ecb	-0.20824735
147	0xbda10e4d	-0.07864056
148	0x3edbb2e1	0.4290991
149	0xbef7b56a	-0.48380595
150	0xbef2e1d7	-0.47437927
151	0xbe8c5638	-0.2740953
152	0xbdfc9e5f	-0.123348944
153	0x3e260b8e	0.16215345
154	0xbd2fbc99	-0.04290447
155	0xbee01096	-0.43762654
156	0xbe1b5403	-0.15168767
157	0x3e01dc15	0.12681611
158	0xbda6a0bf	-0.08136129
159	0xbc5ceb72	-0.013483869
160	0x3edbaf4e	0.42907184
161	0x3ed079d8	0.4071796
162	0x3d83a4b7	0.06427901
163	0x3e4e32a6	0.20136508
164	0xbe52ec28	-0.20597899
165	0x3e758062	0.23974755
166	0x3e4d549f	0.20051812
167	0x3ec2b4fa	0.380287
168	0xbeabbfac	-0.33544672
169	0xbdfa3184	-0.122164756
170	0xbdb98c28	-0.09059936
171	0x3dd39102	0.103303924
172	0xbe329ffc	-0.17443842
173	0xbde375ac	-0.111064285
174	0xbed746bf	-0.42046162
175	0xbea2fe89	-0.3183482
176	0x3cac4f7f	0.021034
177	0x3cc1df8c	0.023666166
178	0xbe73222a	-0.23743501
179	0xbe715ae8	-0.23569834
180	0x3e1ee801	0.1551819
181	0x3d8ec621	0.06971384
182	0x3ef30a01	0.4746857
183	0x3e516645	0.20449169
184	0x3e200783	0.15627865
185	0xbd851012	-0.06497206
186	0x3c42b27c	0.011883374
187	0x3d679ba1	0.056544904
188	0x3d712c91	0.058880392
189	0x3e52d1f7	0.20587908
190	0x3c66daf5	0.014090289
191	0x3dd3dd57	0.103449516
192	0x3e87f359	0.26552847
193	0x3e9f687a	0.31134397
194	0xbe3f1900	-0.1866188
195	0x3e4bde02	0.19908908
196	0xbea3fad6	-0.3202731
197	0x3cd699db	0.02619641
198	0x3e819fff	0.2531738
199	0xbe42d705	-0.19027336
200	0xbe4adc35	-0.19810565
201	0xbe99d155	-0.3004252
202	0x3e29e757	0.16592155
203	0x3ebfad17	0.37436745
204	0x3ee76272	0.45192295
205	0xbe21fcf1	-0.15819146
206	0xbe38b9af	-0.18039583
207	0xbf012738	-0.5045047
208	0x3d046526	0.032323025
209	0x3cb8ee15	0.022574464
210	0x3e5c2c6d	0.21501322
211	0x3d6c7887	0.05773213
212	0x3de4810c	0.11157426
213	0xbd8265a7	-0.06367045
214	0xbe326626	-0.17421779
215	0x3dabcebc	0.08389041
216	0x3d2df2ab	0.042467754
217	0x3e50f266	0.20404968
218	0xbd8a7dfa	-0.06762309
219	0xbede356c	-0.43400133
220	0xbe8cf4f4	-0.27530634
221	0x3eab1ab8	0.33418822
222	0xbdbe700b	-0.09298714
223	0x3c930953	0.017948782
224	0xbdef18b4	-0.116746336
225	0x3cfd23d0	0.030900866
226	0x3e16c10a	0.14722076
227	0x3ee78dc1	0.45225337
228	0x3c807c1b	0.015684178
229	0xb860c456	-5.3588614e-05
230	0xbdfb091a	-0.12257595
231	0xbdb0ed79	-0.08639044
232	0x3daafe8e	0.08349334
233	0x3e7417bc	0.23837179
234	0x3ca97881	0.020687344
235	0xbdf79ddc	-0.12090656
236	0x3d4e01ef	0.050294813
237	0xbe27847b	-0.16359131
238	0xbe9b1860	-0.30292034
239	0xbcdcb130	-0.026939958
240	0x3d256d4d	0.04038744
241	0xbdb05b33	-0.08611145
242	0x3ebd9025	0.37024036
243	0xbe8834d0	-0.26602793
244	0x3be82097	0.007083963
245	0xbb0e0bb3	-0.0021674454
246	0xbe3b84c6	-0.18312368
247	0x3e9e3dfc	0.30906665
248	0x3c893003	0.016746527
249	0xbd8891e9	-0.06668455
250	0xbec4ec78	-0.3846166
251	0xbe8b87ff	-0.27252194
252	0x3e3011ba	0.17194262
253	0xbd139671	-0.036032144
254	0x3c2f8372	0.010712491
255	0xbddcb3e4	-0.10776499

predAlpha/Mod_B0_L5/Tensordot/MatMul f4 [14, 28]
0	0x3d481faf	0.04885834
1	0xbd10e8ed	-0.035378385
2	0xbef40c79	-0.47665766
3	0x3e84f893	0.25970897
4	0xbe77a630	-0.24184489
5	0xbcb8eaeb	-0.022572955
6	0x3d00e188	0.031465083
7	0xbe57135a	-0.21003476
8	0xbea09227	-0.31361505
9	0x3e328de9	0.17436947
10	0x3d99847f	0.07495975
11	0x3d896745	0.0670915
12	0x3ee9b970	0.4564929
13	0x3dd406d6	0.10352866
14	0x3e8a717a	0.270397
15	0x3dd1c307	0.10242277
16	0xbe574794	-0.21023399
17	0xbe7a0d2b	-0.24419086
18	0xbc2abf2a	-0.010421554
19	0x3e482fc5	0.19549473
20	0x3e0b51a1	0.13605358
21	0x3d540598	0.051763147
22	0xbd5428b5	-0.051796634
23	0x3dca1bac	0.09868559
24	0xbd98ddb4	-0.074641615
25	0xbd1a5bd5	-0.037685234
26	0xbdb8c4e4	-0.09021929
27	0x3d26a49e	0.040684335
28	0x3e2ddceb	0.16978805
29	0x3d49008f	0.0490728
30	0x3d883410	0.06650555
31	0xbe3a3f1c	-0.18188137
32	0x3e8570f1	0.2606273
33	0xbe170d79	-0.14751233
34	0xbe701418	-0.23445165
35	0x3e08893c	0.13333601
36	0x3c194e1f	0.009357004
37	0xbe6b125b	-0.22956221
38	0x3eada9ed	0.33918706
39	0x3e19179f	0.14950417
40	0x3eaf0735	0.34185186
41	0xbdbf693e	-0.09346245
42	0xbdbdda24	-0.09270123
43	0xbdcd3ae8	-0.10021001
44	0xba32a62c	-0.00068149227
45	0x3e282619	0.16420783
46	0xbc99eea8	-0.018790558
47	0xbe697a8c	-0.22800654
48	0xbe82c6f1	-0.25542405
49	0xbe86755e	-0.2626142
50	0x3c06f450	0.00823696
51	0x3cb88dcb	0.02252855
52	0x3e05933b	0.13044445
53	0x3e308416	0.17237887
54	0x3e9aa8a0	0.30206776
55	0x3e0a3b57	0.13499199
56	0xbdfe643d	-0.12421463
57	0xbdceef38	-0.10104221
58	0x3cd5444f	0.026033549
59	0x3d90fa0b	0.07078942
60	0xbd31adb9	-0.043378565
61	0xbc64a0a1	-0.013954313
62	0x3ea1812d	0.31543866
63	0xbddd8542	-0.108164325
64	0xbe013432	-0.12617567
65	0x3e14bad7	0.14524399
66	0x3e5a1a59	0.21299113
67	0x3e1a02c4	0.15040118
68	0xbcf29f76	-0.029617053
69	0xbc57843b	-0.013154085
70	0x3dfda925	0.123857774
71	0x3d5a6335	0.053317267
72	0x387d0fac	6.0334496e-05
73	0xbea0f402	-0.31436163
74	0x3de8abd0	0.11360896
75	0x3deada39	0.11467404
76	0xbe80659f	-0.2507753
77	0x3d952217	0.07281893
78	0x3d99da86	0.07512383
79	0xbdf5d31a	-0.12003155
80	0xbc252cbf	-0.010081469
81	0xbdee23b2	-0.11627902
82	0xbe52d750	-0.20589948
83	0x3d1403c6	0.03613641
84	0x3e598feb	0.21246307
85	0xbeada7b5	-0.33917013
86	0x3e94504a	0.28967506
87	0xbe332096	-0.174929
88	0xbe2d299f	-0.16910408
89	0x3eab2c94	0.33432448
90	0xbe85504e	-0.2603783
91	0xbd0e7667	-0.034780886
92	0xbe1deead	-0.15423079
93	0xbe8350ab	-0.25647482
94	0xbede09ad	-0.43366757
95	0x3e9ded50	0.30845118
96	0xbe31e17a	-0.17371169
97	0x3cf3c131	0.029755207
98	0x3ea68c5a	0.32528955
99	0xbedfa03b	-0.43676934
100	0xbe28be2a	-0.16478792
101	0x3e0daed6	0.13836226
102	0x3e77927d	0.24176975
103	0xbee0da90	-0.4391675
104	0xbe8b2fb9	-0.27184847
105	0x3c97fedb	0.018554142
106	0xbdada694	-0.08479038
107	0xbedfb99d	-0.436963
108	0x3e063457	0.13105904
109	0xbe812bdd	-0.25228778
110	0xbd770b2a	-0.06031338
111	0x3e4420b4	0.191531
112	0x3e341449	0.17585863
113	0xbd6ec545	-0.0582936
114	0x3e71a234	0.23597032
115	0xbe982773	-0.29717597
116	0xbea8f73b	-0.33001122
117	0xbd879076	-0.066193506
118	0x3e5f7fdf	0.21826123
119	0xbc932830	-0.017963499
120	0x3d0eb40b	0.03483967
121	0xbeccfea0	-0.40038013
122	0xbe98efc0	-0.29870415
123	0x3e1010e8	0.14068949
124	0xbc9de4b6	-0.019274097
125	0xbe28d435	-0.164872
126	0x3e1a0665	0.15041502
127	0xbd8ac9af	-0.06776749
128	0x3db88ff3	0.09011831
129	0x3e9d026a	0.30665904
130	0xbe66d0e9	-0.2254063
131	0x3e016cf8	0.12639225
132	0x3ebf5e25	0.37376514
133	0x3d437b0e	0.047724776
134	0x3eac4332	0.33645016
135	0x3e0bfb6f	0.13670133
136	0x3d8104ca	0.062997416
137	0xbe74f5d9	-0.23921908
138	0xbe8a80b3	-0.27051315
139	0xbeb742b2	-0.35793072
140	0xbda8f532	-0.08249892
141	0xbe65eb97	-0.22453152
142	0xbeb316b8	-0.3497827
143	0xbc180817	-0.0092792725
144	0x3d3a3de2	0.045469172
145	0xbdd5ed6f	-0.104456775
146	0xbc17cff1	-0.009265886
147	0xbe98a6ef	-0.2981486
148	0x3e31b8c3	0.17355637
149	0xbebf629c	-0.3737992
150	0x3eb97299	0.36220244
151	0xbba90944	-0.0051585753
152	0x3e8b889c	0.27252662
153	0xbdab1d4c	-0.08355197
154	0xbe1208fd	-0.14261241
155	0x3e4ef6dd	0.20211358
156	0x3842e5d7	4.646726e-05
157	0xbe6e7119	-0.23285331
158	0x3dd4d234	0.103916556
159	0xbe0d16d8	-0.13778245
160	0xbecd0913	-0.40045986
161	0x3e33d4b6	0.17561612
162	0x3e0c54e4	0.13704258
163	0x3eb74341	0.35793498
164	0xbed217f4	-0.410339
165	0x3d10853d	0.035283316
166	0xbc47f9ad	-0.012205523
167	0x3d11c7e2	0.035591014
168	0xbe15ff88	-0.14648259
169	0x3d9cf099	0.07663078
170	0xbd285ed1	-0.04110605
171	0x3dbcc897	0.09217947
172	0xbea9651b	-0.3308495
173	0xbedd3a30	-0.43208456
174	0xbd7dff91	-0.062011305
175	0x3e4f0e1b	0.20220225
176	0x3e17106f	0.14752363
177	0xbdc7e06f	-0.09759604
178	0x3e98163c	0.29704463
179	0x3e2f82c7	0.17139731
180	0xbe9c7916	-0.3056113
181	0x3ee65a19	0.44990614
182	0xbd37e84a	-0.044899262
183	0x3e9215c9	0.28532246
184	0x3e158715	0.14602311
185	0x3e5433e2	0.20722917
186	0xbdd0d45e	-0.10196756
187	0x3e99c30b	0.30031618
188	0xbe065591	-0.13118578
189	0xbf0613d4	-0.52374005
190	0x3e0941e9	0.13404049
191	0x3de84479	0.11341185
192	0xbea8fb87	-0.330044
193	0xbe6df37c	-0.23237413
194	0x3d510d06	0.05103781
195	0xbd3d0492	-0.046146937
196	0xbe04d034	-0.12970048
197	0x3cdf41ce	0.027253058
198	0x3e8010db	0.2501286
199	0x3d5254f4	0.05135055
200	0x3ed5f485	0.41788116
201	0x3dc7353d	0.09726951
202	0xbe20200c	-0.15637225
203	0xbd07138a	-0.03297762
204	0xbe2c9fda	-0.16857854
205	0x3e0769b5	0.13223918
206	0x3db0cafc	0.08632466
207	0xbe99a1a8	-0.30006146
208	0xbe97d025	-0.2965099
209	0xbe95caa5	-0.29256168
210	0xbeca7e89	-0.39549664
211	0x3e250fac	0.1611926
212	0xbb19b435	-0.002345336
213	0xbe2ca5a8	-0.16860068
214	0x3d2e6511	0.042576853
215	0xbea002f7	-0.31252262
216	0x3e73e863	0.23819117
217	0xbe16e1f6	-0.14734635
218	0xbd7171e2	-0.058946498
219	0xbe16041d	-0.14650007
220	0x3ea5f018	0.3240974
221	0x3ebda40f	0.3703923
222	0x3e9d766c	0.3075441
223	0xbe5e0740	-0.21682453
224	0xbe6bb536	-0.23018345
225	0x3ea3a990	0.31965303
226	0xbe818d95	-0.2530333
227	0x3eaabfbe	0.33349413
228	0x3cf61110	0.030037433
229	0xbd4d8e1c	-0.050184354
230	0xbe91c74a	-0.28472358
231	0x3e7a6bb4	0.24455148
232	0xbde76c9e	-0.11300014
233	0xbeb92eab	-0.36168417
234	0xbca9b0e1	-0.020714225
235	0x3def028c	0.11670408
236	0x3e5b813e	0.2143602
237	0xbe64227e	-0.22278783
238	0xbdfc4a16	-0.12318818
239	0x3edbcd65	0.4293014
240	0x3e3bb396	0.18330225
241	0xbe938c02	-0.28817755
242	0x3ce48ee1	0.027900161
243	0x3dfcae01	0.12337876
244	0x3db05a82	0.08611013
245	0xbe4a9a21	-0.19785358
246	0xbe457fce	-0.19287035
247	0xbe2ef745	-0.17086513
248	0xbe2b1538	-0.16707313
249	0x3e86c2bd	0.2632045
250	0xbed15434	-0.40884554
251	0x3ebd8bbb	0.37020668
252	0xbe2dce48	-0.16973221
253	0xbeb17ad3	-0.3466402
254	0xbea79a1f	-0.32734773
255	0x3e87467e	0.2642097

predAlpha/Mod_B0_L7/batchnorm/sub f4 [14]
0	0xbe6fbc7c	-0.23411745
1	0xbf2a897f	-0.6661605
2	0xbe968102	-0.293953
3	0xbf1de25a	-0.6167351
4	0xbf48a887	-0.7838215
5	0xbf3bf254	-0.7341664
6	0xbfa57b9e	-1.292835
7	0xbee12e0e	-0.4398045
8	0xbecb49ea	-0.3970483
9	0xbeb9312d	-0.3617033
10	0xbec8d450	-0.39224482
11	0xbf32d0d1	-0.6984988
12	0xbf29c06d	-0.66309243
13	0xbf229dd7	-0.63522094

predAlpha/Mod_B0_L7/batchnorm/mul f4 [14]
0	0x40855505	4.1666284
1	0x3fbee6be	1.4914167
2	0x4003b8d6	2.0581565
3	0x40503f6b	3.2538707
4	0x405b2036	3.423841
5	0x3ffdf025	1.9838911
6	0x3fc96ef2	1.5736983
7	0x40651e97	3.579992
8	0x403d5563	2.9583366
9	0x405450b9	3.317427
10	0x408e5676	4.4480543
11	0x40113338	2.2687511
12	0x3ff89bf1	1.942259
13	0x406523bc	3.580306

predAlpha/Mod_B0_L3/batchnorm/sub f4 [28]
0	0xbf078c98	-0.52948904
1	0xbfcefe8f	-1.6171435
2	0xbdaa19de	-0.08305715
3	0xbe355a5f	-0.17710255
4	0xbf0974ca	-0.5369383
5	0xbf794c4e	-0.97382057
6	0x3b366fc0	0.0027837604
7	0xbf5119b6	-0.81679857
8	0xbf071292	-0.5276271
9	0xbec7d545	-0.390299
10	0xbefdffba	-0.49609166
11	0xbf574c65	-0.84100944
12	0xbf250618	-0.64462423
13	0xbf3cca07	-0.7374577
14	0xbe35abb6	-0.17741284
15	0xbf22ba2d	-0.6356533
16	0x3ca369d6	0.019947927
17	0xbf89032b	-1.0704092
18	0xbf28f6b8	-0.6600146
19	0x3da171b0	0.07883012
20	0xbc0a62a5	-0.00844637
21	0xbeeaaf67	-0.45836946
22	0xbf8f5786	-1.1198585
23	0xbdda5c2e	-0.10662113
24	0xbf0bc83f	-0.54602426
25	0xbe2c4eae	-0.16826889
26	0x3d4181d1	0.047242943
27	0xbfad4a2a	-1.3538258

predAlpha/Mod_B0_L3/batchnorm/mul f4 [28]
0	0x3f1dc76f	0.61632437
1	0x40567765	3.3510373
2	0x401b1598	2.423193
3	0x3fde5e2a	1.7372487
4	0x3fe09d07	1.7547921
5	0x4009a660	2.1507797
6	0x4066f8a4	3.6089258
7	0x40200499	2.5002806
8	0x3f8fb0fc	1.1225886
9	0x3fd198f5	1.6374804
10	0x4020a3c1	2.5099947
11	0x3f917342	1.1363299
12	0x3ee2581c	0.44207847
13	0x404bcef1	3.1845057
14	0x3fc8c758	1.5685835
15	0x406b8716	3.68012
16	0x40814460	4.0395966
17	0x40124e0d	2.2860138
18	0x3efca7dd	0.4934682
19	0x407d8201	3.9610598
20	0x407f39ff	3.9879148
21	0x3fe07317	1.7535123
22	0x3fc31beb	1.5242895
23	0x3fca8811	1.5822774
24	0x3f93e0a2	1.1552927
25	0x40745de0	3.8182297
26	0x40799ece	3.9003177
27	0x401bae5b	2.4325168

predAlpha/Mod_B1_L0/BiasAdd/ReadVariableOp f4 [32]
0	0x3db42991	0.08796991
1	0x3df9e06d	0.12201009
2	0xbcb16ac0	-0.021657348
3	0x3e0bbc68	0.1364609
4	0xbd517d06	-0.051144622
5	0x3e087b67	0.13328324
6	0x3dff2fa5	0.12460259
7	0x3e0dc06b	0.13842933
8	0x3c32520a	0.010883817
9	0xbd8c44e8	-0.0684908
10	0x3df548cc	0.119767755
11	0x3c4894ff	0.012242555
12	0xbda5a61b	-0.08088323
13	0x3dee8d8f	0.11648094
14	0xbd5a5446	-0.053303026
15	0xbc549482	-0.01297486
16	0x3d9fa9d9	0.07796068
17	0x3ae1db26	0.0017231449
18	0x3db5d803	0.088790916
19	0x3db751dd	0.08951161
20	0x3ca07ccd	0.01959076
21	0x3dc7f8d0	0.09764254
22	0x3db23b29	0.0870269
23	0xbd54a80a	-0.051918067
24	0x3e188c78	0.14897335
25	0x3e08afc6	0.13348302
26	0x3dc1fe36	0.09472315
27	0xbc048f5a	-0.008090818
28	0x3e0d6044	0.13806254
29	0xbd147721	-0.036246423
30	0xbcdc4297	-0.026887221
31	0x3c911075	0.017708043

predAlpha/Mod_B0_L5/BiasAdd/ReadVariableOp f4 [14]
0	0xbd8e3d32	-0.06945266
1	0xbd94982f	-0.07255589
2	0xbc21bb32	-0.009871291
3	0xbe19c2ce	-0.15015718
4	0xbd686567	-0.05673733
5	0xbc9ed7df	-0.019390045
6	0x3d2d1e1d	0.042265046
7	0xbc93ca7f	-0.018040894
8	0xbcbd87e9	-0.023136096
9	0xbdc75f18	-0.097349346
10	0xbd14d13e	-0.03633236
11	0x3d888322	0.066656366
12	0xbb572d5d	-0.0032833435
13	0xbcdda554	-0.027056374

predAlpha/Mod_B0_L1/BiasAdd/ReadVariableOp f4 [28]
0	0xbd8a2d4b	-0.0674692
1	0x3c7dcf88	0.015491374
2	0x3bd86f91	0.0066050966
3	0x3c2d5ae3	0.010580751
4	0x3cf60c8f	0.030035285
5	0x3d29bec9	0.041441713
6	0x3c71e788	0.014764674
7	0x3c82163a	0.01587974
8	0x3bba6c97	0.0056892144
9	0xbc5e854c	-0.013581585
10	0x39c91d3a	0.00038359483
11	0x3d13b9bb	0.0360658
12	0x3d893328	0.066992104
13	0xbd283718	-0.041068166
14	0xbb070620	-0.0020603016
15	0xbd56abcf	-0.052409943
16	0xbc315226	-0.010822808
17	0xbca0119a	-0.019539643
18	0xbab394e1	-0.0013700986
19	0xbc28aaa6	-0.010294592
20	0xbc1d589d	-0.009603647
21	0xbd4e6abb	-0.050394755
22	0xbbea17b1	-0.0071439375
23	0xbc2ebe7b	-0.010665531
24	0x3b851a74	0.0040619913
25	0xbc57f4e7	-0.013180948
26	0xbd0e1a2c	-0.03469293
27	0x3c916dec	0.01775261

predAlpha/Mod_B0_L1/Tensordot/MatMul1 i1 [28, 57] scale=0.0029208476 zero_point=0
0	0x18	0.070100345
1	0x0b	0.032129325
2	0x48	0.21030103
3	0x4e	0.22782612
4	0x05	0.014604238
5	0x00	0.0
6	0x2e	0.13435899
7	0xea	-0.06425865
8	0x42	0.19277595
9	0x23	0.10222967
10	0xcd	-0.14896323
11	0x01	0.0029208476
12	0xe7	-0.07302119
13	0xf6	-0.029208476
14	0xef	-0.04965441
15	0xce	-0.14604238
16	0x53	0.24243036
17	0xff	-0.0029208476
18	0xad	-0.24243036
19	0x10	0.046733562
20	0x13	0.055496104
21	0x1f	0.09054627
22	0xdc	-0.10515051
23	0xe5	-0.07886288
24	0xf0	-0.046733562
25	0xf9	-0.020445934
26	0xf3	-0.03797102
27	0xbb	-0.20153849
28	0xe2	-0.08762543
29	0xec	-0.05841695
30	0xe7	-0.07302119
31	0x06	0.017525086
32	0xe1	-0.09054627
33	0x02	0.0058416952
34	0x52	0.23950951
35	0x38	0.16356747
36	0xdc	-0.10515051
37	0xda	-0.11099221
38	0xe7	-0.07302119
39	0xeb	-0.0613378
40	0x04	0.0116833905
41	0xfe	-0.0058416952
42	0x32	0.14604238
43	0xde	-0.09930882
44	0x46	0.20445934
45	0xe3	-0.08470458
46	0xc6	-0.16940916
47	0x1a	0.07594204
48	0x1f	0.09054627
49	0x0d	0.03797102
50	0xef	-0.04965441
51	0x16	0.06425865
52	0x25	0.108071364
53	0xe6	-0.07594204
54	0xfd	-0.008762543
55	0x01	0.0029208476
56	0x33	0.14896323
57	0x47	0.20738018
58	0x1f	0.09054627
59	0xe0	-0.093467124
60	0x10	0.046733562
61	0x25	0.108071364
62	0x91	-0.32421407
63	0x0e	0.040891867
64	0x21	0.096387975
65	0x2b	0.12559645
66	0xb2	-0.22782612
67	0x50	0.2336678
68	0xd4	-0.1285173
69	0x19	0.07302119
70	0x10	0.046733562
71	0xe2	-0.08762543
72	0x5c	0.26871797
73	0xca	-0.15772577
74	0x01	0.0029208476
75	0xe4	-0.081783734
76	0xb8	-0.21030103
77	0xd1	-0.13727984
78	0x65	0.29500562
79	0xd1	-0.13727984
80	0x8b	-0.34173918
81	0xa3	-0.27163884
82	0x06	0.017525086
83	0x42	0.19277595
84	0x45	0.20153849
85	0xe5	-0.07886288
86	0x31	0.14312154
87	0x36	0.15772577
88	0xac	-0.2453512
89	0x35	0.15480493
90	0xd1	-0.13727984
91	0x05	0.014604238
92	0x16	0.06425865
93	0xf9	-0.020445934
94	0xca	-0.15772577
95	0xca	-0.15772577
96	0x31	0.14312154
97	0x18	0.070100345
98	0x20	0.093467124
99	0x41	0.1898551
100	0x0d	0.03797102
101	0x19	0.07302119
102	0xfb	-0.014604238
103	0x44	0.19861764
104	0x36	0.15772577
105	0xf0	-0.046733562
106	0x39	0.16648832
107	0x04	0.0116833905
108	0x08	0.023366781
109	0x12	0.052575257
110	0x5c	0.26871797
111	0xee	-0.052575257
112	0xee	-0.052575257
113	0xfe	-0.0058416952
114	0x0b	0.032129325
115	0xf6	-0.029208476
116	0xe9	-0.06717949
117	0xb0	-0.2336678
118	0xe0	-0.093467124
119	0xff	-0.0029208476
120	0xda	-0.11099221
121	0xe9	-0.06717949
122	0xf5	-0.032129325
123	0xff	-0.0029208476
124	0xde	-0.09930882
125	0x05	0.014604238
126	0xd7	-0.119754754
127	0x02	0.0058416952
128	0x18	0.070100345
129	0xdb	-0.108071364
130	0x0b	0.032129325
131	0xff	-0.0029208476
132	0xfa	-0.017525086
133	0x02	0.0058416952
134	0xe4	-0.081783734
135	0xff	-0.0029208476
136	0x19	0.07302119
137	0xcd	-0.14896323
138	0x26	0.11099221
139	0x09	0.026287628
140	0x00	0.0
141	0x16	0.06425865
142	0x28	0.1168339
143	0x1f	0.09054627
144	0xe6	-0.07594204
145	0xff	-0.0029208476
146	0x4a	0.21614273
147	0xd2	-0.13435899
148	0xf9	-0.020445934
149	0x06	0.017525086
150	0x17	0.06717949
151	0xd5	-0.12559645
152	0xf7	-0.026287628
153	0x1a	0.07594204
154	0xe6	-0.07594204
155	0x00	0.0
156	0xf1	-0.043812715
157	0x17	0.06717949
158	0x06	0.017525086
159	0x05	0.014604238
160	0xed	-0.055496104
161	0xe4	-0.081783734
162	0x27	0.11391306
163	0xd6	-0.1226756
164	0xdd	-0.10222967
165	0xef	-0.04965441
166	0x00	0.0
167	0xd7	-0.119754754
168	0x0e	0.040891867
169	0x3e	0.18109255
170	0x32	0.14604238
171	0xb6	-0.21614273
172	0x38	0.16356747
173	0x1e	0.08762543
174	0xaa	-0.2511929
175	0x2e	0.13435899
176	0x4a	0.21614273
177	0xba	-0.20445934
178	0x9f	-0.28332222
179	0x21	0.096387975
180	0xe0	-0.093467124
181	0xfe	-0.0058416952
182	0xe2	-0.08762543
183	0x42	0.19277595
184	0xf7	-0.026287628
185	0xed	-0.055496104
186	0xbf	-0.1898551
187	0xd6	-0.1226756
188	0xbd	-0.19569679
189	0xb7	-0.21322188
190	0x16	0.06425865
191	0xce	-0.14604238
192	0x17	0.06717949
193	0x04	0.0116833905
194	0xd9	-0.11391306
195	0x18	0.070100345
196	0xf4	-0.035050172
197	0x4d	0.22490527
198	0xdc	-0.10515051
199	0xfd	-0.008762543
200	0xde	-0.09930882
201	0xd1	-0.13727984
202	0xfa	-0.017525086
203	0xdb	-0.108071364
204	0xbd	-0.19569679
205	0x18	0.070100345
206	0x6b	0.3125307
207	0x1e	0.08762543
208	0xb2	-0.22782612
209	0xe8	-0.070100345
210	0x4d	0.22490527
211	0x33	0.14896323
212	0xf8	-0.023366781
213	0x24	0.10515051
214	0x52	0.23950951
215	0xf3	-0.03797102
216	0xc5	-0.17233
217	0xca	-0.15772577
218	0xa4	-0.26871797
219	0x3f	0.1840134
220	0x0f	0.043812715
221	0x30	0.14020069
222	0xdf	-0.096387975
223	0x18	0.070100345
224	0xcb	-0.15480493
225	0xf5	-0.032129325
226	0xcb	-0.15480493
227	0xc7	-0.16648832
228	0xbe	-0.19277595
229	0x20	0.093467124
230	0xaa	-0.2511929
231	0x94	-0.31545153
232	0x1e	0.08762543
233	0x26	0.11099221
234	0xf5	-0.032129325
235	0x06	0.017525086
236	0x31	0.14312154
237	0x9c	-0.29208475
238	0x24	0.10515051
239	0x1c	0.081783734
240	0xd2	-0.13435899
241	0xf1	-0.043812715
242	0xe3	-0.08470458
243	0xda	-0.11099221
244	0x45	0.20153849
245	0xe5	-0.07886288
246	0x62	0.28624308
247	0x47	0.20738018
248	0xb5	-0.21906357
249	0x1d	0.08470458
250	0x2b	0.12559645
251	0xe1	-0.09054627
252	0xa9	-0.25411373
253	0xf9	-0.020445934
254	0xdb	-0.108071364
255	0xd0	-0.14020069
