Project/Models/Numbers/3.tflite (tflite, 15504 bytes, 11 tensors)

predAlpha/Mod_B3_Lo/MatMul f4 [1, 32]
0	0xbed29df1	-0.41136125
1	0xbe945b1b	-0.28975758
2	0xbe739682	-0.23787883
3	0x3e9dd9b4	0.30830157
4	0xbf07724d	-0.52908784
5	0x3ed19135	0.40931097
6	0xbe80aef3	-0.25133476
7	0xbdf4697f	-0.11934184
8	0xbe13bf1e	-0.14428374
9	0xbe57e5b5	-0.2108372
10	0xbea257aa	-0.31707507
11	0xbe3f5833	-0.18685989
12	0x3dbf59fd	0.09343336
13	0xbefdab41	-0.4954472
14	0xbe6a3837	-0.22873007
15	0x3df00c0a	0.11721046
16	0x3ec89dcd	0.39182892
17	0xbe827a9a	-0.25484163
18	0xbe30810d	-0.17236729
19	0x3ed1e3f6	0.40994233
20	0xbe5f25ef	-0.21791814
21	0xbe767b8d	-0.24070568
22	0xbf12c318	-0.5732894
23	0xbf3054e4	-0.6887953
24	0x3f1298ed	0.57264596
25	0x3ebc87f0	0.36822462
26	0xbeb24b1e	-0.34822935
27	0x3debcf9b	0.11514207
28	0x3e78c104	0.2429238
29	0x3e9f2e78	0.3109014
30	0xbe830e9e	-0.2559709
31	0xbe8cb411	-0.2748113

predAlpha/Mod_B1_L0/MatMul f4 [32, 28]
0	0xbd150a1b	-0.03638659
1	0x3d140547	0.036137845
2	0x3e68abb8	0.22721756
3	0x3e8c7bd6	0.2743823
4	0x3e34961c	0.17635387
5	0xbe08672a	-0.13320604
6	0x3d0f71b5	0.03502055
7	0x3e4c857d	0.19972797
8	0x3e0a37c7	0.1349784
9	0xbcc76a35	-0.024342636
10	0x3e8bd228	0.27308774
11	0xbe0c97f4	-0.1372984
12	0x3e996304	0.29958355
13	0xbd919dec	-0.07110199
14	0x3dbb174b	0.09135302
15	0xbebd5d6a	-0.36985332
16	0xbe00d260	-0.12580252
17	0xbd941b42	-0.072317615
18	0xbbf4e98f	-0.0074741314
19	0x3e0346bc	0.12819952
20	0xbe7daa0b	-0.24771897
21	0xbe7345f5	-0.23757155
22	0x3ea9f16b	0.33192
23	0x3cead7d5	0.02866737
24	0xbe910438	-0.2832353
25	0x3ce6518a	0.028115053
26	0x3d0537ee	0.03252404
27	0x3d9a8d03	0.07546427
28	0xbc745bd8	-0.014914475
29	0x3eabcd42	0.33555037
30	0xbcb0ca30	-0.021580786
31	0x3e36c2f9	0.17847814
32	0xbe9c5031	-0.3052993
33	0x3e365fe1	0.17810012
34	0x3e866c2c	0.26254404
35	0xbb9057a4	-0.004404979
36	0xbe4d0ae4	-0.20023686
37	0xbe71c037	-0.2360848
38	0x3e872e5f	0.26402566
39	0xbce22be3	-0.027608817
40	0x3b073388	0.002063008
41	0x3d770d8a	0.060315646
42	0x3e78c402	0.24293521
43	0xbe35a7df	-0.17739819
44	0xbcfa4161	-0.030548753
45	0x3ec282dd	0.37990466
46	0xbd53f6c2	-0.051749
47	0xbd98a20c	-0.07452783
48	0xbd7b5fe2	-0.061370738
49	0xbe8f28ad	-0.2796072
50	0x3eb4a6f6	0.3528363
51	0x3e83b1a6	0.25721473
52	0x3e49baf7	0.19700228
53	0x3e1385ad	0.14406462
54	0xbe1b38ce	-0.15158388
55	0xbd8b6126	-0.06805639
56	0xbe0c16b0	-0.1368053
57	0x3ebc1694	0.36735976
58	0xbe6ee83a	-0.23330775
59	0x3eb7f698	0.35930324
60	0x3e1c4d91	0.15263964
61	0xbdc513be	-0.09622906
62	0xbe00b5f6	-0.12569413
63	0xbd037b75	-0.03210016
64	0xbeb1fd45	-0.34763542
65	0xbe276c7b	-0.16349976
66	0x3e98af63	0.2982131
67	0xbd5032a2	-0.050829537
68	0x3d493a63	0.049127948
69	0x3e79e694	0.24404365
70	0xbe37ba30	-0.17942119
71	0xbe72b2e5	-0.23701055
72	0x3e4d5e31	0.20055462
73	0xbdbbcf85	-0.091704406
74	0xbecfcbac	-0.40585077
75	0xbd827274	-0.063694865
76	0xbe6857bb	-0.22689717
77	0xbefe59cb	-0.49677882
78	0xbd6c065a	-0.057623245
79	0xbac2c318	-0.0014859168
80	0xbe91970c	-0.28435552
81	0x3d5fbbcd	0.05462246
82	0xbe5b6e6c	-0.21428841
83	0x3e847398	0.2586944
84	0x3d954bee	0.07289873
85	0x3e1ea328	0.15491927
86	0x3ec1d5eb	0.3785852
87	0xbe5eaf61	-0.21746589
88	0xbe62a615	-0.22133668
89	0xbc673365	-0.0141113745
90	0x3df97b25	0.12181691
91	0x3d394314	0.045229986
92	0xbe0ab02d	-0.13543768
93	0x3ddf9cc0	0.109185696
94	0x3e2a435f	0.16627263
95	0x3c24f98b	0.010069261
96	0xbe94022b	-0.28907904
97	0xbeb253ba	-0.34829503
98	0x3ccbe22d	0.024888122
99	0x3e6bb2d6	0.23017439
100	0x3cc8928e	0.024483945
101	0xbe8b0bf1	-0.27157548
102	0x3e8b35e2	0.27189547
103	0xbedf65d0	-0.43632364
104	0x3dc1f7ab	0.09471067
105	0x3e8c7b11	0.27437642
106	0x3dfc1a92	0.123097554
107	0x3dedfa66	0.11620025
108	0x3db328b6	0.08747999
109	0xbbafe1a6	-0.0053674756
110	0x3eb637ca	0.3558944
111	0xbbe4bdeb	-0.006980648
112	0x3eac6cbc	0.33676708
113	0x3d8f7f85	0.07006744
114	0xbe13265c	-0.14370102
115	0xbe6b5408	-0.22981274
116	0xbe1657b2	-0.1468189
117	0x3e2b1a5c	0.16709274
118	0xbc9d145c	-0.019174747
119	0xbe4cb0da	-0.19989339
120	0x3ea99ab4	0.33125842
121	0xbe72c615	-0.23708375
122	0x3e105b67	0.14097367
123	0x3e978c25	0.2959911
124	0x3e5bd053	0.21466188
125	0xbe987ae4	-0.29781258
126	0x3e837318	0.25673747
127	0x3e41c7a5	0.18923815
128	0x3d95d3b4	0.0731577
129	0x3df5e23d	0.12006042
130	0xbdebc4de	-0.11512159
131	0x3e185875	0.14877494
132	0xbddd55a7	-0.108073525
133	0xbc2a18a9	-0.010381856
134	0x3da07340	0.07834482
135	0x3de0ad64	0.10970572
136	0xbe140ff2	-0.14459208
137	0x3eba0b11	0.36336568
138	0xbe96ee9d	-0.29478922
139	0xbe11f7b6	-0.1425465
140	0x3e24319e	0.16034552
141	0xbe50db78	-0.2039622
142	0xbe86c26b	-0.26320204
143	0xbe3b71a5	-0.1830507
144	0x3e1b8f80	0.1519146
145	0x3c2f528c	0.010700833
146	0x3c69e260	0.014275163
147	0x3ce2c93e	0.02768385
148	0xbcaf8d95	-0.021429816
149	0x3e11c1b1	0.14234044
150	0xbdb04b51	-0.086081155
151	0x3da2c249	0.07947213
152	0x3dc7d048	0.09756523
153	0x3e892271	0.2678409
154	0xbe590cc1	-0.21196271
155	0xbdbb1906	-0.09135632
156	0xbd4d833b	-0.05017398
157	0x3cc662c4	0.024217017
158	0xbe9ff41a	-0.31240922
159	0x3e918e67	0.28428957
160	0x3e1bb4af	0.15205644
161	0x3c958a8c	0.01825454
162	0x3c9db9bd	0.019253606
163	0xbe513690	-0.2043097
164	0xbdcef12f	-0.10104596
165	0x3e2b93bf	0.1675558
166	0x3e5226f9	0.2052268
167	0x3d287445	0.04112651
168	0xbe9abf5a	-0.30224115
169	0xbea2c469	-0.31790474
170	0xbdc118ff	-0.09428596
171	0x3d3af702	0.04564572
172	0xbe8c8981	-0.27448657
173	0x3d9d18df	0.076707594
174	0xbc880973	-0.016606068
175	0x3da99948	0.08281189
176	0xbee5a44e	-0.44851917
177	0xbed982c3	-0.42482576
178	0xbd5bc0a2	-0.053650506
179	0xbd8e3242	-0.0694318
180	0x3ec5ee0d	0.3865818
181	0xbe1e9a4d	-0.15488549
182	0x3da92aea	0.08260138
183	0xbeecf506	-0.46280688
184	0xbe453e3a	-0.19262019
185	0xbe2a94e4	-0.1665836
186	0xbccb149d	-0.024790103
187	0x3e021a65	0.12705381
188	0xbe1bded3	-0.1522172
189	0xbe13f241	-0.14447881
190	0xbdbe5a4d	-0.09294567
191	0xbdaf72a6	-0.08566789
192	0xbc897bd9	-0.016782688
193	0x3c9ceb33	0.01915512
194	0xbde00c29	-0.10939819
195	0x3d05198f	0.032495078
196	0xbd5d6f60	-0.054061294
197	0x3e927687	0.28606054
198	0x3e09aafe	0.13444135
199	0x3cc64406	0.024202358
200	0x3e1077fc	0.1410827
201	0xbe0e0f8a	-0.13873115
202	0x3d9e4538	0.07728046
203	0x3e86d71a	0.26335984
204	0x3e57379c	0.21017307
205	0x3ed8cfd3	0.42346057
206	0x3d90b975	0.07066623
207	0x389151f8	6.929407e-05
208	0x3d326387	0.043551948
209	0x3d337846	0.043815874
210	0x3bb2d35b	0.0054573244
211	0xbdc1c71e	-0.09461807
212	0xbdc43a53	-0.09581437
213	0x3e6687e1	0.22512771
214	0xbe297bb8	-0.16551101
215	0x3d362ee2	0.044478305
216	0x3e51c74d	0.20486183
217	0xbe03de6f	-0.1287782
218	0x3e7f6ede	0.24944636
219	0xbb94a8a2	-0.004536704
220	0xbe128852	-0.14309815
221	0xbcf2d5e0	-0.029643
222	0xbe7202c3	-0.23633866
223	0xbe2b90f6	-0.16754517
224	0x3dce62dd	0.100774504
225	0x3e09fb58	0.13474786
226	0xbdccbe90	-0.099972844
227	0x3d0e5964	0.03475322
228	0x3e699463	0.22810511
229	0x3bbd0839	0.0057688025
230	0x3b7072fd	0.0036689632
231	0x3e646ab2	0.22306326
232	0xbe6e0a95	-0.23246224
233	0xbc04cf12	-0.00810601
234	0x3d8ef52a	0.06980355
235	0xbe3e3542	-0.18575004
236	0x3e2b2471	0.1671312
237	0x3d56f11f	0.052476045
238	0x3e4ea7d7	0.20181213
239	0xbeb6bc4d	-0.35690537
240	0xbd8ff8e2	-0.070298925
241	0xbd80b3ba	-0.0628428
242	0xbd88493d	-0.06654594
243	0xbe528956	-0.20560202
244	0xbe482951	-0.19547011
245	0xbd205efb	-0.03915308
246	0xbb615cb2	-0.0034387526
247	0xbe2f6696	-0.17128977
248	0xbce92cfc	-0.028463833
249	0x3e8234f9	0.2543104
250	0xbe9a1a86	-0.3009836
251	0xbe0e687e	-0.13907048
252	0xbe2c7586	-0.16841707
253	0x3e533a4d	0.20627709
254	0xbe927399	-0.2860382
255	0x3d09f298	0.03367862

predAlpha/Mod_B0_L5/Tensordot/MatMul f4 [14, 28]
0	0x3b439f19	0.0029849468
1	0xbe5bb0fa	-0.2145423
2	0xbe9d834e	-0.3076424
3	0x3e805115	0.2506186
4	0xbe986c6c	-0.2977022
5	0x3e377e6d	0.17919321
6	0xbe95a513	-0.29227504
7	0x3ea41254	0.32045233
8	0xbd491a3a	-0.049097277
9	0x3e00f9a6	0.12595233
10	0xbea4068b	-0.32036242
11	0x3db41edf	0.08794951
12	0x3e987acd	0.2978119
13	0xbe264f8b	-0.1624128
14	0x3db0cafd	0.08632467
15	0x3d78d669	0.060751352
16	0x3e9b4158	0.3032329
17	0xbdc72f64	-0.09725836
18	0xbe785cf9	-0.24254216
19	0x3e4d78c9	0.20065607
20	0x3ea9e8db	0.33185467
21	0x3b2df182	0.0026541655
22	0xbe97ad81	-0.2962456
23	0xbdb1ee56	-0.08688037
24	0x3e0b4582	0.13600734
25	0xbe96ee6a	-0.2947877
26	0xbbea5f2b	-0.007152458
27	0x3c9162fd	0.017747397
28	0x3e734601	0.23757173
29	0x3c850040	0.01623547
30	0x3e8aaaf3	0.2708355
31	0xbdd61f47	-0.104551844
32	0xbe4f101f	-0.20220993
33	0x3de05d89	0.109553404
34	0xbe414a9f	-0.18876122
35	0x3c1a87cd	0.0094317915
36	0xbe15195f	-0.1456046
37	0xbef650dc	-0.48108566
38	0xbe8a8050	-0.2705102
39	0xbe58be22	-0.2116628
40	0x3db6da0f	0.0892831
41	0x3e805905	0.25067917
42	0xbd887d63	-0.066645406
43	0x3e5278cf	0.20553897
44	0x3d46a7bb	0.048499804
45	0x3ec30199	0.38087156
46	0xbc059045	-0.008152072
47	0xbe10675f	-0.14101933
48	0x3b092723	0.0020927868
49	0x389dee71	7.5307566e-05
50	0xbde7169a	-0.11283608
51	0x3e0445a9	0.12917198
52	0x3e013302	0.12617114
53	0x3cc4de17	0.024031682
54	0x3e16fb74	0.14744359
55	0x3e16cc38	0.14726341
56	0x3c398af6	0.011324635
57	0xbec381c4	-0.3818494
58	0xbe80ad01	-0.25131992
59	0x3e873378	0.26406455
60	0xbd8cbcae	-0.06871925
61	0xbcd94e79	-0.026526676
62	0x3d55c1bd	0.052186716
63	0x3e5caf18	0.21551168
64	0xbd9482bb	-0.07251497
65	0x3be1379e	0.006873085
66	0xbeb6b240	-0.3568287
67	0x3e4fbfa9	0.20287956
68	0xbd7fc4ff	-0.06244373
69	0x3e257cf0	0.16160941
70	0x3d8e6c8f	0.069543
71	0x3d235594	0.039876536
72	0xbe80f892	-0.25189644
73	0x3da54645	0.080700435
74	0x3d0b8152	0.034058876
75	0xbd80dc62	-0.06292035
76	0x3db7e16e	0.08978544
77	0xbb498eec	-0.0030755354
78	0xbe282853	-0.16421632
79	0xbe538de3	-0.20659594
80	0x3e93b192	0.28846413
81	0xbdaff2d5	-0.085912384
82	0x3d2c517a	0.04206989
83	0xbe0974dd	-0.13423486
84	0x3d0683d9	0.032840583
85	0x3db6127b	0.088902436
86	0x3ed3b8a8	0.4135182
87	0xbe47dd1e	-0.19517943
88	0x3d60db42	0.0548966
89	0xbe4ea50c	-0.20180148
90	0xbd38a5d5	-0.045080025
91	0x3e05be00	0.1306076
92	0x3e73bec5	0.23803242
93	0x3dd09052	0.10183777
94	0xbec772eb	-0.38954863
95	0xbec5c19b	-0.38624272
96	0xbe895a35	-0.26826635
97	0x3d9d3622	0.07676341
98	0xbdfdff46	-0.12402205
99	0x3e0974b9	0.13423432
100	0xbdb9c4cd	-0.0907074
101	0xbe8f37fa	-0.27972394
102	0x3e280277	0.1640719
103	0x3da8f802	0.08250429
104	0xbd9464da	-0.072457984
105	0x3e0febb1	0.14054753
106	0xbdd4f673	-0.10398569
107	0x3e87c4ed	0.2651743
108	0xbe3e52e7	-0.18586312
109	0x3e99ca66	0.3003723
110	0xbd4f149a	-0.050556757
111	0xbe8eb453	-0.2787195
112	0xbd7bf8a5	-0.061516423
113	0xbda7059a	-0.08155365
114	0xbec73cc5	-0.3891355
115	0xbdb093bc	-0.08621928
116	0xbe3a8d11	-0.18217875
117	0x3da74752	0.081679
118	0x3de60ed4	0.11233297
119	0xbdde24f4	-0.10846892
120	0xbde4c740	-0.111708164
121	0xbe1aa5db	-0.15102331
122	0xbe55f982	-0.20895961
123	0xbd7229d0	-0.059121907
124	0x3e6df977	0.23239695
125	0xbd1f9580	-0.038960934
126	0xbd79c54a	-0.060979165
127	0x3e093ac1	0.13401319
128	0xbd5ec002	-0.05438233
129	0x3e5e697e	0.2171993
130	0x3e3b0a3a	0.1826562
131	0xbdfc29e5	-0.12312678
132	0x3ecc742b	0.3993238
133	0xbdc0d268	-0.09415132
134	0x3e38317c	0.17987627
135	0xbea1fb58	-0.31637073
136	0x3e30eefd	0.17278667
137	0x3e734594	0.2375701
138	0xbed9a34b	-0.42507395
139	0xbe907698	-0.2821548
140	0x3e9de586	0.30839175
141	0xbe415f11	-0.18883921
142	0x3d2bfd35	0.041989524
143	0xbe4b1db7	-0.19835554
144	0xbde33d1f	-0.11095642
145	0xbd7ebaaf	-0.062189754
146	0x3e99d5f6	0.30046052
147	0x3dd6e383	0.10492613
148	0x3e371d62	0.17882302
149	0xbc14b8d6	-0.009077271
150	0x3e23d8fb	0.1600074
151	0x3e06b086	0.13153276
152	0xbc9ef3b2	-0.019403312
153	0x3def3d72	0.11681642
154	0x3ede1983	0.4337884
155	0x3e2f3fa7	0.17114125
156	0xbdeda900	-0.116045
157	0x3e19002d	0.14941473
158	0xbeaa587e	-0.3327064
159	0xbe146f13	-0.14495496
160	0x3e1d2234	0.15345079
161	0x3d23cc08	0.0399895
162	0x3e2d4974	0.16922551
163	0xbe877c07	-0.26461813
164	0xbd692676	-0.056921445
165	0x3c7382cd	0.014862728
166	0xbeee3f24	-0.46532547
167	0xbe87f96d	-0.26557484
168	0xbe1ae9a2	-0.15128186
169	0x3e4dab9c	0.20084995
170	0xbe08e488	-0.13368428
171	0x3e03c908	0.12869656
172	0x3e6da525	0.23207529
173	0x3e2e88db	0.17044394
174	0xbebad1f5	-0.3648831
175	0xbe1dd2ed	-0.15412493
176	0xbeae4c00	-0.34042358
177	0xbd10fbad	-0.035396267
178	0xbe999598	-0.29996943
179	0xbe358c15	-0.17729218
180	0xbe516603	-0.2044907
181	0x3ecf5299	0.40492705
182	0xbd764595	-0.060124952
183	0xbe85aaf1	-0.2610698
184	0xbe404403	-0.18775944
185	0x3e1fcdfd	0.15605922
186	0xbdd486eb	-0.10377296
187	0x3eddc7ae	0.43316406
188	0xbe9267da	-0.28594857
189	0x3d35b824	0.044365063
190	0x3d898516	0.06714837
191	0x3e10aa2c	0.14127415
192	0xbe87a178	-0.26490378
193	0xbccf1a5c	-0.025281124
194	0xbe9fbe34	-0.311998
195	0xbe2b65b1	-0.16738011
196	0xbe1875bf	-0.14888667
197	0x3df73ecc	0.120725244
198	0x3d65de2c	0.056120083
199	0x3b2f192c	0.0026717884
200	0xbd81ec4d	-0.06343899
201	0x3e2bd007	0.16778575
202	0x3ed5e2d3	0.41774616
203	0xbe7e18de	-0.24814174
204	0xbc3aa348	-0.011391468
205	0xbeea21d9	-0.4572895
206	0x3b88fb50	0.0041803494
207	0x3e295631	0.16536786
208	0xbe09474a	-0.13406101
209	0x3e91e1ce	0.28492588
210	0x3e55badf	0.20872067
211	0x3eb131e8	0.34608388
212	0xbeba35ac	-0.36369073
213	0xbd77d902	-0.06050969
214	0x3e1cb9de	0.15305278
215	0xbe23dfa0	-0.16003275
216	0xbe2c8749	-0.16848482
217	0xbe390656	-0.18068823
218	0x3d8f1569	0.069865055
219	0xbecd8f3b	-0.4014834
220	0xbe19e96b	-0.15030448
221	0x3eb8d155	0.36097208
222	0xbd85701d	-0.065155245
223	0x3e372603	0.17885594
224	0x3e40c350	0.18824506
225	0xbe2f512e	-0.17120811
226	0x3ecf7fc4	0.40527165
227	0xbde37940	-0.11107111
228	0x3e1dff1c	0.15429348
229	0x3e84ac1e	0.25912565
230	0x3e061208	0.13092816
231	0x3d278eda	0.04090772
232	0x3e7d2a07	0.24723063
233	0xbc153976	-0.009107938
234	0xbe22bcf4	-0.15892392
235	0xbd311f70	-0.04324287
236	0xbdef3422	-0.116798654
237	0xbe03ff99	-0.12890472
238	0xbddb8cab	-0.1072019
239	0x3e07072c	0.1318633
240	0xbe3fb536	-0.1872147
241	0x3de165a1	0.11005712
242	0xbeac7a36	-0.3368699
243	0xbe739c48	-0.23790085
244	0x3c0eb8e2	0.008711072
245	0xbe8b1cb6	-0.27170342
246	0xbd8bd5d3	-0.06827893
247	0xbe2b3a9d	-0.16721578
248	0xbcd2c353	-0.025727903
249	0xbedcfd99	-0.4316223
250	0x3e714746	0.23562345
251	0xbe8b3ada	-0.27193338
252	0x3dc994ca	0.098428324
253	0xbe9261b6	-0.28590173
254	0xbe159fda	-0.1461176
255	0x3e8a91a7	0.2706425

predAlpha/Mod_B0_L7/batchnorm/sub f4 [14]
0	0xbf0abade	-0.54191387
1	0xbf8f4e95	-1.1195856
2	0xbf8ac3f8	-1.0841055
3	0xbf5628e8	-0.8365617
4	0xbf3751b9	-0.71609074
5	0xbf0b9b2c	-0.5453365
6	0xbf336b7c	-0.70085883
7	0xbf7698d9	-0.96326977
8	0xbf0bd21c	-0.54617476
9	0xbf843092	-1.0327322
10	0xbf9b004e	-1.2109468
11	0xbf7c9975	-0.98671657
12	0xbf83677a	-1.0265954
13	0xbe9b74c6	-0.3036253

predAlpha/Mod_B0_L7/batchnorm/mul f4 [14]
0	0x4028fb14	2.6403246
1	0x407770eb	3.866267
2	0x4017fe74	2.3749056
3	0x40786c16	3.881597
4	0x41058b41	8.346498
5	0x40dabffc	6.8359356
6	0x408335b3	4.100305
7	0x40af7bb6	5.4838514
8	0x40df3006	6.974612
9	0x40840782	4.1259165
10	0x4038c468	2.8869877
11	0x4095d0e8	4.6817513
12	0x4084de0c	4.1521053
13	0x40e36e00	7.1071777

predAlpha/Mod_B0_L3/batchnorm/sub f4 [28]
0	0xbf3b9abc	-0.7328298
1	0xbf1f6613	-0.6226513
2	0xbf5e3360	-0.8679714
3	0xbf9cdc5e	-1.2254751
4	0xbe1b5d17	-0.1517223
5	0xbe56e6b9	-0.20986451
6	0xbe731c04	-0.23741156
7	0xbdc55457	-0.09635227
8	0xbe1d4374	-0.15357763
9	0xc0945f98	-4.636669
10	0xbff55460	-1.9166374
11	0xbf1e7024	-0.61889863
12	0xbe350bb7	-0.1768025
13	0xbe51f4e1	-0.2050357
14	0xbf97c56d	-1.1857125
15	0xbf3d846e	-0.74030197
16	0xbf410c1a	-0.7540909
17	0xbf7768b4	-0.9664414
18	0x3d4d6d20	0.050152898
19	0xbec61032	-0.3868423
20	0xbdc3cef9	-0.09560961
21	0xbb633e0e	-0.0034674439
22	0xbfdfd4d0	-1.748682
23	0xbdbac010	-0.09118664
24	0xbfa29f04	-1.2704778
25	0xbf833e07	-1.0253304
26	0xbfff351e	-1.9938085
27	0xbf113516	-0.5672163

predAlpha/Mod_B0_L3/batchnorm/mul f4 [28]
0	0x3fa50fab	1.2895406
1	0x3fd88964	1.6916928
2	0x40901dba	4.5036287
3	0x405ffee1	3.4999316
4	0x3fb0b103	1.380402
5	0x3ffcd237	1.9751652
6	0x409f9e59	4.9880795
7	0x41527cba	13.155451
8	0x3fe38fec	1.7778296
9	0x41298fa7	10.597571
10	0x40c2c604	6.086672
11	0x401451d6	2.3174949
12	0x407aab97	3.916723
13	0x4001252a	2.0178933
14	0x40345db3	2.818219
15	0x3ff76c0b	1.9329847
16	0x402db1c7	2.7139757
17	0x40d0be4a	6.5232286
18	0x415474aa	13.278482
19	0x3fa0b887	1.2556313
20	0x41344388	11.266487
21	0x414f46f4	12.954823
22	0x4063bf84	3.5585642
23	0x40277ca9	2.6169837
24	0x3ef61546	0.48063105
25	0x404afad0	3.1715584
26	0x4056524c	3.348773
27	0x4058a982	3.385346

predAlpha/Mod_B1_L0/BiasAdd/ReadVariableOp f4 [32]
0	0x3d718f9c	0.058974847
1	0x3caefa0b	0.021359464
2	0x3de59dcd	0.11211739
3	0x3d84e29f	0.06488537
4	0x3c885db5	0.016646245
5	0xbd6c6134	-0.057709888
6	0x3d91b3c6	0.07114367
7	0xbd6c9ea3	-0.057768475
8	0x3de4210a	0.11139114
9	0xbcfff49a	-0.031244565
10	0x3dc000b6	0.093751356
11	0xbccd56ec	-0.025065862
12	0xbb3171a2	-0.0027075787
13	0x3de29843	0.11064198
14	0x3cf12d5d	0.029440576
15	0xbaf4f4ea	-0.0018688713
16	0x3d4e450d	0.05035882
17	0x3dcc2234	0.09967461
18	0x3cf81b8d	0.030286575
19	0x3d98a239	0.074528165
20	0xbb2ffedc	-0.002685479
21	0x3d535480	0.051594257
22	0x3da360f1	0.079774745
23	0x3e179412	0.14802578
24	0x3d8749f2	0.06605901
25	0x3d37998f	0.04482418
26	0xbd531454	-0.05153306
27	0x3de389c4	0.11110261
28	0x3d308384	0.043094173
29	0x3d1819c9	0.037133966
30	0xbd258f1a	-0.040419675
31	0x3a4b65fb	0.0007759032

predAlpha/Mod_B0_L5/BiasAdd/ReadVariableOp f4 [14]
0	0xbccfb5ce	-0.025355246
1	0xbcd00530	-0.025393099
2	0xbb4d7f05	-0.0031356227
3	0x3cdea367	0.027177526
4	0xbc6071bf	-0.013698994
5	0xbde8e532	-0.113718405
6	0xbd04289a	-0.032265283
7	0x3caa9cb4	0.020826675
8	0xbcfe823d	-0.031067962
9	0xbc003549	-0.007825204
10	0xba865cce	-0.0010251047
11	0xbd3825b5	-0.044957835
12	0xbda29167	-0.079378895
13	0xbd9313e3	-0.071815275

predAlpha/Mod_B0_L1/BiasAdd/ReadVariableOp f4 [28]
0	0xbbcbb6c6	-0.0062168567
1	0x3c3f8f9e	0.011691956
2	0xbc21ce6a	-0.009875873
3	0xbcc8bcae	-0.024504032
4	0x3c1e4141	0.009659112
5	0xbd1b9b23	-0.037989747
6	0x3b0c9e43	0.0021456636
7	0xbcbb5e3f	-0.022872088
8	0x3ab1cb33	0.0013564586
9	0xbbf62a43	-0.007512362
10	0x3d2f59a6	0.042810105
11	0x3d04b435	0.03239842
12	0xbc4f9553	-0.012669879
13	0xbbd96c73	-0.0066352426
14	0xba60d91a	-0.00085772725
15	0x3b6c5eef	0.0036067327
16	0xbd03c0ee	-0.032166414
17	0xbb858cc4	-0.0040756185
18	0xbc151870	-0.009100065
19	0x3c5b3bef	0.0133809885
20	0xbd1d37a4	-0.03838314
21	0xbc30c273	-0.010788548
22	0x3d637bdb	0.05553804
23	0xbd22e8e9	-0.0397729
24	0x3c30838d	0.010773552
25	0xbd974d0e	-0.07387744
26	0xbd4ad778	-0.049521893
27	0xbb7d8848	-0.0038685966

predAlpha/Mod_B0_L1/Tensordot/MatMul1 i1 [28, 57] scale=0.003578247 zero_point=0
0	0x25	0.13239513
1	0x01	0.003578247
2	0xf5	-0.039360717
3	0x3a	0.20753832
4	0xf0	-0.057251953
5	0x15	0.07514319
6	0x27	0.13955164
7	0x09	0.032204222
8	0xae	-0.29341626
9	0x58	0.31488574
10	0x1c	0.100190915
11	0xdf	-0.11808215
12	0xe9	-0.08229968
13	0x3d	0.21827307
14	0x03	0.010734741
15	0x3e	0.22185132
16	0x13	0.0679867
17	0x16	0.078721434
18	0xfb	-0.017891236
19	0x09	0.032204222
20	0xb5	-0.26836854
21	0x18	0.085877925
22	0x26	0.1359734
23	0xf1	-0.053673707
24	0x25	0.13239513
25	0x1c	0.100190915
26	0xe4	-0.100190915
27	0x2c	0.15744287
28	0x29	0.14670813
29	0x00	0.0
30	0x28	0.14312989
31	0xfc	-0.014312988
32	0xfc	-0.014312988
33	0x08	0.028625976
34	0xf4	-0.042938963
35	0x24	0.12881689
36	0xfa	-0.021469481
37	0x14	0.07156494
38	0xe6	-0.093034424
39	0x27	0.13955164
40	0xed	-0.0679867
41	0xe5	-0.09661267
42	0xb9	-0.25405553
43	0x3f	0.22542956
44	0xf2	-0.050095458
45	0x11	0.0608302
46	0xf0	-0.057251953
47	0xe3	-0.10376916
48	0x10	0.057251953
49	0xe4	-0.100190915
50	0x02	0.007156494
51	0x0c	0.042938963
52	0x3b	0.21111658
53	0x0b	0.039360717
54	0xea	-0.078721434
55	0xcd	-0.1824906
56	0xb9	-0.25405553
57	0x0d	0.046517212
58	0x3c	0.21469483
59	0xf1	-0.053673707
60	0xc2	-0.22185132
61	0x1e	0.107347414
62	0xe8	-0.085877925
63	0xb1	-0.28268152
64	0x0f	0.053673707
65	0x0d	0.046517212
66	0x36	0.19322534
67	0xd2	-0.16459936
68	0x28	0.14312989
69	0xaf	-0.28983802
70	0xf3	-0.046517212
71	0x21	0.11808215
72	0x2d	0.16102111
73	0x58	0.31488574
74	0x0f	0.053673707
75	0x1a	0.093034424
76	0x06	0.021469481
77	0xd1	-0.1681776
78	0xa9	-0.3113075
79	0x2a	0.15028638
80	0x34	0.18606885
81	0x35	0.1896471
82	0x07	0.025047729
83	0x08	0.028625976
84	0x1b	0.09661267
85	0x45	0.24689904
86	0x2a	0.15028638
87	0x14	0.07156494
88	0xf9	-0.025047729
89	0xfd	-0.010734741
90	0xee	-0.064408444
91	0x16	0.078721434
92	0x1c	0.100190915
93	0x05	0.017891236
94	0xec	-0.07156494
95	0xe4	-0.100190915
96	0x0a	0.03578247
97	0xef	-0.0608302
98	0x56	0.30772924
99	0xb0	-0.28625977
100	0xf4	-0.042938963
101	0x01	0.003578247
102	0xf6	-0.03578247
103	0x21	0.11808215
104	0x42	0.2361643
105	0x15	0.07514319
106	0x2d	0.16102111
107	0xf8	-0.028625976
108	0x11	0.0608302
109	0x14	0.07156494
110	0x11	0.0608302
111	0xfb	-0.017891236
112	0x3d	0.21827307
113	0xf5	-0.039360717
114	0xf0	-0.057251953
115	0xc2	-0.22185132
116	0x2a	0.15028638
117	0x22	0.1216604
118	0xf1	-0.053673707
119	0xed	-0.0679867
120	0x16	0.078721434
121	0x0a	0.03578247
122	0x62	0.35066822
123	0x17	0.08229968
124	0x19	0.08945618
125	0x36	0.19322534
126	0x4b	0.26836854
127	0x9a	-0.3649812
128	0x09	0.032204222
129	0x0d	0.046517212
130	0x25	0.13239513
131	0xd4	-0.15744287
132	0x19	0.08945618
133	0xf9	-0.025047729
134	0xcc	-0.18606885
135	0x4c	0.2719468
136	0x10	0.057251953
137	0x15	0.07514319
138	0xee	-0.064408444
139	0xc4	-0.21469483
140	0xef	-0.0608302
141	0xdd	-0.12523864
142	0x14	0.07156494
143	0x2f	0.1681776
144	0x2f	0.1681776
145	0x34	0.18606885
146	0xff	-0.003578247
147	0x14	0.07156494
148	0xd3	-0.16102111
149	0xe5	-0.09661267
150	0xe3	-0.10376916
151	0xc0	-0.22900781
152	0xaf	-0.28983802
153	0x1d	0.10376916
154	0x0c	0.042938963
155	0xf5	-0.039360717
156	0x51	0.28983802
157	0xf0	-0.057251953
158	0x03	0.010734741
159	0xc1	-0.22542956
160	0xcb	-0.1896471
161	0x0c	0.042938963
162	0x08	0.028625976
163	0xf7	-0.032204222
164	0xe8	-0.085877925
165	0x01	0.003578247
166	0x2f	0.1681776
167	0xc0	-0.22900781
168	0xea	-0.078721434
169	0x06	0.021469481
170	0x19	0.08945618
171	0xd1	-0.1681776
172	0xb2	-0.27910328
173	0x26	0.1359734
174	0xa2	-0.3363552
175	0xf0	-0.057251953
176	0xf6	-0.03578247
177	0xa3	-0.33277696
178	0x08	0.028625976
179	0xdb	-0.13239513
180	0x4c	0.2719468
181	0x30	0.17175585
182	0x27	0.13955164
183	0x1e	0.107347414
184	0x31	0.17533411
185	0xe9	-0.08229968
186	0x3b	0.21111658
187	0x09	0.032204222
188	0xec	-0.07156494
189	0xf6	-0.03578247
190	0xfa	-0.021469481
191	0xdc	-0.12881689
192	0xc0	-0.22900781
193	0xdf	-0.11808215
194	0xfe	-0.007156494
195	0xde	-0.1216604
196	0x1c	0.100190915
197	0xb3	-0.27552503
198	0x3f	0.22542956
199	0xf4	-0.042938963
200	0x4b	0.26836854
201	0xde	-0.1216604
202	0x0d	0.046517212
203	0xd9	-0.13955164
204	0x13	0.0679867
205	0xe3	-0.10376916
206	0x00	0.0
207	0x3c	0.21469483
208	0x49	0.26121202
209	0xd2	-0.16459936
210	0xba	-0.25047728
211	0x05	0.017891236
212	0x2d	0.16102111
213	0xc9	-0.19680358
214	0x11	0.0608302
215	0xb6	-0.26479027
216	0x0e	0.050095458
217	0x1a	0.093034424
218	0x12	0.064408444
219	0x15	0.07514319
220	0xed	-0.0679867
221	0xee	-0.064408444
222	0xde	-0.1216604
223	0x3b	0.21111658
224	0xb8	-0.25763378
225	0xc0	-0.22900781
226	0xf3	-0.046517212
227	0xe4	-0.100190915
228	0xfa	-0.021469481
229	0xff	-0.003578247
230	0xce	-0.17891236
231	0xd5	-0.15386462
232	0x00	0.0
233	0xf1	-0.053673707
234	0x04	0.014312988
235	0xe6	-0.093034424
236	0xe9	-0.08229968
237	0x07	0.025047729
238	0xe9	-0.08229968
239	0x15	0.07514319
240	0x00	0.0
241	0xcb	-0.1896471
242	0xc0	-0.22900781
243	0x14	0.07156494
244	0x02	0.007156494
245	0x03	0.010734741
246	0x06	0.021469481
247	0xf6	-0.03578247
248	0xe2	-0.107347414
249	0x18	0.085877925
250	0x01	0.003578247
251	0xce	-0.17891236
252	0x08	0.028625976
253	0x0d	0.046517212
254	0xfe	-0.007156494
255	0x47	0.25405553
