Project/Models/Numbers/4.tflite (tflite, 15504 bytes, 11 tensors)

predAlpha/Mod_B3_Lo/MatMul f4 [1, 32]
0	0xbea11605	-0.31462112
1	0xbe1da578	-0.15395153
2	0xbf24969b	-0.64292306
3	0xbe1f317c	-0.1554622
4	0x3ed0fa4e	0.40815967
5	0xbe878ae4	-0.26473153
6	0xbebb617f	-0.3659782
7	0x3e283072	0.1642473
8	0x3e8a34dd	0.26993456
9	0x3e916a50	0.28401423
10	0xbebc22f8	-0.3674543
11	0x3ec430c0	0.38318443
12	0xbf07bfc8	-0.5302701
13	0xbea7d1ab	-0.3277715
14	0xbeb819ff	-0.35957333
15	0xbd0124fa	-0.031529404
16	0x3ec1e5f3	0.3787075
17	0x3e5aa237	0.21350943
18	0xbe2edd73	-0.17076664
19	0x3e37295d	0.17886873
20	0x3e6f0fcb	0.23345868
21	0xbea8afdf	-0.3294668
22	0x3e133164	0.1437431
23	0xbeefd26e	-0.46840233
24	0xbf091da2	-0.5356084
25	0xbe8d5b59	-0.27608755
26	0xbe410fae	-0.18853638
27	0xbe5bd8df	-0.21469449
28	0xbe549bb3	-0.2076252
29	0xbeda17d6	-0.4259631
30	0xbdfcbf5c	-0.123411864
31	0xbeb618aa	-0.35565692

predAlpha/Mod_B1_L0/MatMul f4 [32, 28]
0	0xbebc6123	-0.3679286
1	0xbe7624f5	-0.24037535
2	0xbe2d5c97	-0.16929851
3	0x3ca61a81	0.02027631
4	0x3e390383	0.18067746
5	0xbeab4711	-0.33452657
6	0x3e450438	0.1923989
7	0x3e9bb10c	0.30408514
8	0xbec5ec12	-0.3865667
9	0x3e2411cc	0.16022414
10	0x3d057e58	0.032591194
11	0xbe29a130	-0.16565394
12	0x3e1e2c89	0.15446676
13	0x3e077728	0.13229048
14	0xbda8523a	-0.082188085
15	0x3d7acf56	0.061232887
16	0x3e47ed87	0.19524203
17	0x3db6c280	0.08923817
18	0xbe76d137	-0.24103247
19	0x3e78aa71	0.24283768
20	0x3e3a58cd	0.18197937
21	0x3d38d592	0.04512555
22	0x3ce9fd46	0.028563153
23	0xbda3c628	-0.0799678
24	0xbd60d6f9	-0.054892514
25	0xbe59549f	-0.21223687
26	0x3e93415a	0.28760797
27	0x3e00051a	0.12501946
28	0xbeacf27c	-0.3377875
29	0x3d849f0c	0.06475648
30	0xbc47fed5	-0.012206753
31	0x3e52e4f3	0.2059515
32	0xbdf231ba	-0.11825891
33	0xbe2578d8	-0.1615938
34	0xbe7bea22	-0.24601033
35	0x3e80216a	0.25025493
36	0x3dba5a9e	0.09099315
37	0xbe074edf	-0.1321368
38	0x3de61cca	0.1123596
39	0xbe12b168	-0.14325488
40	0xbc8e521b	-0.017373135
41	0xbdbfef3d	-0.09371803
42	0xbcbcbdae	-0.023039665
43	0x3e3e4fcf	0.18585132
44	0x3edc389b	0.43011937
45	0x3eb8f7c8	0.36126542
46	0xbd216e1a	-0.03941164
47	0x3db5166e	0.08842169
48	0xbe461ef1	-0.1934774
49	0xbe583a96	-0.21116099
50	0x3d911b9d	0.07085345
51	0xbe0bd748	-0.13656342
52	0x3df6da7f	0.120533936
53	0x3df50920	0.11964631
54	0xbe45858c	-0.19289225
55	0x3e9c7666	0.3055908
56	0xbe047969	-0.1293694
57	0x3d80b283	0.062840484
58	0x3c884729	0.016635494
59	0xbd1aa1ae	-0.037751846
60	0xbeb63803	-0.3558961
61	0x3ddc416e	0.10754667
62	0xbe8e170e	-0.27751964
63	0x3e83cc25	0.25741687
64	0x3dd72b46	0.10506301
65	0xbe225996	-0.15854487
66	0xbbef1148	-0.0072957613
67	0x3eecbace	0.4623627
68	0x3d4d3f21	0.050109033
69	0xbe396a00	-0.18106842
70	0xbd3674b5	-0.044544894
71	0xbe566eb9	-0.20940675
72	0x3e6be4bc	0.23036474
73	0x3d1beb6a	0.038066305
74	0xbe36f680	-0.1786747
75	0xbd03fdc4	-0.03222443
76	0xbe1ec812	-0.15506008
77	0x3efd62c4	0.49489415
78	0x3e5f3b4a	0.2179996
79	0xbe549418	-0.20759618
80	0xbe025746	-0.12728605
81	0x3e67ef97	0.2264999
82	0x3f09d96c	0.53847384
83	0xbdc2c621	-0.09510446
84	0x3d74fab2	0.059809394
85	0x3e41f86d	0.18942423
86	0x3e136905	0.1439553
87	0x3ee3d31a	0.44496995
88	0xbe013f0c	-0.12621707
89	0x3d7e940f	0.06215292
90	0x3e65fde2	0.2246013
91	0x3e04d35e	0.12971255
92	0xbecb1b6b	-0.39669356
93	0x3de17146	0.11007933
94	0x3e4259af	0.18979524
95	0xbde08a31	-0.10963858
96	0x3cf88928	0.030338839
97	0x3e51613f	0.20447253
98	0x3e8ca8fe	0.2747268
99	0x3d652ef1	0.05595297
100	0x3e457acd	0.19285126
101	0x3e629652	0.22127655
102	0x3e4a7ae8	0.19773448
103	0x3e8d718c	0.27625692
104	0xbe627bb6	-0.22117504
105	0xbd3a3bb1	-0.045467082
106	0x3de9dacc	0.11418685
107	0x3e87e3e0	0.26541042
108	0xbe02b695	-0.12764962
109	0xbb67ca68	-0.0035368446
110	0xbe4b3168	-0.19843066
111	0x3db443e2	0.0880201
112	0xbd02d5bf	-0.031942125
113	0x3d4c8bd6	0.049938045
114	0x3d26a936	0.040688716
115	0xbdb4ee1a	-0.08834477
116	0x3c24245b	0.010018433
117	0x3d48403b	0.04888938
118	0x3e4c1560	0.19930029
119	0xbe1f33d5	-0.15547116
120	0xbdf14a0c	-0.117817014
121	0x3e07de64	0.13268429
122	0x3e3f46df	0.18679379
123	0xbe33692f	-0.17520593
124	0x3ddf687a	0.10908599
125	0xbe618913	-0.22024946
126	0xbc8b5756	-0.017009418
127	0xbea6e71e	-0.32598203
128	0x3c010bbd	0.007876334
129	0xbe33580e	-0.17514059
130	0xbe95bcac	-0.29245508
131	0xbbd7c8bf	-0.00658521
132	0x3e072944	0.13199335
133	0xbc5b8c35	-0.013400127
134	0xbecbba79	-0.39790705
135	0x3e3c0047	0.18359481
136	0xbdafa8e1	-0.08577133
137	0xbdc41c26	-0.095756814
138	0xbd6f1253	-0.058367085
139	0xbebb5fd4	-0.3659655
140	0xbd8bc0ee	-0.06823908
141	0x3d6d85e9	0.057989035
142	0x3b0cf165	0.0021506187
143	0x3b925ae4	0.0044664014
144	0x3cd88df4	0.026434876
145	0xbc83a181	-0.016068222
146	0xbe65dc27	-0.22447263
147	0x3e163e77	0.14672266
148	0x3ea39391	0.31948522
149	0xbe4bb15e	-0.19891879
150	0xbe35b4af	-0.17744707
151	0x3e0845ca	0.13307872
152	0x3d8fc8c5	0.070207156
153	0xbeade57b	-0.33964142
154	0xbd9418fb	-0.07231327
155	0x3dd47033	0.10372963
156	0xbd918547	-0.07105499
157	0xbe750126	-0.2392622
158	0xbe0afb0f	-0.13572334
159	0x3cecdc5a	0.028913666
160	0xbe03549e	-0.12825248
161	0x3e94aaba	0.29036504
162	0x3e7adbd7	0.24497925
163	0xbe82e83a	-0.255678
164	0x3ddc58c4	0.10759118
165	0x3e2a0f42	0.16607383
166	0x3f04be1e	0.51852596
167	0xbe007f4a	-0.12548557
168	0x3e40c9da	0.18827
169	0xbdc082f6	-0.09399979
170	0xbe80fbab	-0.25192007
171	0x3e0ae826	0.1356512
172	0x392c2943	0.0001641857
173	0xbde94026	-0.113891885
174	0x3ea7edfb	0.32798752
175	0xbe3a7612	-0.18209103
176	0x3d8d22cc	0.068914026
177	0x3e81c65a	0.25346643
178	0x3e0f9842	0.14022925
179	0x3e17df95	0.14831384
180	0x3e6f2f7f	0.23357962
181	0x3dae3b78	0.085074365
182	0x3d7a48b1	0.06110448
183	0xbe034719	-0.1282009
184	0x3d76b9de	0.06023585
185	0xbe9f6776	-0.31133622
186	0x3cef99b2	0.029248092
187	0x3d90ef01	0.070768364
188	0x3e1e0a8e	0.15433714
189	0x3e1d2abf	0.15348338
190	0x3e2171ca	0.15766063
191	0xbe244fc3	-0.16046052
192	0x3b9d1a00	0.004794359
193	0xbe027bde	-0.12742564
194	0x3eb58555	0.35453287
195	0x3e09f384	0.134718
196	0xbcfef21f	-0.031121312
197	0xbe4dc4aa	-0.20094553
198	0xbe921748	-0.28533387
199	0xbeb0c788	-0.3452723
200	0x3c953220	0.018212378
201	0xbcc48a16	-0.023991626
202	0xbdb2408c	-0.087037176
203	0xbdf568b2	-0.1198286
204	0x3dae78e3	0.08519151
205	0xbe61c299	-0.2204689
206	0x3e11b50d	0.14229222
207	0xbe7959b1	-0.24350621
208	0x3bf3a05e	0.0074348887
209	0xbe18e137	-0.14929663
210	0x3e462c77	0.193529
211	0xbe09d0f2	-0.13458613
212	0xbd08b236	-0.03337308
213	0xbe92310f	-0.28553054
214	0x3d6e2601	0.058141712
215	0x3c3d2d41	0.011546434
216	0xbe8b740e	-0.2723698
217	0xbd8488e6	-0.06471424
218	0xbe3e2753	-0.18569688
219	0xbe639ff7	-0.2222899
220	0x3e7d4dfb	0.24736778
221	0xbe9ac543	-0.30228624
222	0xbd7ee9cd	-0.06223469
223	0x3d493871	0.049126092
224	0xbe691302	-0.22761157
225	0xbd82b0ca	-0.06381376
226	0xbe199b8b	-0.15000741
227	0xbe55cc05	-0.20878609
228	0xbe26464d	-0.16237755
229	0xbe1f4016	-0.1555179
230	0x3e6cb0e0	0.23114347
231	0xbe9abd4b	-0.30222544
232	0xbdebbda9	-0.11510784
233	0xbe52d0a9	-0.2058741
234	0xbe533aed	-0.20627947
235	0x3dc8b968	0.098009884
236	0xbe2596af	-0.16170762
237	0xbdf4049e	-0.11914943
238	0x3eb21fe0	0.34789944
239	0xb9e2352d	-0.00043145698
240	0xbe905697	-0.28191063
241	0xbdbb3f1e	-0.09142898
242	0xbe7c868e	-0.24660704
243	0xbd9c0924	-0.07618931
244	0xbdab6166	-0.08368187
245	0x3d4ff575	0.050771195
246	0xbe73298d	-0.23746319
247	0x3e33b5e8	0.1754986
248	0x3e44fc4a	0.19236866
249	0xbe4bf535	-0.19917758
250	0xbe9755b0	-0.29557562
251	0xbd3a7676	-0.04552313
252	0x3e0a4ce8	0.135059
253	0xbda6ade5	-0.081386365
254	0xbe3fca30	-0.18729472
255	0x3e25e97a	0.16202345

predAlpha/Mod_B0_L5/Tensordot/MatMul f4 [14, 28]
0	0xbebda654	-0.3704096
1	0xbe779499	-0.2417778
2	0x3e9361d0	0.28785563
3	0x3e57b733	0.21065979
4	0x3e132b8d	0.14372082
5	0x3e90348b	0.28165087
6	0x3c4117de	0.011785476
7	0xbd400a8e	-0.046885066
8	0x3dcb24ca	0.09919126
9	0x3deafa28	0.11473495
10	0x3eaecf20	0.341424
11	0x3e73f6a3	0.23824553
12	0xbe904727	-0.28179285
13	0x3efc65c4	0.4929639
14	0xbe04930d	-0.1294672
15	0x3e5e1e0a	0.21691146
16	0x3e02a058	0.12756479
17	0x3e424bc5	0.18974216
18	0xbd1184aa	-0.03552691
19	0xbe787b15	-0.24265702
20	0xbe984974	-0.2974354
21	0xbe41e074	-0.18933278
22	0x3c8bf1c6	0.01708306
23	0xbc444aad	-0.011980695
24	0xbde72672	-0.1128663
25	0x3c9f3fa7	0.019439531
26	0x3d626d7d	0.055280197
27	0xbbca1f9d	-0.0061683194
28	0xbe1fcbe2	-0.15605119
29	0xbc89660b	-0.01677229
30	0xbe4b6f90	-0.19866776
31	0xbe5af7fb	-0.2138366
32	0x3db7444f	0.08948576
33	0x3c32ba33	0.010908651
34	0x3d585417	0.05281457
35	0xbea491a7	-0.32142374
36	0xbe1ca258	-0.15296304
37	0x3db36f28	0.08761436
38	0xbde60272	-0.11230935
39	0x3bdc49bc	0.006722657
40	0xbcc99370	-0.024606436
41	0x3b95494b	0.0045558563
42	0x3e118dd1	0.14214255
43	0x3de2f76c	0.11082348
44	0x3c65c8b1	0.014024899
45	0xbddfc85b	-0.10926887
46	0x3d5ae85b	0.053444248
47	0xbe5bbc0e	-0.21458456
48	0xbe923c5a	-0.2856167
49	0xbda77e2b	-0.081783615
50	0xbdf40a8d	-0.11916075
51	0xbddfca8f	-0.10927307
52	0xbe86e325	-0.26345173
53	0xbe2011f0	-0.15631843
54	0xbebcf519	-0.36905745
55	0xbdb2a431	-0.08722723
56	0x3e29bef7	0.16576754
57	0x3df818b1	0.121140845
58	0x3e72b28e	0.23700926
59	0xbd39240f	-0.045200404
60	0x3e19c2ac	0.15015668
61	0x3e2c71d8	0.16840303
62	0xbe18cb05	-0.14921196
63	0x3dab0a91	0.08351625
64	0xbe24aa1d	-0.16080518
65	0xbc41d288	-0.01182998
66	0xbdbbc45d	-0.09168313
67	0x3e9c0f1c	0.30480278
68	0xb96a38f1	-0.00022337191
69	0x3e8b72a4	0.272359
70	0xbdebfe23	-0.11523082
71	0x3e2ba0e5	0.16760595
72	0xbe8565a6	-0.26054114
73	0x3ef4565e	0.47722143
74	0xbd103601	-0.035207752
75	0xbd327d18	-0.04357633
76	0xbe9a8d69	-0.30186012
77	0x3d796e83	0.060896408
78	0xbe7af28e	-0.2450659
79	0xbe050c90	-0.12993073
80	0x3d343b43	0.04400183
81	0xbe13b55b	-0.1442465
82	0xbd1f0fbe	-0.038833372
83	0xbe4146ad	-0.18874617
84	0x3e3c9eb2	0.18419912
85	0xbe48ece4	-0.19621617
86	0xbc9d2984	-0.019184835
87	0xbe82ee44	-0.25572407
88	0x3d7ecd4f	0.062207516
89	0xbe101e35	-0.14074023
90	0x3cf532ac	0.029931389
91	0xbd5e90b8	-0.054337233
92	0x3e608e32	0.21929243
93	0xbccc5dcb	-0.024947068
94	0x3c15dba1	0.009146602
95	0xbe0f7004	-0.14007574
96	0xbe1ee982	-0.15518764
97	0xbdc0cd64	-0.09414175
98	0xbea92236	-0.33033913
99	0x3df13731	0.11778105
100	0xbaa1695e	-0.0012314727
101	0xbd57b213	-0.05266006
102	0xbd149719	-0.03627691
103	0xbed874ec	-0.42276704
104	0x3e34f8f5	0.17673095
105	0x3dbef69f	0.09324383
106	0xbe8dbe46	-0.2768423
107	0xbea90e06	-0.33018512
108	0x3c28da98	0.010306023
109	0x3e8cf3bd	0.27529708
110	0xbe65b652	-0.22432831
111	0xbe8a75e2	-0.27043062
112	0x3ede4a5b	0.43416104
113	0xbd1ccadb	-0.038279396
114	0x3ebc11ee	0.3673243
115	0xbdbe792c	-0.093004555
116	0xbe615fc7	-0.22009192
117	0x3e259ffe	0.16174313
118	0x3d8203db	0.063483916
119	0xbeca3b22	-0.3949824
120	0x3ce96e9c	0.028495125
121	0xbeb8658e	-0.3601498
122	0xbd9dcc16	-0.07704942
123	0x3d9658b5	0.07341138
124	0xbe04f948	-0.12985718
125	0xbe1d77bd	-0.15377708
126	0xbe5139c2	-0.20432189
127	0xbe24b194	-0.16083366
128	0xbb206547	-0.0024474429
129	0x3d5167c6	0.051124357
130	0xbe8324dc	-0.2561406
131	0xbe811b15	-0.25215974
132	0x3d2cec7a	0.04221771
133	0x3e84ea45	0.25959983
134	0x3e2cb03b	0.16864102
135	0xbdb09a34	-0.08623162
136	0x3e231d67	0.15929185
137	0x3dc300b1	0.09521616
138	0x3e9033cf	0.28164527
139	0xbe453d1c	-0.19261593
140	0x3eb39e76	0.35081834
141	0x3ea18874	0.31549418
142	0x3c13ce1a	0.009021306
143	0x3e9b9a73	0.30391273
144	0x3e90ba32	0.28267056
145	0x3e6aecb4	0.22941858
146	0xbc26087c	-0.010133859
147	0x3ed13cd7	0.4086673
148	0x3af6f4d4	0.0018841275
149	0x3de1f93b	0.11033865
150	0x3dd93a25	0.10606793
151	0xbe531378	-0.20612895
152	0x3d24f916	0.04027661
153	0x3eb8d7eb	0.36102232
154	0xbebb03a0	-0.36526203
155	0x3e86f06b	0.263553
156	0x3e2ef61b	0.1708607
157	0x3e53ac89	0.20671286
158	0x3d761a5b	0.06008373
159	0xbe2eabdc	-0.17057747
160	0xbd96121f	-0.07327675
161	0x3ea931ef	0.3304591
162	0x3e3e833a	0.18604746
163	0x3e6e4e75	0.23272116
164	0x3e777836	0.2416695
165	0xbe9c8862	-0.30572802
166	0xbd259219	-0.040422533
167	0xbe8f4d07	-0.27988455
168	0xbea139a5	-0.31489292
169	0x3da21cf2	0.07915677
170	0x3e271590	0.16316819
171	0x3d34daa6	0.044153832
172	0xbeae7a70	-0.34077787
173	0x3e8ed1fe	0.27894586
174	0xbe0e5522	-0.13899663
175	0xbdac43fe	-0.08411406
176	0xbdc90082	-0.0981455
177	0x3ee3feb3	0.44530258
178	0x3d8df1ba	0.06930871
179	0xbe99408f	-0.29932067
180	0xbe2f4061	-0.17114402
181	0x3eaf3319	0.34218672
182	0x3d246f23	0.04014505
183	0xbda976db	-0.08274623
184	0x3d41e62d	0.047338653
185	0xbd8280bf	-0.063722126
186	0xbda5bcc4	-0.08092645
187	0x3e09a7aa	0.13442865
188	0xbd901f4d	-0.0703722
189	0xbe9cd708	-0.30632806
190	0x3d87a0dd	0.06622479
191	0xbdc6ae8e	-0.097012624
192	0x3dfaf84d	0.12254391
193	0xbe269f6f	-0.16271757
194	0xbe2f73c0	-0.17133999
195	0x3bf4552f	0.0074564437
196	0x3e00d206	0.12580118
197	0x3eef59f2	0.4674831
198	0x3eab51d4	0.33460867
199	0xbe041522	-0.12898687
200	0xbedcc202	-0.43116766
201	0xbd14ee67	-0.03636017
202	0x3a5e7372	0.00084858306
203	0xbbc64f72	-0.006051951
204	0xbecba3b2	-0.39773327
205	0xbec6ee1a	-0.38853532
206	0xbe0315d7	-0.128013
207	0x3e6d0ba3	0.2314897
208	0x3ed23975	0.4105946
209	0xbe741612	-0.23836544
210	0xbeb84a96	-0.35994405
211	0x3aaffa0d	0.0013425961
212	0x3e4c3cbb	0.19945042
213	0xbdf3bbfa	-0.11901088
214	0x3dadd5c5	0.08488039
215	0x3d2d0d32	0.042248912
216	0x3bae558f	0.005320258
217	0xbe0b87b7	-0.1362599
218	0xbd385214	-0.04500015
219	0x3e6e5924	0.23276192
220	0xbe8f0f2b	-0.2794126
221	0xbb1ed7dc	-0.002423755
222	0x3eb7b3be	0.3587932
223	0x3d24b74b	0.040213864
224	0x3eb3f1c1	0.3514538
225	0xbd3f7035	-0.04673787
226	0xbd80e3e1	-0.062934645
227	0x3dd38f59	0.10330076
228	0x3e8329e5	0.256179
229	0xbe508201	-0.20362093
230	0x3bd81f98	0.006595563
231	0xbe30d4bb	-0.1726865
232	0xbd30d05d	-0.04316746
233	0xbe0ff254	-0.14057285
234	0xbdf74644	-0.12073949
235	0x3e80f256	0.25184888
236	0x3e8e5c10	0.27804613
237	0xbe449571	-0.19197632
238	0xbe5f606f	-0.2181413
239	0x3da8ba3f	0.082386486
240	0x3e888564	0.2666427
241	0x3ed126f5	0.40850034
242	0xbcb1afe4	-0.021690316
243	0x3ef16e51	0.47154477
244	0xbea6333f	-0.32460973
245	0xbdd6888e	-0.104752645
246	0x3e1bda50	0.15219998
247	0x3e901801	0.28143314
248	0x3e96ab12	0.2942739
249	0x3d664df6	0.056226693
250	0x3db8a0bd	0.090150334
251	0xbe8cc1d0	-0.27491617
252	0x3e1397e4	0.1441341
253	0xbecce327	-0.40017053
254	0x3bef9cef	0.007312409
255	0x3dedcde5	0.11611537

predAlpha/Mod_B0_L7/batchnorm/sub f4 [14]
0	0xbf687fbb	-0.908199
1	0xbf1509c8	-0.5821805
2	0xbf121338	-0.57060575
3	0xbf11289b	-0.56702584
4	0xbf0d803d	-0.552738
5	0xbe98cf83	-0.2984582
6	0xbf86268d	-1.0480515
7	0xbecee424	-0.40408432
8	0xbf83fc2e	-1.0311334
9	0xbf0337aa	-0.5125681
10	0xbf0c5476	-0.5481638
11	0xbf6442af	-0.8916425
12	0xbf19890d	-0.5997475
13	0xbf65edba	-0.89815867

predAlpha/Mod_B0_L7/batchnorm/mul f4 [14]
0	0x4064fdfe	3.5780025
1	0x408733c5	4.2250695
2	0x40f33a40	7.6008606
3	0x4015341c	2.3313055
4	0x3fe24bb6	1.7679355
5	0x40e294d8	7.0806694
6	0x407fd541	3.997391
7	0x40e78d47	7.235996
8	0x409ef161	4.966965
9	0x401591bc	2.33702
10	0x3f98effb	1.1948236
11	0x40c3c90f	6.1182933
12	0x4094ca5b	4.6497016
13	0x407aa0cc	3.9160643

predAlpha/Mod_B0_L3/batchnorm/sub f4 [28]
0	0xbf33764f	-0.701024
1	0xbe5686b1	-0.20949818
2	0xbfb05728	-1.3776598
3	0xbfa4a1d7	-1.286189
4	0xbf21c8fa	-0.6319729
5	0xbf2dab34	-0.6783936
6	0xbe134c3a	-0.14384547
7	0xc01469a3	-2.3189476
8	0xbdf27eb8	-0.11840576
9	0xbf75572f	-0.95836157
10	0xc052b430	-3.2922478
11	0xbfaf2967	-1.368451
12	0xbf27e459	-0.65582806
13	0xbf2f7058	-0.685308
14	0xbf2c30fe	-0.67262256
15	0xc0daa33d	-6.8324265
16	0xbd75a19c	-0.059968576
17	0xbf3c97b6	-0.7366899
18	0xbf2e97f5	-0.6820062
19	0xc0096d75	-2.1473057
20	0xbf17bf5d	-0.5927637
21	0xbfa4a90f	-1.2864093
22	0xbf2d0b81	-0.6759568
23	0xbfafad28	-1.3724718
24	0xbfad2a82	-1.3528597
25	0xbd22a6ee	-0.039709978
26	0xbf361cc5	-0.7113765
27	0xbf766248	-0.96243715

predAlpha/Mod_B0_L3/batchnorm/mul f4 [28]
0	0x40066bb1	2.100323
1	0x40d2f768	6.592701
2	0x401f66c1	2.4906466
3	0x3f6dee00	0.92941284
4	0x3fc6d87d	1.5534817
5	0x40032fc1	2.0497897
6	0x407189f1	3.7740443
7	0x3f901040	1.1254959
8	0x4034f6c4	2.8275614
9	0x4164368d	14.263318
10	0x40b69736	5.7059584
11	0x3e98ffc2	0.29882628
12	0x409a1843	4.8154616
13	0x406bc9d8	3.6841946
14	0x3ffca297	1.9737118
15	0x409bd4b0	4.869713
16	0x41b6e08d	22.859644
17	0x3fb0b6fe	1.3805845
18	0x40491590	3.141941
19	0x401c60b0	2.4434013
20	0x407813d7	3.876211
21	0x403ab876	2.9175086
22	0x3fbd5daf	1.4794215
23	0x3ec17c27	0.37790033
24	0x3ed82ee9	0.4222329
25	0x418546ea	16.659626
26	0x40a78426	5.2348814
27	0x40ce0ce9	6.439076

predAlpha/Mod_B1_L0/BiasAdd/ReadVariableOp f4 [32]
0	0x3d437738	0.047721118
1	0x3de6e038	0.11273235
2	0x3d4b0a06	0.049570106
3	0x3dfd007c	0.12353608
4	0x3dc236f6	0.09483139
5	0x3b6f00df	0.0036469025
6	0x3d28deb3	0.041228008
7	0x3c9c38d7	0.019070072
8	0x3d5bde52	0.053678818
9	0x3dd23db9	0.10265679
10	0x3e00e826	0.12588558
11	0x3dc42f9d	0.09579394
12	0x3dbb4eac	0.09145865
13	0x3cc0907f	0.023506401
14	0x3dda2f5e	0.10653566
15	0xbd0e8179	-0.034791443
16	0x3d8c0e40	0.068386555
17	0x3d86ac84	0.065758735
18	0xbdb608a9	-0.088883705
19	0x3d424bdd	0.04743563
20	0x3d7051e0	0.058671832
21	0x3dae22f2	0.08502759
22	0xbd3285e0	-0.043584704
23	0x3d93965c	0.07206413
24	0x3de6747a	0.11252685
25	0x3e6da119	0.23205985
26	0xbd2a9339	-0.04164431
27	0x3d9448f8	0.0724048
28	0x3db09e9d	0.08624003
29	0x3d85e198	0.06537169
30	0x3dc0a2a5	0.09406022
31	0x3c25eeb8	0.010127716

predAlpha/Mod_B0_L5/BiasAdd/ReadVariableOp f4 [14]
0	0xbd4c267a	-0.04984138
1	0xbd3e389c	-0.046440706
2	0xbcc76c6a	-0.024343688
3	0xbce480a0	-0.027893364
4	0xbd9af7f1	-0.07566822
5	0xbddb0adf	-0.10695433
6	0xbc8e53f3	-0.017374014
7	0xbd3b7eca	-0.045775212
8	0xbd0be1b6	-0.0341508
9	0xbd583c6c	-0.052791998
10	0xbc922bec	-0.01784321
11	0xbd6dc6af	-0.058050808
12	0xbd547499	-0.05186901
13	0x3e0995c0	0.13436031

predAlpha/Mod_B0_L1/BiasAdd/ReadVariableOp f4 [28]
0	0x3c88aca1	0.016683878
1	0xbc055475	-0.008137812
2	0x3b873cac	0.0041271057
3	0xbc8086bc	-0.015689246
4	0x3d813a9e	0.063100085
5	0xbc4c66e6	-0.012475705
6	0xbc1c22c3	-0.009529772
7	0x3c8816c6	0.016612422
8	0x3b85e2e0	0.0040858835
9	0xbc0725c8	-0.008248754
10	0xbd5d1eaa	-0.05398432
11	0x3d1ab46b	0.037769716
12	0xbcd050e4	-0.025429197
13	0x3c6a278f	0.014291658
14	0x3c0bc052	0.008529739
15	0xbb458b5a	-0.0030142874
16	0xbcc3f295	-0.023919383
17	0x3d3f4d5f	0.046704646
18	0x3cdb4dca	0.026770491
19	0xbd46b6f2	-0.048514314
20	0x3c974232	0.018464182
21	0xbb58cad9	-0.003307989
22	0x3db1b31a	0.08676739
23	0x3d5af690	0.053457797
24	0xbd479b36	-0.048732005
25	0xba04f102	-0.00050713134
26	0x3ca5e6da	0.02025168
27	0xbcc288c0	-0.023746848

predAlpha/Mod_B0_L1/Tensordot/MatMul1 i1 [28, 57] scale=0.0033487831 zero_point=0
0	0xd0	-0.1607416
1	0xd4	-0.14734645
2	0xef	-0.056929313
3	0xde	-0.113858625
4	0x41	0.2176709
5	0x0c	0.0401854
6	0x0a	0.03348783
7	0x31	0.16409038
8	0xe8	-0.0803708
9	0x25	0.12390497
10	0x06	0.0200927
11	0x2b	0.14399767
12	0x1a	0.087068364
13	0xf4	-0.0401854
14	0xf8	-0.026790265
15	0x09	0.030139048
16	0xf8	-0.026790265
17	0x30	0.1607416
18	0x0c	0.0401854
19	0xd8	-0.13395132
20	0x1b	0.09041715
21	0xdb	-0.12390497
22	0xd2	-0.15404402
23	0x38	0.18753186
24	0x3f	0.21097334
25	0x25	0.12390497
26	0x27	0.13060254
27	0x21	0.11050984
28	0x30	0.1607416
29	0xfa	-0.0200927
30	0x0d	0.043534182
31	0xbf	-0.2176709
32	0x06	0.0200927
33	0xbe	-0.22101969
34	0x0a	0.03348783
35	0x46	0.23441482
36	0x35	0.17748551
37	0xf7	-0.030139048
38	0xdf	-0.11050984
39	0xfb	-0.016743915
40	0xff	-0.0033487831
41	0xf7	-0.030139048
42	0xf0	-0.05358053
43	0x31	0.16409038
44	0x40	0.21432212
45	0x04	0.0133951325
46	0xda	-0.12725376
47	0x98	-0.34827346
48	0x14	0.06697566
49	0xda	-0.12725376
50	0xb2	-0.26120508
51	0x16	0.073673226
52	0x1f	0.10381228
53	0xb5	-0.25115874
54	0x06	0.0200927
55	0xcb	-0.17748551
56	0xac	-0.28129777
57	0x1a	0.087068364
58	0x13	0.06362688
59	0x38	0.18753186
60	0xf0	-0.05358053
61	0xfb	-0.016743915
62	0x9a	-0.3415759
63	0x9e	-0.32818076
64	0xf7	-0.030139048
65	0xda	-0.12725376
66	0x4a	0.24780995
67	0x12	0.060278095
68	0xe4	-0.09376593
69	0x1d	0.09711471
70	0xe4	-0.09376593
71	0x3b	0.1975782
72	0xc8	-0.18753186
73	0x19	0.08371958
74	0x33	0.17078795
75	0xf7	-0.030139048
76	0xfa	-0.0200927
77	0xcb	-0.17748551
78	0xe8	-0.0803708
79	0x56	0.28799534
80	0x0f	0.050231747
81	0x01	0.0033487831
82	0x05	0.016743915
83	0xa5	-0.30473927
84	0x3a	0.19422942
85	0xca	-0.1808343
86	0xf9	-0.023441482
87	0x0b	0.036836613
88	0xf1	-0.050231747
89	0xf9	-0.023441482
90	0xf4	-0.0401854
91	0x0b	0.036836613
92	0x27	0.13060254
93	0x15	0.07032444
94	0xec	-0.06697566
95	0xc7	-0.19088064
96	0x23	0.11720741
97	0x32	0.16743916
98	0xf2	-0.046882965
99	0xf5	-0.036836613
100	0x36	0.1808343
101	0x09	0.030139048
102	0x16	0.073673226
103	0xbc	-0.22771725
104	0x10	0.05358053
105	0xb5	-0.25115874
106	0x3f	0.21097334
107	0xf3	-0.043534182
108	0xdd	-0.11720741
109	0x05	0.016743915
110	0x23	0.11720741
111	0xf8	-0.026790265
112	0xf2	-0.046882965
113	0x04	0.0133951325
114	0x36	0.1808343
115	0xd4	-0.14734645
116	0x21	0.11050984
117	0xf8	-0.026790265
118	0x17	0.07702201
119	0x07	0.023441482
120	0x21	0.11050984
121	0xcd	-0.17078795
122	0xee	-0.060278095
123	0xef	-0.056929313
124	0xad	-0.277949
125	0xd3	-0.15069523
126	0xe6	-0.087068364
127	0x20	0.10716106
128	0x3d	0.20427577
129	0x0b	0.036836613
130	0x48	0.24111238
131	0x45	0.23106603
132	0x20	0.10716106
133	0x5f	0.3181344
134	0xf2	-0.046882965
135	0x23	0.11720741
136	0xee	-0.060278095
137	0xd3	-0.15069523
138	0x24	0.12055619
139	0x2d	0.15069523
140	0x01	0.0033487831
141	0x1a	0.087068364
142	0x0e	0.046882965
143	0x2f	0.1573928
144	0xbe	-0.22101969
145	0x03	0.01004635
146	0x0b	0.036836613
147	0xdc	-0.12055619
148	0xe5	-0.09041715
149	0xcd	-0.17078795
150	0x03	0.01004635
151	0x9d	-0.33152953
152	0xed	-0.06362688
153	0x0f	0.050231747
154	0x26	0.12725376
155	0xf0	-0.05358053
156	0xf1	-0.050231747
157	0xea	-0.073673226
158	0x09	0.030139048
159	0x00	0.0
160	0x1e	0.100463495
161	0xe0	-0.10716106
162	0xfd	-0.01004635
163	0xf6	-0.03348783
164	0xf4	-0.0401854
165	0x0f	0.050231747
166	0xcc	-0.17413673
167	0x1b	0.09041715
168	0xef	-0.056929313
169	0x0d	0.043534182
170	0x39	0.19088064
171	0x08	0.026790265
172	0xb5	-0.25115874
173	0x08	0.026790265
174	0xf7	-0.030139048
175	0x2c	0.14734645
176	0x07	0.023441482
177	0xf5	-0.036836613
178	0xc4	-0.20092699
179	0x31	0.16409038
180	0x4c	0.2545075
181	0x35	0.17748551
182	0xdd	-0.11720741
183	0x00	0.0
184	0x35	0.17748551
185	0x19	0.08371958
186	0xbe	-0.22101969
187	0x16	0.073673226
188	0x1f	0.10381228
189	0x28	0.13395132
190	0x26	0.12725376
191	0x9d	-0.33152953
192	0xb9	-0.2377636
193	0xf5	-0.036836613
194	0xfc	-0.0133951325
195	0x26	0.12725376
196	0x0e	0.046882965
197	0x10	0.05358053
198	0xfd	-0.01004635
199	0xcb	-0.17748551
200	0xfe	-0.0066975662
201	0x18	0.0803708
202	0x22	0.113858625
203	0xb7	-0.24446116
204	0xfe	-0.0066975662
205	0x07	0.023441482
206	0xc9	-0.18418308
207	0xe0	-0.10716106
208	0x4c	0.2545075
209	0xf9	-0.023441482
210	0xec	-0.06697566
211	0xda	-0.12725376
212	0x05	0.016743915
213	0xef	-0.056929313
214	0x82	-0.42194667
215	0xd2	-0.15404402
216	0xf0	-0.05358053
217	0x11	0.056929313
218	0xef	-0.056929313
219	0xd4	-0.14734645
220	0x10	0.05358053
221	0x5f	0.3181344
222	0xd1	-0.1573928
223	0x37	0.18418308
224	0x05	0.016743915
225	0x03	0.01004635
226	0x0e	0.046882965
227	0xef	-0.056929313
228	0x34	0.17413673
229	0x04	0.0133951325
230	0x22	0.113858625
231	0x0c	0.0401854
232	0xfa	-0.0200927
233	0xdf	-0.11050984
234	0xf5	-0.036836613
235	0xfe	-0.0066975662
236	0xcb	-0.17748551
237	0xfe	-0.0066975662
238	0x05	0.016743915
239	0xbf	-0.2176709
240	0xb2	-0.26120508
241	0x4a	0.24780995
242	0xea	-0.073673226
243	0xdf	-0.11050984
244	0x20	0.10716106
245	0x23	0.11720741
246	0x08	0.026790265
247	0xde	-0.113858625
248	0x04	0.0133951325
249	0x25	0.12390497
250	0x1d	0.09711471
251	0x33	0.17078795
252	0x03	0.01004635
253	0x39	0.19088064
254	0x09	0.030139048
255	0x11	0.056929313
