Project/Models/Numbers/7.tflite (tflite, 15504 bytes, 11 tensors)

predAlpha/Mod_B3_Lo/MatMul f4 [1, 32]
0	0xbed02583	-0.4065362
1	0x3e303b16	0.1721004
2	0x3ea05096	0.31311482
3	0xbe3f9a22	-0.18711141
4	0x3ef89266	0.48549193
5	0xbe254485	-0.1613942
6	0x3e42677a	0.18984786
7	0xbee34aa7	-0.44392893
8	0xbc4cb6f6	-0.012494793
9	0x3f00a66f	0.5025396
10	0x3e76c065	0.2409683
11	0x3ef0620a	0.46949798
12	0xbd0b4cdc	-0.034008846
13	0x3ea83ded	0.32859746
14	0x3d5aa4b9	0.053379748
15	0xbed4cca8	-0.4156239
16	0x3e9c5855	0.30536142
17	0x3cee36f9	0.029078947
18	0xbece8772	-0.40337712
19	0x3eaf7ef8	0.34276557
20	0x3eab1f7a	0.33422452
21	0xbe896971	-0.26838258
22	0xbec2f488	-0.38077188
23	0xbf088c96	-0.5333952
24	0x3e8a94aa	0.27066547
25	0xbebf3a6c	-0.3734926
26	0xbec5be37	-0.38621685
27	0x3d9c7ae9	0.07640631
28	0x3edead86	0.43491763
29	0x3e412488	0.18861592
30	0x3df98ddb	0.1218526
31	0xbe691b3c	-0.22764295

predAlpha/Mod_B1_L0/MatMul f4 [32, 28]
0	0x3ecea894	0.4036299
1	0xbdbf2d23	-0.09334781
2	0xbdd68b55	-0.10475794
3	0xbe821f65	-0.25414577
4	0x3e69c51b	0.22829096
5	0xbd7b7485	-0.06139042
6	0xbe296d51	-0.16545607
7	0xbb58790d	-0.0033031136
8	0x3de7a0f7	0.113099985
9	0x3e1788b5	0.14798243
10	0x3e9a7830	0.3016982
11	0xbdda61dc	-0.106631964
12	0x3e1a2a83	0.1505528
13	0x3e6d094e	0.2314808
14	0x3e9945bd	0.2993602
15	0x3e8e73d7	0.27822754
16	0x3d978eab	0.07400259
17	0xbd710cc2	-0.058850057
18	0x3d1ef15a	0.03880439
19	0x3e8a5c32	0.27023464
20	0xbdadc732	-0.08485259
21	0xbd837ff4	-0.064208895
22	0x3e896934	0.26838076
23	0xbe9ea361	-0.30984023
24	0x3d750b38	0.059825152
25	0xbe265b94	-0.16245872
26	0x3e6051ef	0.21906255
27	0x3ee6bfa2	0.4506808
28	0x3cec474c	0.02884259
29	0x3e34f596	0.17671809
30	0x3e24deda	0.16100636
31	0x3d7fe5bd	0.062474955
32	0xbd9747b3	-0.073867224
33	0x3dafcab9	0.08583588
34	0x3cef6caa	0.02922662
35	0xbe6fa83d	-0.23404022
36	0x3a85eef3	0.0010218307
37	0x3e93fd0e	0.28904003
38	0x3b413ec6	0.0029486879
39	0xbcfa7fbb	-0.030578485
40	0x3e937913	0.2880331
41	0x3e7ec609	0.24880232
42	0xbeabaa2e	-0.33528274
43	0x3e02c2ea	0.12769666
44	0xbec1968c	-0.3781017
45	0xbe28fa9a	-0.16501847
46	0xbddc6276	-0.107609674
47	0xbde14309	-0.10999114
48	0xbd8af924	-0.06785801
49	0x3ea34604	0.31889355
50	0x3ddf0452	0.10889496
51	0xbd4ac002	-0.04949952
52	0x3e01e0dd	0.12683435
53	0x3e4f609c	0.20251697
54	0xbd98b5d6	-0.074565575
55	0x3eacf991	0.33784154
56	0x3c6d416d	0.014480931
57	0xbc0b1571	-0.008488999
58	0x3d9f0e64	0.07766417
59	0xbe4c8125	-0.1997114
60	0x3c88c0b4	0.01669345
61	0x3dd1dffa	0.10247798
62	0xbe87690d	-0.26447335
63	0xbe9d60b6	-0.30737847
64	0x3e7b6fb1	0.24554326
65	0x3e927665	0.28605953
66	0xbe50fdfc	-0.20409387
67	0xbdc994c9	-0.09842832
68	0x3dec71d1	0.11545146
69	0xbde1f6b7	-0.11033385
70	0xbe03f23c	-0.12885374
71	0x3e46d425	0.19416864
72	0xbe1e09c7	-0.15433417
73	0xbe572d03	-0.21013264
74	0xbcb06d85	-0.021536598
75	0xbe7e8325	-0.24854715
76	0xbd8a4798	-0.06751937
77	0x3e245a01	0.16049959
78	0xbd4daea5	-0.050215382
79	0x3e186a59	0.14884318
80	0xbe37da36	-0.17954335
81	0xbdf35a71	-0.11882485
82	0x3d91d12c	0.071199745
83	0xbec65c41	-0.3874226
84	0x3d612f91	0.054977003
85	0xbd0fdf50	-0.035125077
86	0x3e6c5f79	0.23083295
87	0x3e24a099	0.16076888
88	0xbd9d037d	-0.07666681
89	0xbda13d7c	-0.07873055
90	0xbea14d75	-0.31504408
91	0xbe300380	-0.17188835
92	0x3e9f289b	0.31085667
93	0xbee5662a	-0.44804507
94	0xbe9d0639	-0.3066881
95	0xbc020afc	-0.007937189
96	0x3e3a6140	0.1820116
97	0x3eb17bc1	0.3466473
98	0xbe14908a	-0.14508262
99	0xbe8e048c	-0.27737844
100	0x3e802093	0.25024852
101	0xbe890f09	-0.26769283
102	0x3ddf703c	0.10910079
103	0xbd0364aa	-0.032078423
104	0x3e66cafd	0.22538371
105	0xbe1ee644	-0.15517527
106	0xbe9973c7	-0.29971144
107	0xbec51d55	-0.3849894
108	0x3e8aea14	0.27131712
109	0xbe827254	-0.2547785
110	0x3ccdd92f	0.025127975
111	0xbe03411a	-0.12817803
112	0x3da0ee5a	0.07857962
113	0x3e9d135b	0.3067883
114	0xbd760905	-0.060067195
115	0x3c8b792f	0.017025558
116	0xbed9e645	-0.42558494
117	0x3e85410d	0.26026192
118	0x3d169d3b	0.03677104
119	0x3e22c941	0.15897085
120	0xbe4f71b7	-0.20258223
121	0x3db92748	0.090406954
122	0xbeb9579f	-0.36199662
123	0xbe5fd212	-0.21857479
124	0xbea8c2f2	-0.3296123
125	0x3d9c4f68	0.07632333
126	0xbe9b1826	-0.3029186
127	0x3e92f089	0.2869914
128	0xbe96fcd4	-0.29489768
129	0xbd1d84d4	-0.038456753
130	0x3a614c78	0.00085944636
131	0x3e51464f	0.20436977
132	0xbe7eeb99	-0.24894561
133	0x3dadec7e	0.08492373
134	0x3e0d96f9	0.13827123
135	0x3e5886a0	0.21145105
136	0x3e97dafe	0.29659265
137	0x3e1e9888	0.15487874
138	0xbe1be405	-0.15223701
139	0x3d7d2f55	0.061812717
140	0xbe8dbdad	-0.27683774
141	0xbe6e9895	-0.23300393
142	0xbe39df5c	-0.18151611
143	0x3e504c30	0.20341563
144	0x3e31c953	0.17361955
145	0xbec81650	-0.39079523
146	0x3bd81561	0.0065943454
147	0x3e8e336a	0.277736
148	0xbe43c826	-0.1911932
149	0x3d759e60	0.05996549
150	0x3e131a04	0.14365393
151	0x3e34d7ae	0.176604
152	0x3e88c9b1	0.26716378
153	0x3e470d1a	0.19438592
154	0xbda7e496	-0.08197896
155	0xbe96e79f	-0.29473588
156	0x3d4d03d5	0.050052483
157	0xbd3205f7	-0.04346272
158	0x3e3feeeb	0.18743484
159	0x3d1ee3a9	0.038791332
160	0x3cdb1bf4	0.026746728
161	0xbeaf19e0	-0.3419943
162	0x3e128280	0.14307594
163	0xbc0f2d0e	-0.008738769
164	0x39a08e40	0.00030623563
165	0x3e2e62a0	0.1702981
166	0x3caeac76	0.02132247
167	0x3defd3e5	0.117103375
168	0x3e61855a	0.22023526
169	0x3df88d7a	0.121363595
170	0xbe03ab11	-0.12858225
171	0x3d40a0ce	0.047028355
172	0xbda41ab3	-0.08012905
173	0xbd9d6b88	-0.076865256
174	0xbeb80855	-0.35943857
175	0xbeed20ba	-0.4631403
176	0xbecef77b	-0.40423188
177	0x3e085a28	0.13315642
178	0xbd38eaca	-0.045145787
179	0xbdb281ad	-0.0871614
180	0x3ea5bc58	0.32370257
181	0xbd49c840	-0.04926324
182	0x3cb7d716	0.022441428
183	0xbd04f775	-0.032462556
184	0x3d47aa84	0.0487466
185	0x3e9ae569	0.3025315
186	0x3d13130f	0.035906848
187	0xbc837c0d	-0.016050363
188	0xbe89a206	-0.26881427
189	0x3dbdb437	0.09262889
190	0x3d65db81	0.05611754
191	0xbd8520a7	-0.065003686
192	0x3e061215	0.13092835
193	0xbe0b37bf	-0.13595484
194	0x3da471ba	0.08029504
195	0x3e373c0c	0.17894
196	0x3ed2e7b9	0.41192415
197	0xbe59c08b	-0.21264856
198	0xbe4ac26f	-0.19800733
199	0x3dbda923	0.09260776
200	0xbd8506c8	-0.06495434
201	0xbe299fac	-0.16564816
202	0xbe0f16d9	-0.1397356
203	0x3e71e478	0.2362231
204	0x3d75169f	0.059836026
205	0xbcafda84	-0.021466501
206	0xbc195e07	-0.009360797
207	0x3f0615db	0.523771
208	0xbea5d318	-0.32387614
209	0x3d76ac3b	0.060222846
210	0xbe96ae35	-0.29429784
211	0x3d112625	0.035436768
212	0xbebea296	-0.37233418
213	0x3c8de14c	0.017319344
214	0x3e4cfb12	0.2001765
215	0x3e1d3c56	0.15355048
216	0x3d5c170f	0.053732928
217	0xbcf6e0e6	-0.030136537
218	0x3e5ae3bd	0.21375938
219	0x3e3feda9	0.18743004
220	0xbe87564f	-0.26433036
221	0x3edfc2dc	0.43703353
222	0x3d5f9c16	0.054592215
223	0xbdede27c	-0.11615464
224	0xbe16c7cc	-0.14724654
225	0x3dc310c2	0.09524681
226	0xbdfda78a	-0.12385471
227	0xbd250079	-0.040283654
228	0xbe186df9	-0.14885701
229	0xbdc4e7cd	-0.09614525
230	0x3d8fc4a8	0.07019931
231	0x3cf74a8c	0.030186914
232	0xbc49217c	-0.01227605
233	0xbe34e9df	-0.1766734
234	0xbdb97c9d	-0.09056971
235	0x3db18591	0.08668054
236	0x3e6740e1	0.22583343
237	0xbe981bfb	-0.29708847
238	0x3db3ff21	0.08788896
239	0xbd5ffaf4	-0.054682687
240	0xbe34e1fd	-0.17664333
241	0x3e14b76a	0.14523092
242	0x3e59b2e7	0.21259652
243	0x3e87ca56	0.26521558
244	0x3e01dee7	0.12682687
245	0x3e222b43	0.15836816
246	0xbdd54ec5	-0.10415415
247	0x3e05dfd1	0.1307366
248	0xbceee7d3	-0.029163277
249	0xbdd70925	-0.10499791
250	0x3e0859e9	0.13315548
251	0x3d81c446	0.06336264
252	0xbe3951ba	-0.18097582
253	0x3e5ba77e	0.21450612
254	0xbd4aecf7	-0.049542394
255	0xbdfbd5ce	-0.122966394

predAlpha/Mod_B0_L5/Tensordot/MatMul f4 [14, 28]
0	0x3ededcfa	0.43527967
1	0x3cd7f71c	0.026362948
2	0x3e323f53	0.17406969
3	0x3eca14f2	0.39469105
4	0xbd4ae57a	-0.049535252
5	0xbe0fa526	-0.14027843
6	0x3ee9299d	0.4553956
7	0xbea1a1cc	-0.31568754
8	0xbdd04314	-0.10169044
9	0xbd711840	-0.058861017
10	0xbe109476	-0.14119133
11	0x3d6e56d7	0.058188286
12	0xbe9487b5	-0.29009786
13	0xbdd0e17b	-0.10199257
14	0x3c8fbbd1	0.017545613
15	0x3e8659f1	0.26240495
16	0xbdcbddc3	-0.09954407
17	0xbeb22b89	-0.3479884
18	0xbd87936c	-0.06619915
19	0xbd99a0a9	-0.075013466
20	0xbd7316fe	-0.0593481
21	0xbaf9dde4	-0.0019063321
22	0x3e3d15c4	0.18465334
23	0x3ea26ded	0.31724492
24	0xbe5df3b5	-0.21674998
25	0x3e27dced	0.1639287
26	0x3d7cde9b	0.06173573
27	0xbe904841	-0.28180125
28	0x3d844946	0.06459288
29	0x3df2b034	0.11850014
30	0x3e19acd6	0.15007338
31	0x3e9be27f	0.3044624
32	0x3d3046d9	0.043036316
33	0xbee55193	-0.447888
34	0x3eb6403d	0.35595885
35	0xbd250deb	-0.040296476
36	0x3eaeb18f	0.3411984
37	0xbeb81bf6	-0.35958833
38	0x3e97ed49	0.29673222
39	0xbd1beaf1	-0.038065854
40	0xbe169f78	-0.1470927
41	0xbe235b09	-0.15952696
42	0xbd544e00	-0.0518322
43	0xbe29bbe2	-0.16575578
44	0xbdcb2e3a	-0.099209264
45	0x3e00da28	0.1258322
46	0x3aabfc83	0.0013121519
47	0xbe4e1928	-0.20126784
48	0x3e2bcacf	0.16776584
49	0xbe97c12e	-0.29639572
50	0xbd54e977	-0.051980462
51	0x3ca0f987	0.019650234
52	0x3e690092	0.22754124
53	0xbe55da99	-0.2088417
54	0x3bf3dc88	0.007442061
55	0xbc02cb18	-0.007982992
56	0xbe80ebe6	-0.25179976
57	0xbe8bd2f4	-0.27309382
58	0xbeb6e6f4	-0.35723078
59	0xbea58bc5	-0.32333198
60	0xbe6cf034	-0.23138505
61	0x3e3723b2	0.1788471
62	0xbe710045	-0.23535259
63	0x3db389c9	0.08766515
64	0x3d637dde	0.05553996
65	0xbdd8effc	-0.105926484
66	0x3dabcb66	0.083884045
67	0xb9a60937	-0.00031668853
68	0xbc9cf586	-0.019160043
69	0xbeb635cf	-0.35587928
70	0x3e4c5a88	0.1995641
71	0xbdce19fc	-0.1006355
72	0x3d49d63c	0.049276575
73	0xbdde545c	-0.10855934
74	0x3ceae86f	0.028675286
75	0x3e9990fb	0.29993424
76	0xbdace353	-0.08441796
77	0xbd7e875a	-0.0621408
78	0xbe91c368	-0.28469396
79	0x3ddb64c3	0.10712578
80	0x3e6bf445	0.230424
81	0x3e2e16e5	0.17000921
82	0xbdd71c8f	-0.10503494
83	0xbe4467ce	-0.19180223
84	0xbe5a1e88	-0.21300709
85	0x3bb7e07d	0.005611478
86	0x3e97af6b	0.2962602
87	0xbc508c2b	-0.012728731
88	0x3dc38698	0.09547156
89	0xbe918654	-0.28422797
90	0x3e02eb5a	0.12785092
91	0xbdd7eda8	-0.10543376
92	0x3ea701d1	0.32618573
93	0x3d0b6138	0.034028262
94	0xbe2b4478	-0.16725338
95	0x3e1a7141	0.15082265
96	0xbec7f894	-0.39056838
97	0xbe4d8dc1	-0.20073606
98	0xbea93817	-0.33050606
99	0x3eebb01b	0.46032795
100	0xbdb18ba1	-0.0866921
101	0x3e0ccb81	0.13749506
102	0x3e4ba2ab	0.19886272
103	0xbdae72d6	-0.08517997
104	0xbe6556b8	-0.22396362
105	0xbee018d9	-0.43768957
106	0x3e3ed771	0.18636872
107	0x3d4961e8	0.049165636
108	0xbdc5abb3	-0.0965189
109	0xbe040e0a	-0.1289598
110	0xbe9d3210	-0.30702257
111	0xbebf8cb6	-0.3741204
112	0xbd4de699	-0.050268743
113	0xbd81d96d	-0.06340299
114	0x3e5d9474	0.21638662
115	0xbec9752e	-0.39347214
116	0xbdd6b1a5	-0.10483102
117	0x3e5229a2	0.20523694
118	0xbed42cf0	-0.41440535
119	0xbea357dc	-0.3190297
120	0x3d4b7a9c	0.049677476
121	0xbd8d8490	-0.0691005
122	0xbd59d7be	-0.053184263
123	0x3e83447d	0.2563819
124	0x3eb6f08d	0.357304
125	0xbe245ae2	-0.16050294
126	0x3e090635	0.13381274
127	0x3dc7c11d	0.0975363
128	0x3df83edf	0.12121367
129	0xbec5b32a	-0.38613254
130	0xbec17bf3	-0.37789878
131	0xbcdb433b	-0.026765456
132	0xbddf2940	-0.1089654
133	0xbdee5eaa	-0.116391495
134	0x3e7df35c	0.24799865
135	0x3e603662	0.21895745
136	0xbea3f043	-0.32019243
137	0xbcec6627	-0.028857304
138	0x3e6acb67	0.22929154
139	0x3e388cc8	0.18022454
140	0x3eb1ef9c	0.3475312
141	0xbe902f74	-0.28161204
142	0x3e3bbbf3	0.18333416
143	0xbe4b92b9	-0.19880189
144	0xbac999e6	-0.0015380948
145	0xbeabe611	-0.33573964
146	0xbea3e7b0	-0.320127
147	0x3d8866d8	0.06660241
148	0x3acf38e7	0.0015809805
149	0xbe0a4911	-0.13504435
150	0xbdc00ee5	-0.09377841
151	0x3ec2b2e1	0.380271
152	0x3efe365e	0.49650854
153	0x3c71b066	0.014751529
154	0xbe333aac	-0.1750285
155	0x3bc5763d	0.006026058
156	0xbe5bed33	-0.21477203
157	0xbe446076	-0.19177422
158	0x3ea93893	0.33050975
159	0x3ec32ad7	0.38118622
160	0x3b159d93	0.0022829517
161	0x3e84935d	0.2589368
162	0xbc05e417	-0.008172057
163	0xbd81ecd7	-0.06344002
164	0x3e940ba9	0.28915146
165	0x3d819176	0.063265726
166	0x3e96317a	0.29334623
167	0xbd7084ae	-0.058720283
168	0x3d961679	0.07328505
169	0x3e961ab3	0.29317245
170	0x3e9e99d1	0.30976728
171	0x3d1c403f	0.038147207
172	0x3e64dfe8	0.22351038
173	0x3ed485b0	0.41508245
174	0xbedf9fc6	-0.43676585
175	0xbc6dace1	-0.01450655
176	0x3de47a61	0.111561544
177	0x3db81551	0.08988441
178	0xbcec38dc	-0.028835706
179	0x3e302935	0.17203219
180	0x3d1fd673	0.039022874
181	0xbc820ec3	-0.01587618
182	0x3d861834	0.06547585
183	0xbe8779b1	-0.2646003
184	0xbc5e3bfb	-0.013564105
185	0x3ebb1e18	0.36546397
186	0x3e8c66cd	0.2742218
187	0x3e9e2b94	0.30892622
188	0x3c696908	0.014246233
189	0x3d87dfd8	0.06634492
190	0xbeb29d91	-0.3488584
191	0xbe8d7ec0	-0.27635765
192	0xbeb6415c	-0.3559674
193	0x3dee3bde	0.116325125
194	0x3e0bb521	0.13643314
195	0xbdbd8025	-0.09252957
196	0xbe2ec99b	-0.17069094
197	0xbddb7358	-0.107153594
198	0xbe25f485	-0.16206558
199	0x3e40086c	0.18753213
200	0x3e256b59	0.16154231
201	0xbd7dbead	-0.06194942
202	0x3df50aea	0.11964972
203	0x3e45132c	0.19245595
204	0xbd221451	-0.039570156
205	0x3e27f833	0.16403274
206	0xbde99fde	-0.11407445
207	0x3e8f7ae8	0.28023458
208	0xbe9d8c93	-0.30771312
209	0x3d013e3f	0.031553503
210	0xbeca15d8	-0.3946979
211	0x3d6c0cf1	0.05762953
212	0x3ddf94a5	0.109170236
213	0xbd976ca1	-0.07393766
214	0x3d9ccb51	0.07655967
215	0xbda494cc	-0.08036193
216	0xbd6d9800	-0.058006287
217	0xbdb7ee6b	-0.089810215
218	0xbe7f6e49	-0.24944414
219	0xbeb6c447	-0.35696623
220	0x3e5a4dc8	0.21318734
221	0xbe47c53b	-0.19508831
222	0xbdb14fe5	-0.08657817
223	0x3cfb471a	0.030673552
224	0xbe52f115	-0.20599778
225	0x3ec2b79a	0.38030702
226	0xbe92f833	-0.28704986
227	0x3d83cf32	0.06436004
228	0xbe12eda1	-0.1434846
229	0x3e6dc980	0.23221397
230	0xbcedfebf	-0.029052136
231	0x3ec6e1b8	0.38844085
232	0x3e46e734	0.19424134
233	0xbe73e695	-0.23818429
234	0xbe1c3ce0	-0.15257597
235	0xbec4d685	-0.38444915
236	0xbeb5de1b	-0.35521016
237	0x3de8ef0e	0.11373721
238	0xbe132da9	-0.14372887
239	0xbb807ecd	-0.003921366
240	0x3d5ef67d	0.05443429
241	0xbe57e5f4	-0.21083814
242	0xbd186cd4	-0.03721316
243	0xbdf103f8	-0.11768335
244	0xbdfa0d6d	-0.12209592
245	0xbdce1d4b	-0.10064181
246	0x3b7128d7	0.0036798024
247	0x3ebc89b7	0.36823818
248	0x3e1435d8	0.14473665
249	0xbdb3d6f6	-0.08781235
250	0xbe1d5593	-0.15364675
251	0xbe623179	-0.22089185
252	0x3f0c827d	0.5488661
253	0x3e6d0497	0.23146282
254	0x3ea13083	0.31482324
255	0xbe78e197	-0.24304806

predAlpha/Mod_B0_L7/batchnorm/sub f4 [14]
0	0xbf34daf6	-0.7064661
1	0xbf4d4e16	-0.80197275
2	0xbf09a301	-0.5376435
3	0xbf5e3bf1	-0.86810213
4	0xbf38143a	-0.71905863
5	0xbf269bad	-0.6508129
6	0xbf337673	-0.70102614
7	0xbf06e18f	-0.52687925
8	0xbf17e8ca	-0.5933958
9	0xbf57124e	-0.84012306
10	0xbf45ba98	-0.77237844
11	0xbead332c	-0.33828104
12	0xbf161fca	-0.58642256
13	0xbe5052c3	-0.20344071

predAlpha/Mod_B0_L7/batchnorm/mul f4 [14]
0	0x3fd5dec1	1.6708604
1	0x4081e9ee	4.059806
2	0x409651ad	4.69747
3	0x40710fe7	3.7665956
4	0x408ad11e	4.338027
5	0x4015e189	2.3418906
6	0x4084f4b2	4.15487
7	0x40bb90a3	5.861406
8	0x4086d392	4.2133265
9	0x40bdd905	5.9327416
10	0x4040ad27	3.0105684
11	0x40d9ede9	6.810292
12	0x3fefcda4	1.8734632
13	0x3f8cafe3	1.0991176

predAlpha/Mod_B0_L3/batchnorm/sub f4 [28]
0	0xbffb006a	-1.9609501
1	0xbdc7a72e	-0.09748684
2	0xc0183298	-2.378088
3	0xbf0d7242	-0.5525247
4	0xbf3156d0	-0.6927309
5	0xbfe008bd	-1.7502667
6	0xbf2d4946	-0.6768993
7	0xbf9ea879	-1.2395164
8	0xbd86c470	-0.06580436
9	0xbf1cbb0f	-0.6122293
10	0xbe2c11d3	-0.16803674
11	0xbf3e2da8	-0.74288416
12	0xbeaf6bc8	-0.34261918
13	0xbe187c1f	-0.14891098
14	0xbfdc63cf	-1.7217959
15	0xbfafeed3	-1.3744758
16	0xbe2f37c6	-0.1711112
17	0xbfb4b512	-1.4117758
18	0xbfa71738	-1.3053961
19	0xbfca81da	-1.5820878
20	0xbfa71ac7	-1.3055047
21	0xbf050d4e	-0.51973426
22	0xbf8ac858	-1.084239
23	0xbf42a40a	-0.76031554
24	0xbff377c8	-1.9020929
25	0xbf36285d	-0.7115534
26	0xbf3e10e4	-0.74244523
27	0xc0407a2b	-3.0074565

predAlpha/Mod_B0_L3/batchnorm/mul f4 [28]
0	0x40a72991	5.223824
1	0x40f621fc	7.6916485
2	0x3fc7044e	1.5548189
3	0x3fd1a1a1	1.637745
4	0x4004e0e5	2.0762265
5	0x3f83429d	1.0254704
6	0x40d8b2ca	6.771825
7	0x40052e21	2.0809405
8	0x40f7213c	7.722807
9	0x3ffc3ea2	1.9706614
10	0x401bcfd8	2.4345608
11	0x40b5962a	5.6745806
12	0x402e610f	2.724674
13	0x40167f82	2.3515325
14	0x3f368c87	0.7130818
15	0x3f508a9b	0.81461495
16	0x40801a41	4.003205
17	0x3fb1fa3d	1.3904492
18	0x3f7faf5e	0.99876964
19	0x4062e4c7	3.5452135
20	0x3ee1ad9d	0.4407777
21	0x4009519d	2.1456063
22	0x400b07be	2.1723475
23	0x3fc408e8	1.5315218
24	0x3fa80d56	1.312907
25	0x40353efd	2.8319695
26	0x40c7d873	6.245172
27	0x409181d7	4.5470996

predAlpha/Mod_B1_L0/BiasAdd/ReadVariableOp f4 [32]
0	0x3d586ab3	0.05283613
1	0xbb51b660	-0.0031999573
2	0xbc6bd030	-0.0143928975
3	0x3e5fbfeb	0.21850555
4	0x3b8e7aab	0.0043481193
5	0x3e294c34	0.16532975
6	0xbc6107fe	-0.013734816
7	0x3d51305b	0.051071506
8	0xbce31b1a	-0.027722884
9	0xbb33292f	-0.002733778
10	0xbd859631	-0.06522787
11	0xbcb67d50	-0.02227655
12	0x3bb3bdfb	0.005485294
13	0xbd4ae2a9	-0.049532566
14	0xbba911f6	-0.005159612
15	0x3d4ac234	0.049501613
16	0xbd7b191e	-0.06130325
17	0xbd10fd1b	-0.03539763
18	0x3da0b82f	0.0784763
19	0xbc9105ad	-0.017702902
20	0xbd81b3a0	-0.06333089
21	0x3ddc8689	0.10767848
22	0x3e11d7e4	0.14242512
23	0x3dbf8cb4	0.09353009
24	0x3baf1c46	0.0053439466
25	0x3dbf09cf	0.09328043
26	0x3db90e50	0.09035933
27	0xbd460078	-0.04834029
28	0x3bc9b4cc	0.006155586
29	0x3c8f83c4	0.017518885
30	0x3b762c75	0.003756312
31	0x3dd54702	0.10413934

predAlpha/Mod_B0_L5/BiasAdd/ReadVariableOp f4 [14]
0	0xbb4c913e	-0.00312145
1	0xbd372a99	-0.04471836
2	0xbdd719f9	-0.10503001
3	0xbcd317a1	-0.025768103
4	0xbbf0a68c	-0.0073440727
5	0xbd47cfa9	-0.048782025
6	0xbd36dc9c	-0.044643983
7	0xbbfe5f63	-0.007762836
8	0xbdcf56f2	-0.101240054
9	0xbd1ed4b7	-0.03877708
10	0x3d89a251	0.067204125
11	0xbdf57490	-0.11985123
12	0xbd7a8242	-0.06115938
13	0xbd99fd61	-0.07519031

predAlpha/Mod_B0_L1/BiasAdd/ReadVariableOp f4 [28]
0	0xbd59e77d	-0.05319928
1	0xbc0823ee	-0.008309348
2	0x3c3bf6f9	0.011472457
3	0x3d864118	0.065553844
4	0x3dbdea21	0.09273172
5	0x3d74e7eb	0.059791487
6	0xbce710c5	-0.028206239
7	0xbd55565e	-0.05208432
8	0xbc18ce77	-0.009326569
9	0xba8c7175	-0.0010714965
10	0xbc4d6ad9	-0.0125376815
11	0xbbadf59a	-0.005308819
12	0x3cdcbc6d	0.026945317
13	0xbc60fb7d	-0.0137318345
14	0xbc25dfb2	-0.010124134
15	0xbd69b0be	-0.05705332
16	0x3c688513	0.014191884
17	0x3cf371dd	0.02971738
18	0xbc1f45b4	-0.009721208
19	0x3d07cf22	0.03315652
20	0xbd2417bd	-0.0400617
21	0x3d09ff08	0.033690482
22	0x3bf6e853	0.0075350194
23	0xbe3ee052	-0.18640259
24	0xbd12f093	-0.03587396
25	0xbc099886	-0.008398181
26	0x3b109672	0.0022062329
27	0xbce44374	-0.027864195

predAlpha/Mod_B0_L1/Tensordot/MatMul1 i1 [28, 57] scale=0.0031957142 zero_point=0
0	0x09	0.028761428
1	0x15	0.06711
2	0x16	0.07030571
3	0x5b	0.29081
4	0x3d	0.19493857
5	0xf4	-0.03834857
6	0xc4	-0.19174285
7	0xf0	-0.051131427
8	0x13	0.06071857
9	0xe5	-0.08628428
10	0x05	0.015978571
11	0xaa	-0.2748314
12	0x1c	0.08948
13	0xf5	-0.035152856
14	0x60	0.30678856
15	0x2f	0.15019856
16	0xa4	-0.2940057
17	0xda	-0.12143714
18	0x1e	0.095871426
19	0xf0	-0.051131427
20	0xd2	-0.14700285
21	0x2c	0.14061143
22	0x2f	0.15019856
23	0x20	0.102262855
24	0xd1	-0.15019856
25	0xb2	-0.2492657
26	0xf3	-0.041544285
27	0x04	0.012782857
28	0xf6	-0.031957142
29	0xce	-0.15978572
30	0x02	0.0063914284
31	0x9a	-0.32596284
32	0x50	0.25565714
33	0x01	0.0031957142
34	0x34	0.16617714
35	0xb7	-0.23328714
36	0x69	0.33554998
37	0xe9	-0.07350142
38	0x98	-0.33235428
39	0x29	0.13102429
40	0x51	0.25885284
41	0x26	0.12143714
42	0x31	0.15659
43	0x1f	0.09906714
44	0x96	-0.3387457
45	0x08	0.025565714
46	0x20	0.102262855
47	0x09	0.028761428
48	0x24	0.11504571
49	0xdb	-0.11824143
50	0xb7	-0.23328714
51	0xc7	-0.18215571
52	0x38	0.17896
53	0x1e	0.095871426
54	0xe6	-0.08308857
55	0x29	0.13102429
56	0xca	-0.17256856
57	0x07	0.02237
58	0xac	-0.26844
59	0xc8	-0.17896
60	0xe1	-0.09906714
61	0xcc	-0.16617714
62	0x22	0.10865428
63	0x07	0.02237
64	0x48	0.23009142
65	0xe3	-0.092675716
66	0xd6	-0.13422
67	0x27	0.12463285
68	0x3a	0.18535143
69	0xfb	-0.015978571
70	0xe6	-0.08308857
71	0x5d	0.29720142
72	0x34	0.16617714
73	0xdf	-0.10545857
74	0x4c	0.24287428
75	0xd4	-0.14061143
76	0xb7	-0.23328714
77	0x1a	0.08308857
78	0x00	0.0
79	0x02	0.0063914284
80	0xcb	-0.16937286
81	0x02	0.0063914284
82	0x34	0.16617714
83	0xf9	-0.02237
84	0x28	0.12782857
85	0x5b	0.29081
86	0xfa	-0.019174285
87	0x42	0.21091715
88	0x18	0.07669714
89	0xb8	-0.23009142
90	0x38	0.17896
91	0xf5	-0.035152856
92	0xa7	-0.28441855
93	0x33	0.16298142
94	0x3d	0.19493857
95	0x4d	0.24607
96	0xd1	-0.15019856
97	0xde	-0.10865428
98	0xcf	-0.15659
99	0x34	0.16617714
100	0x9c	-0.31957144
101	0x0a	0.031957142
102	0xea	-0.07030571
103	0xec	-0.063914284
104	0x30	0.15339428
105	0x37	0.17576428
106	0x3a	0.18535143
107	0xd2	-0.14700285
108	0x9b	-0.32276714
109	0xe1	-0.09906714
110	0xd0	-0.15339428
111	0xe7	-0.07989286
112	0x03	0.009587143
113	0x4c	0.24287428
114	0xfe	-0.0063914284
115	0xab	-0.2716357
116	0x54	0.26844
117	0x6f	0.3547243
118	0x18	0.07669714
119	0xcf	-0.15659
120	0xeb	-0.06711
121	0xfe	-0.0063914284
122	0x10	0.051131427
123	0x25	0.11824143
124	0x46	0.22369999
125	0x63	0.3163757
126	0x2b	0.1374157
127	0x18	0.07669714
128	0xc0	-0.20452571
129	0xb4	-0.24287428
130	0x17	0.07350142
131	0xc5	-0.18854713
132	0x10	0.051131427
133	0xe5	-0.08628428
134	0x1f	0.09906714
135	0x38	0.17896
136	0xfc	-0.012782857
137	0x0e	0.04474
138	0xee	-0.057522856
139	0x18	0.07669714
140	0xe6	-0.08308857
141	0x1c	0.08948
142	0xc8	-0.17896
143	0x2e	0.14700285
144	0xba	-0.22369999
145	0x2c	0.14061143
146	0x33	0.16298142
147	0x0b	0.035152856
148	0xb9	-0.2268957
149	0x1b	0.08628428
150	0x0d	0.041544285
151	0x19	0.07989286
152	0xd7	-0.13102429
153	0x0d	0.041544285
154	0xb7	-0.23328714
155	0xad	-0.26524428
156	0x51	0.25885284
157	0xf9	-0.02237
158	0x02	0.0063914284
159	0xcd	-0.16298142
160	0x38	0.17896
161	0xf5	-0.035152856
162	0x1b	0.08628428
163	0x1b	0.08628428
164	0xa2	-0.30039713
165	0xd9	-0.12463285
166	0x2e	0.14700285
167	0xb9	-0.2268957
168	0xff	-0.0031957142
169	0x01	0.0031957142
170	0xc3	-0.19493857
171	0xf6	-0.031957142
172	0xcc	-0.16617714
173	0x54	0.26844
174	0x41	0.20772143
175	0xc5	-0.18854713
176	0x00	0.0
177	0x21	0.10545857
178	0xc4	-0.19174285
179	0xe4	-0.08948
180	0x34	0.16617714
181	0x32	0.15978572
182	0xfd	-0.009587143
183	0xff	-0.0031957142
184	0x11	0.05432714
185	0xf4	-0.03834857
186	0x16	0.07030571
187	0xc6	-0.18535143
188	0x0b	0.035152856
189	0x23	0.11184999
190	0xf2	-0.04474
191	0x2e	0.14700285
192	0x22	0.10865428
193	0x56	0.2748314
194	0xe0	-0.102262855
195	0xf6	-0.031957142
196	0x2d	0.14380714
197	0x37	0.17576428
198	0x36	0.17256856
199	0x05	0.015978571
200	0xe8	-0.07669714
201	0x1c	0.08948
202	0xc8	-0.17896
203	0xe3	-0.092675716
204	0x09	0.028761428
205	0x07	0.02237
206	0x13	0.06071857
207	0x1b	0.08628428
208	0x0f	0.047935713
209	0x19	0.07989286
210	0x4c	0.24287428
211	0xde	-0.10865428
212	0x38	0.17896
213	0x54	0.26844
214	0xcd	-0.16298142
215	0x23	0.11184999
216	0xfa	-0.019174285
217	0xee	-0.057522856
218	0x07	0.02237
219	0x19	0.07989286
220	0x15	0.06711
221	0xb8	-0.23009142
222	0x62	0.31318
223	0xf5	-0.035152856
224	0xf5	-0.035152856
225	0x30	0.15339428
226	0x0f	0.047935713
227	0x19	0.07989286
228	0xd5	-0.1374157
229	0xca	-0.17256856
230	0xde	-0.10865428
231	0x34	0.16617714
232	0x43	0.21411285
233	0xb9	-0.2268957
234	0xbe	-0.21091715
235	0x0c	0.03834857
236	0xe9	-0.07350142
237	0xe2	-0.095871426
238	0x13	0.06071857
239	0xe2	-0.095871426
240	0xca	-0.17256856
241	0x2b	0.1374157
242	0x0f	0.047935713
243	0x50	0.25565714
244	0x31	0.15659
245	0x30	0.15339428
246	0x3b	0.18854713
247	0xdf	-0.10545857
248	0x09	0.028761428
249	0xd2	-0.14700285
250	0xba	-0.22369999
251	0x26	0.12143714
252	0x1d	0.092675716
253	0x0c	0.03834857
254	0x0e	0.04474
255	0x06	0.019174285
